advanced_functionality/autogluon-sagemaker-pipeline/AutogluonModels/ag-20230517_140744/models/NeuralNetTorch/net.params (torch, 241982 bytes, 13 tensors)

weight f4 [93, 20]
00000000: 044e 90bf 8833 8dbf 96ee 5dbe ba29 cdbe
00000010: 89cb 613f 4c1d 373f 7ec2 8ebe 7381 06c0
00000020: bb77 953e cbfa 9fbf 005b 9d3e 6c47 913e
00000030: 3b75 1b3e eab6 a13f a990 923f 9ba1 8cbe
00000040: eca8 a7bf 1232 dbbf c9dc 163f bca1 453f
00000050: fb64 1b3f 5580 c5bf 7d8f a6be cb5c ee3f
00000060: e9a8 443f a013 19bf 4428 35be bcb4 243e
00000070: 5551 ad3f 3ae1 cb3f 7932 693f deac 54bf
00000080: 2e9e 15bf 0eb9 f13c 1b6e e7be 9b4f 6f3e
00000090: 8210 e83e e8f4 ab3d 27bf 273f 78a1 cb3e
000000a0: fa34 ecbd e86c 463f b033 9dbe 1dc4 ac3d
000000b0: 8e9d 0e3f b261 1340 7ec5 b5bf 8023 cebf
000000c0: 495b 2fbf ffc3 623f 2426 823f e2eb 153e
000000d0: 6238 42be 6615 c0be 999c 153f afd0 cbbe
000000e0: 7964 cfbe 763d 343f b01c c53f c0a3 5740
000000f0: e612 c3bf f6e3 95bf 27e8 eb3f 8b6c 02bf
00000100: 1fb4 07bf 465b 743f 5136 933f de20 a33f
00000110: 5af1 c1bf 689a 2440 e661 01bf 71cd 903e
00000120: 3df2 c9bf c762 03bf 316e d8be 5d8a 05bf
00000130: 4136 81bf 2d1e 8a3f 0762 d2bd 4c1f 4d3f
00000140: 2ff9 c7bd 5999 433f 059e 56bf 7c05 3c3d
00000150: 5ae0 663f b3f3 b3be 9b76 8c3f 2fbb 953e
00000160: 9a30 8dbe 09af 1140 9d12 fabf 58dc 7dbd
00000170: 2cc6 8abf 752b 69bf 1a44 9c3d 02de 253f
00000180: 4470 da3f 499d b7bf 0b20 d43e f79c fc3e
00000190: 04ba 25c0 c688 d5bf 5b55 89be 3042 ac3e
000001a0: 58c2 993e d7d2 853d aeb3 c63e 9e8b c53e
000001b0: 4717 c73e 5f78 4fbf beab 403f 046a 7dbf
000001c0: 5454 1bbe 2efd 18c0 271f 96bb e1a3 4ebd
000001d0: 388c 833f 2537 963e ef39 5cbf 547b 4fbd
000001e0: 9f23 29bf 9d6e f7be b3fa fa3f f79d c4be
000001f0: 4c19 c43d 7608 963f 785c 623f 81c9 b53f
00000200: 0039 56bf c17b ecbe d671 4bbf 94f2 183f
00000210: 0c1e 0d3f 81b8 de3e 5a70 f33f a88f 88bf
00000220: 0c88 d7bd a798 253e bcd2 20bf 87e2 9cbf
00000230: be16 04be 7101 85bf c633 8ebe b659 563e
00000240: 54c5 90be fb5f ae3d 055b 703e 0151 973f
00000250: f7b3 9f3e d517 dd3e abea 2cbe 082e a1bd
00000260: 18a2 1f3e 207e 4abf 34c6 f7bf fac3 133e
00000270: e662 3bbf e7c6 a03e e1f8 083e 8e9d bb3e
00000280: 07b5 7a3f 9236 80bf 5177 973e 7a6e d6bd
00000290: 2bc0 7b3f 3c1e 00bf 9829 413f 37c7 1e3f
000002a0: 7a28 8b3e b280 463e 2b83 d5bd 5f20 ac3e
000002b0: 0a38 a9be 30cb 8dbf 6190 853e 83c0 aebf
000002c0: 0e37 8bbd 78c9 a8be 34fc c6bf 9a55 abbe
000002d0: d96f 863f af6d e53d b718 c73f e752 4f3f
000002e0: a25a 8abf 7c4b 38bf 81bd bf3f 3a9a 703e
000002f0: f017 223f 14da 80bf 7aff 9cbf 6f03 9bbf
00000300: 7e1e 07bf db0d 0b3f c579 df3e c52e bc3e
00000310: 4939 503e 0a17 573f 4fd0 80be 0f05 843f
00000320: 4e9d d1bd afc0 8dbf 798f c93e c32b 123f
00000330: fcc0 1f3f 6eb1 a0bf 2424 0d3f 6161 02bf
00000340: abb3 9d3f 48a4 e13d 2e11 823f dc5e 663f
00000350: 9d05 a4bf f6cf 6d3f 1166 0cbf 3876 9ebf
00000360: bb4f 673f f113 aa3f 70ba 38bf f2ff 143f
00000370: 4cd9 953e fa8a 98bc 3a77 87bf 2d17 a5bd
00000380: 41e4 9fbe 7726 c43f 4225 653e c06b b23e
00000390: 839a 2dbe 8603 2c3f 3eca 9bbe 6125 adbf
000003a0: c3ce efbd 00a0 0bbf 1928 00bf c305 543f
000003b0: 8e3a 5bbf eaf5 4e3f 3fa0 963f a850 e3bf
000003c0: 0f19 b8bf e854 debf 6d8f e23d 260c 81bf
000003d0: 36e5 c13f 4761 28be a2c6 1a3f 7989 5bbe
000003e0: 8c32 15bd b1b0 8b3f 28ac 583f f11a fdbe
000003f0: 2053 4dbf 67d4 433e 0e4e f73f 74ff b03e
-1.1273808 -1.1031351 -0.21673045 -0.40070897 0.88201195 0.7152908 -0.2788276 -2.101651
0.2919291 -1.2498411 0.3073349 0.28374803 0.15181439 1.2633946 1.1450397 -0.27467045
-1.3098426 -1.7124655 0.5893064 0.7719991 0.6070096 -1.5429789 -0.32531348 1.8622068
0.76820236 -0.5979557 -0.17691141 0.1608457 1.3540446 1.5928109 0.9109264 -0.83076274
-0.5844449 0.029507186 -0.4520119 0.23370211 0.45325094 0.083963215 0.6552605 0.39771628
-0.11533542 0.7750993 -0.30703497 0.08435843 0.5570916 2.3028378 -1.4200895 -1.6104584
-0.68498665 0.88580316 1.016789 0.14640763 -0.18966821 -0.37516326 0.58442074 -0.3980765
-0.40506342 0.7040628 1.539938 3.3693695 -1.5240142 -1.1710193 1.8430222 -0.50946873
-0.5300922 0.9545177 1.1500951 1.2744405 -1.515178 2.5719242 -0.50540006 0.2828174
-1.577705 -0.513226 -0.4227157 -0.5216425 -1.0094682 1.0790459 -0.102726035 0.8012588
-0.09764325 0.76405865 -0.8383487 0.045903668 0.90186083 -0.35146865 1.0973696 0.29244372
-0.27576143 2.2763083 -1.953693 -0.061977714 -1.0841727 -0.91081935 0.07630177 0.6479188
1.7065511 -1.4344875 0.41430697 0.49338505 -2.5894785 -1.6682365 -0.26822934 0.33644247
0.30031085 0.06534355 0.3880896 0.38583082 0.38884947 -0.81043047 0.7526206 -0.9898989
-0.15168887 -2.3904529 -0.0045813504 -0.050449256 1.0277166 0.29338947 -0.860259 -0.050654724
-0.6606998 -0.4832658 1.9607757 -0.38401768 0.095751375 1.1721332 0.88422346 1.4202119
-0.83680725 -0.46188167 -0.79470575 0.59745145 0.5512397 0.4350014 1.9018662 -1.066884
-0.10523996 0.16171513 -0.62821555 -1.2256631 -0.128993 -1.0391065 -0.27773875 0.2093266
-0.2827555 0.085144006 0.23472221 1.1821595 0.3119199 0.43182245 -0.16886394 -0.07870108
0.15589178 -0.790987 -1.9357362 0.14430228 -0.7319778 0.3140175 0.1337619 0.36643642
0.97932476 -1.0016654 0.2958322 -0.104702905 0.983401 -0.50046134 0.7545409 0.6202273
0.2717932 0.19385031 -0.10425409 0.33618447 -0.33050567 -1.1077633 0.26086715 -1.36525
-0.0679761 -0.32966208 -1.5545716 -0.33463746 1.0502883 0.11202561 1.5554417 0.80985874
-1.0808909 -0.7199018 1.4979707 0.23496333 0.63317776 -1.0066552 -1.2265465 -1.2110423
-0.527809 0.54318017 0.4364759 0.36754432 0.20334353 0.8401953 -0.25158927 1.0314044
-0.102350816 -1.1074427 0.39367273 0.57098025 0.62403846 -1.2554147 0.5513327 -0.5092984
1.2320455 0.11017662 1.0161493 0.89988494 -1.2814213 0.9289545 -0.5484324 -1.2379827
0.90356034 1.3287336 -0.7215948 0.5820304 0.29267347 -0.018620957 -1.058326 -0.08061061
-0.3122883 1.5324239 0.22377494 0.34847832 -0.16953473 0.67192876 -0.30427736 -1.3527032
-0.117093585 -0.54541016 -0.50061184 0.8282129 -0.8563622 0.80843985 1.1767653 -1.7758989
-1.4382647 -1.7369661 0.110625125 -1.0081832 1.5148075 -0.16443358 0.6045934 -0.2143916
-0.03642516 1.0913297 0.8463769 -0.49434617 -0.80204964 0.19123994 1.9320695 0.34569895

weight f4 [34, 11]
00000000: a65c 61bf 440d bb3e a24f f8be 3225 f93e
00000010: 17b2 813f 04f6 ffbb da86 1bbf 0021 103e
00000020: fa1e 62bf f518 9d3e 41fb 46bf 7755 293f
00000030: ebbe 0540 a247 bd3e 642a b7be acf2 36bd
00000040: 678f d7be b3c8 23bf 9e39 c83a 6c36 71bf
00000050: 8f4a 57bf c76f 263d eac5 bfbf 4b7c c2bf
00000060: de0c 29c0 b92b 55bf 081f cf3d b6ec eabb
00000070: 61e3 c6be dd6c 7a3f 62f9 f23e df39 1e3f
00000080: 0fa6 40be ec04 96bf 65d6 abbe add6 863e
00000090: 9585 9cbf 5fe0 f93d bdd3 b8bf 2e77 2440
000000a0: 86db 4bbd 1aee c1bf 187d 83bf 999a 8abe
000000b0: 7a32 e43f be1e 293f 050e ca3e e3de 07c0
000000c0: 4c0b 9abf f4b4 c53b 3cfa 233f 70b4 bbbf
000000d0: 5b3b 86be e8ef 91be 66dd 6d3e a1c3 9c3e
000000e0: 821e 93be 9267 fdbf 736d 79bf 47c3 3fbe
000000f0: bbe2 9abf 7ee5 99bf 6822 bd3d 51d9 1e3e
00000100: a6e4 e53e 6c51 ed3e 0cb0 27bf 4134 47bf
00000110: c713 733f 65e7 5ebf f723 efbe 035e 883f
00000120: 7dd6 31be 7eb2 853f 20c7 2d3d a19c f3be
00000130: 5838 e4be ac31 9d3f cf3f ac3f 3bd3 1340
00000140: c22a 6fbf 26f9 b0bd 85a4 fc3e bfeb 0abe
00000150: 9b1d fe3f dfa1 9a3e 37ef 073f 7d11 e2bf
00000160: 3317 e23f 388e 613f 5d30 3b3f c685 ed3f
00000170: 7599 c83f ea59 8e3f 311e 423e 5455 9f3f
00000180: ed3a 8e3f f8c5 173e 6369 36bf 680b 22bf
00000190: 7ed3 223e 389b 03c0 10a2 a13c c25f 343f
000001a0: ad44 883f 2ecb 053f b1bd 6ebf f66c 16bf
000001b0: 1c88 d4bf 60a6 843f f624 85bf 85e8 6a3e
000001c0: d2eb aebf a231 3ac0 e71a 83bd 36cd 0d3f
000001d0: ee57 af3e 6516 68bf e57e 2bbf def0 793d
000001e0: c227 92be 2022 b0be 566c 2c3d 0d41 fcbe
000001f0: 59a0 eabf 2dd4 11bf 8346 9dbe 0445 e0bf
00000200: a489 903f 46a4 e7be fe77 253f 0f51 bcbf
00000210: 32a0 3bbf 8969 863f 8332 c93e c3fc 583f
00000220: 4351 b73f 1eea 28bf 5e6a 59bf 7f88 11bf
00000230: b533 4d3e 380d 1ac0 eab6 d23e 70df ae3f
00000240: 6274 62be f73d 863e 227c 51bf d5bb 533f
00000250: 4c91 f6be abb0 a0bf 6787 cfbf 6f60 57bd
00000260: d37f b13e d9a4 0ebf 5a47 623f 8858 15be
00000270: f7bf aa3f e510 093b dc70 bd3f 4b67 44bf
00000280: 52a3 d2bc cf8f 21bf 1265 5b3f c46a 93be
00000290: 0024 ba3d 7808 2bbf 2472 4f3f 056f 1cbf
000002a0: 53f2 c9bf 03de cbbe ccb2 cfbf a103 913f
000002b0: b7bf 723f 792d 6d3f 5ead e03f 632c 40c0
000002c0: ea40 cabe 8504 bbbe ddec 73bf 2d99 5dbf
000002d0: a004 cabf a31d 1d40 3574 0a3f 17b6 13bf
000002e0: ac79 9cbf d32e 60bf aa40 dc3e 922c 4abf
000002f0: 1898 d8bf 5f3e 0dbe 3137 153c 0b89 b33f
00000300: bb00 e8be e0af d13d eb54 87bf f0b7 82be
00000310: 6eb3 11be a6b8 623f b60c f43f 53cf 133f
00000320: 5e91 8dbe 4a6a 3c3f 56cc 53bf 2346 e83f
00000330: f5d7 fc3e d12b ca3f 2c64 893f 85d4 debe
00000340: d2a3 843f 4dc7 5c3f 03b9 32bf c563 94bf
00000350: ab54 97be 6996 0fbf b66e c13e 365d cc3e
00000360: 022d c0be 0d0e 3b3f d857 a13e 564f c13f
00000370: cc12 1fbf c35e 28bf 49d0 b43e 8551 1abe
00000380: d477 023d 28e2 063f cfb3 62bf 2231 29bf
00000390: 8edf eebf e0f8 0940 b7dc 96bf 48f7 47bf
000003a0: 1064 dfba b5f3 9cbf b923 06bf 8f48 2f3f
000003b0: e619 90be db00 4dbf a367 d1be 3e3e 133f
000003c0: ec95 5dbe 3f80 81bc 2a4c d43f 4fb1 e13e
000003d0: 1364 4a3f 900a b73f f916 8dbe b38b 84bf
000003e0: 4800 a73e 1491 34bf fab4 8cbf bcf0 85bf
000003f0: 7323 4dbf 0621 023f d399 053f ff43 c4be
-0.88031995 0.36533558 -0.48498255 0.4866119 1.0132474 -0.00781131 -0.6075264 0.14075089
-0.88328516 0.30683103 -0.77727133 0.66146034 2.0897777 0.36968714 -0.3577453 -0.044665024
-0.42101595 -0.6397812 0.001527596 -0.94223666 -0.8409814 0.040633943 -1.4982274 -1.5194181
-2.6414104 -0.8326984 0.101133406 -0.0071693314 -0.3884535 0.9782236 0.4745589 0.61807054
-0.18813346 -1.1720252 -0.33562008 0.2633566 -1.2228266 0.122009985 -1.4439617 2.5697742
-0.0497699 -1.5150788 -1.027255 -0.27071074 1.7827904 0.66062534 0.3946382 -2.122979
-1.2034698 0.006033534 0.640537 -1.466444 -0.2621716 -0.28503346 0.23228988 0.30618003
-0.28734213 -1.9797232 -0.9743263 -0.18726836 -1.2100443 -1.202316 0.09235078 0.15512587
0.44901007 0.46351182 -0.65503 -0.7781411 0.9495205 -0.8707183 -0.46707126 1.065369
-0.17366977 1.0445096 0.04242623 -0.47580436 -0.44574237 1.2280784 1.3456973 2.3097675
-0.9342462 -0.08641271 0.49344268 -0.13566492 1.9852785 0.30201623 0.5309939 -1.7661587
1.766333 0.88107634 0.7312067 1.855645 1.5671831 1.112119 0.1895683 1.2447915
1.1111733 0.14821613 -0.7125456 -0.63298655 0.1590099 -2.0563488 0.019730598 0.70458615
1.0645958 0.5226315 -0.93258196 -0.5876001 -1.6604037 1.0363274 -1.0401905 0.22940262
-1.3665717 -2.9092793 -0.064016156 0.5539125 0.34246773 -0.9065917 -0.669905 0.061020724
-0.28545958 -0.34401035 0.042095505 -0.4926838 -1.8330184 -0.5696438 -0.3071786 -1.7521062
1.1292005 -0.45242518 0.6463622 -1.4712237 -0.73291314 1.0500957 0.3929635 0.84760684
1.4321674 -0.65982234 -0.8492793 -0.568489 0.20039256 -2.4070568 0.41155177 1.3661938
-0.22114709 0.2621915 -0.81830037 0.82708484 -0.48157728 -1.2553915 -1.6213197 -0.0525822
0.34667835 -0.5572029 0.88390124 -0.14584553 1.3339833 0.002091461 1.4800067 -0.7672011
-0.025712643 -0.6311006 0.85701096 -0.28792393 0.09088898 -0.668098 0.8103354 -0.611069
-1.5777076 -0.3981782 -1.622644 1.1329232 0.94823784 0.9264751 1.7552907 -3.0027092
-0.3950265 -0.36526886 -0.952833 -0.8656185 -1.5782661 2.454934 0.5408357 -0.5769972
-1.2224631 -0.8757145 0.43018085 -0.7897426 -1.6921415 -0.13793324 0.009107397 1.4026197
-0.45313057 0.102386236 -1.057279 -0.25530958 -0.14228603 0.88563 1.9066379 0.57738227
-0.2764997 0.73599684 -0.82733667 1.8146404 0.49383512 1.5794622 1.0733695 -0.43521515
1.0362494 0.8624161 -0.69813555 -1.1592947 -0.29556784 -0.5608888 0.37779778 0.39914864
-0.37534338 0.73068315 0.31512332 1.5102336 -0.62138057 -0.65769595 0.3531516 -0.1507016
0.03185256 0.5268884 -0.88555616 -0.66090596 -1.8661973 2.1558151 -1.1786107 -0.78111696
-0.0017043371 -1.2261873 -0.5239826 0.6847009 -0.2814476 -0.8007943 -0.4089938 0.5751685
-0.21639222 -0.015808223 1.6585743 0.44080588 0.7905895 1.4300098 -0.2755659 -1.0355133
0.32617402 -0.7053387 -1.099273 -1.0464091 -0.80132216 0.5083164 0.5218784 -0.38333127

weight f4 [5, 3]
00000000: 9ab7 0fbc 3d21 89bf f770 403e 5724 123f
00000010: 33ed eb3e ec92 a53e 598d 9dbf 3624 57be
00000020: fae4 abbe f7a4 af3d 7240 73be ecf3 e83f
00000030: eea8 3d3f 6509 0f3f 996c 863f
-0.008771801 -1.0713269 0.18793093 0.570867 0.46079406 0.32338655 -1.2308761 -0.21009907
-0.33573133 0.085763864 -0.23755053 1.8199439 0.7408589 0.5587371 1.0501891

weight f4 [128, 51]
00000000: 6b75 5d3e 9ba1 07be b465 f9bd fa5f 02be
00000010: b904 46bd 7d9f 993d 7da7 cebd 6e23 f2bd
00000020: b0c8 843d 2e2b c9bd 323e e03d 1549 063d
00000030: a227 653c e0de cc3d d37a 00be c704 2b3a
00000040: 45dc 93bc 0d2e 95bd 0556 623d d380 83bd
00000050: 659a 57bd 8ba0 1bbd 6ba2 cfbd 65bd 2f3e
00000060: 5967 083e 7ca0 923c e4c3 dabd 4597 413c
00000070: c5f0 6ebc c32a f43d 9c00 e43c 729c 563d
00000080: c410 3d3d 97e2 98bd 4ef9 8fbd 1d23 10be
00000090: b71f 53bd 8d32 e63c 7aef 3ebc 24fe 053e
000000a0: bf98 93bc 5a15 87bd 1a6f 2b3d 83fc bbbc
000000b0: 83b1 f5bc be58 fe3d ca11 7abc 1fb2 c63d
000000c0: 0d6a bc3b 2945 4ebd fd0c b23d 0053 90bd
000000d0: bb1b 17bd fc9e a7bc 5261 bc3d c2ea 28be
000000e0: 7977 663d 60a7 93bd a990 843d d221 153d
000000f0: b343 8b3d ae11 f03d 16a0 803c 99b4 d1bc
00000100: 4002 c43d e36d 9abd 4906 963b aefa bf3c
00000110: 3c47 08bd 5821 16bd e7a0 b83d 130e 6ebc
00000120: 494b e4bd 646f 94bd b72c 053e 39b7 bf3c
00000130: 5265 50bd 2bb8 c63d 25f8 113d ca06 17be
00000140: d46d 323e 00a5 ba3d 126e 083e 9e10 7e3d
00000150: 2874 9ebd 5807 3fbd 48ef a83d ed45 90bd
00000160: bebd 493c e794 b9bd 53f0 90bd d614 a23d
00000170: 7fa0 ba3c 9fb1 06bd c382 02be 6310 b83d
00000180: e21d 5ebd dc81 1fbe 6cff cd3d 6d66 ce3c
00000190: d4da cbbd aa1c 11be 4da6 fe3d 1a82 06bd
000001a0: e0cf 87bd 7a3a ba3d 5702 f9bc 09dd 57bc
000001b0: ace5 32bd e02c eebd 98e4 b6bd e950 86bc
000001c0: ed18 bbbd d0bd fb3d 7daa 263c b103 36bd
000001d0: 5db8 613d 7e2d cdbd ff9f 27be 1458 823d
000001e0: ab46 a9bd 1efb b13d a88b 693b 27db 08be
000001f0: da81 02be 3049 403d 0c01 873d 202c c9bc
00000200: 2f92 01be a756 c0bd 1bcb 27ba fdf3 48bb
00000210: 96ac 463d 7dc8 193d 8ba5 a23a 1b70 9c3d
00000220: 3459 043e 9067 d23d a444 e03d a46c 3fbd
00000230: c2d8 66bd 6c6e 24ba 8c1a 1f3d 48a0 783d
00000240: 8fd9 8abc 9ed9 8cbd 3886 f8bd 2aca 123e
00000250: 2522 56bd 04f0 a2bc 2d7b 95bd 062f 1cbd
00000260: b0ef 353d 540a 873d 288d 8dbd 8552 c3bd
00000270: b0ec e63d f3b9 95bd c8a9 00be 771b d43c
00000280: 7e8e 1c3e d392 023d 347c 883b 72fd 0bbd
00000290: afbd b33d b1a5 c5bd 4c16 8b3d 67d2 193d
000002a0: 2e40 2e3d 0815 06be 8040 41bd 3884 263e
000002b0: ca83 c83d 2827 cfbd dff9 1dbe a2dc 94bd
000002c0: d35f 883d ce14 c3bd 71c3 ce3d a8fb 9fbd
000002d0: 5949 02be 1290 fb3d f627 e6bd 8722 0fbd
000002e0: 027f 84bd f247 983c a781 d4bd c30c 2fbe
000002f0: 7e27 b93d 210e a73a cca2 8abd 48ec e6bc
00000300: 898b d2bd 9197 c53c 5fa0 853d 3306 af3d
00000310: 1749 afbd 89cf 23bc c3dd df3d 512c 033e
00000320: 3281 babd 0341 af3d b109 d13d 4ca4 e63d
00000330: 9081 f1bd 2e85 463e f683 52bd 4eb6 aebd
00000340: 6a6b 543d 3906 cc3d e4e8 9abd 20af 5c3d
00000350: 4df5 9a3b e746 443d 2cdb d83d 67a3 09bd
00000360: e9ec e3bd 9478 18bd f830 123d f62f e1ba
00000370: 8379 d53d a7e6 eebd 663d abbd 66d8 983d
00000380: b171 fabd 85a7 95bd d46b d13d b952 28be
00000390: dbc1 dc3d b5b5 e7bd da94 213a 8070 8e3d
000003a0: afce f43c 99f9 c6bd 7af2 2c3c 1ed0 0f3d
000003b0: 50f4 013e 5fbb acbd 22ce dbbd ace7 8f3c
000003c0: 3f8e 9d3d 6a7e d5bd 00ab c8bd dc94 1fbe
000003d0: 6d00 cebd 8d2b 75bd e821 ddbd 3f35 28be
000003e0: 49c4 0f3d d367 ac3d 8687 75bd fd68 0a3c
000003f0: f455 743c 31ab c13d da5b 98bd 5597 babb
0.21626823 -0.13245241 -0.121776015 -0.12731925 -0.048344348 0.07501123 -0.100905396 -0.11823164
0.064835906 -0.09822689 0.10949363 0.03278454 0.0139865 0.100034475 -0.12546854 0.0006523844
-0.018049369 -0.07284174 0.055257816 -0.06421056 -0.052637476 -0.037994903 -0.10138401 0.17162092
0.13320674 0.01789879 -0.106818944 0.011815851 -0.014583771 0.11922219 0.027832322 0.05239529
0.046158567 -0.074650936 -0.07029973 -0.14075895 -0.051543918 0.028100276 -0.011653775 0.13085228
-0.018017171 -0.06595869 0.041854 -0.022947555 -0.02999187 0.1241927 -0.01526303 0.09701943
0.005749947 -0.050358925 0.086938836 -0.07047081 -0.03689168 -0.020461552 0.0919825 -0.16495803
0.05626628 -0.072096586 0.06472904 0.036409207 0.06800022 0.11722122 0.015701335 -0.025598811
0.09570742 -0.075404905 0.004578386 0.023434963 -0.03327106 -0.036652893 0.09015065 -0.014529723
-0.11147172 -0.072478086 0.13005339 0.023402797 -0.050877877 0.09703096 0.03563704 -0.14748684
0.17424709 0.091135025 0.13323238 0.062027566 -0.07736999 -0.046637863 0.08248764 -0.07044587
0.0123133045 -0.09061604 -0.07077088 0.079141304 0.022781609 -0.032884236 -0.12745194 0.089875005
-0.054227717 -0.15576881 0.100584835 0.025195325 -0.099538475 -0.1417109 0.12434063 -0.03283892
-0.06631446 0.09093185 -0.030396624 -0.0131752575 -0.043676063 -0.11629653 -0.089303195 -0.016396003
-0.091356136 0.12292063 0.0101724835 -0.044437114 0.055107463 -0.100184426 -0.16369627 0.06364456
-0.08265432 0.08690475 0.003563622 -0.1336485 -0.12744847 0.046944797 0.065919966 -0.024557173
-0.12653421 -0.093915276 -0.00064008095 -0.0030663006 0.048504435 0.037544716 0.0012408955 0.0763857
0.12924653 0.10273659 0.10950592 -0.046734467 -0.05635906 -0.00062725577 0.038843676 0.06069973
-0.016949443 -0.06877445 -0.12134975 0.14334932 -0.052278657 -0.019889839 -0.072988845 -0.038130783
0.044418037 0.06593767 -0.06911689 -0.09537224 0.11275613 -0.073108576 -0.12564766 0.025892003
0.15288731 0.031878304 0.004165197 -0.03417725 0.08776414 -0.09650744 0.06791362 0.03755417
0.042541675 -0.1309396 -0.047180653 0.16261375 0.09790762 -0.1011489 -0.1542735 -0.07268645
0.06658902 -0.095254526 0.10095871 -0.078116715 -0.12723292 0.122833386 -0.11238091 -0.034945037
-0.06469537 0.018588994 -0.10376292 -0.17094712 0.09040736 0.00127453 -0.06769332 -0.02818884
-0.102805205 0.024120124 0.06524729 0.08546104 -0.08558863 -0.009998211 0.109309696 0.12809874
-0.09106673 0.08557322 0.102069266 0.11261806 -0.1179229 0.19386742 -0.05139538 -0.085308656
0.05186025 0.099621244 -0.075639516 0.05387795 0.004728949 0.04791918 0.10588679 -0.0336031
-0.111291714 -0.037224367 0.03569123 -0.0017180431 0.10423567 -0.11665087 -0.0836132 0.0746315
-0.12228716 -0.073073424 0.10225645 -0.16437806 0.107791625 -0.11313955 0.0006163843 0.069550514
0.02988371 -0.09715576 0.010555858 0.035110585 0.12690854 -0.08434176 -0.10732676 0.017566524
0.07693147 -0.10424502 -0.09798241 -0.15584129 -0.10058675 -0.059855986 -0.10797483 -0.16426562
0.0350993 0.084182404 -0.0599437 0.008447883 0.014913071 0.0945648 -0.07439394 -0.0056943097

bias f4 [128]
00000000: bb00 f73d 5311 2f3e b416 f83b 6b3f 03be
00000010: 2027 bfbd 84e3 04be 5e57 d73c 719e e83d
00000020: 1620 9a3d 823a 53bd e44a 68bd f07a a73c
00000030: 449c 4dbd b044 46bc 4854 863d 8b2b c2bc
00000040: 3833 553d bf72 7cbc 88ac 0e3e 7bcf 10be
00000050: 610d 003e dbd0 b23d dd5a 05be aa71 f43c
00000060: b234 a3bc 7cc4 8f3d 21a7 a43d 4589 7ebd
00000070: 67d4 a2bd faac dabd 5099 ab3d 6115 8cbd
00000080: 6aa1 f2bd 5cf9 e13d b5a1 9a3d e119 b63d
00000090: cb5a f53d 686b 03be ebd8 adbb ea2b 88bc
000000a0: aff0 f33d 0b86 69bd 2984 e83b 8b10 a73d
000000b0: e184 8f3d 61c2 e1bd dd10 f3bd 98a8 83bd
000000c0: 93d4 383d 0242 d93d cbbc 993d 33d8 b73d
000000d0: 13bc 243d 5103 67bc 4d43 2bbc 4c0a 063e
000000e0: aef6 013d 2818 e33b abd3 a73d 6b65 b33d
000000f0: 9b1a 0c3d b38a 8bbc d222 25bd 3034 91bd
00000100: 04fc 97bd 32bf d83d 995d c43d a010 a2bd
00000110: acbb dd3d 9603 1dbd 477d 46bd 187d 5f3d
00000120: b33d efbd 9e91 82bd 925a 4dbc bdfc 63bd
00000130: 061c aa3d 4de7 efbc d187 d4bd 9593 07be
00000140: 1051 163e 2944 913d dfc7 02be 01bb dfbd
00000150: 0a59 c0bd 3c0d 003e 87b7 a23d cb66 593d
00000160: dc42 ae3d 35d6 bc3c 9783 c93d 9ad0 d9bd
00000170: 194f a43d 4f8a 983d 303e 343d 2c47 b53d
00000180: 6bf3 d8bc e307 85bd a8d8 12bd 70c5 e6bd
00000190: 716f 71bc 322c 9f3d 8d3a 953c fd66 033c
000001a0: e049 193d a80c 0cbe df36 adbd 8906 0cbe
000001b0: 0030 143e e02c e9bd 0aa6 6c3d 82fc d63d
000001c0: 3afa bbbc 6b10 14bd 928c b23d 0ccd 00be
000001d0: eb20 19be 573d 2cbc 99ff 88bc d33e 8ebd
000001e0: 92f5 d73c a634 ac3d ff17 8d3d 5828 5b3d
000001f0: 2eb9 c43d f95b 4cbd 6305 45ba b77a 343d
0.12060686 0.17096452 0.007571066 -0.12817161 -0.093336344 -0.12977415 0.026286777 0.11358345
0.07525651 -0.05156947 -0.056712046 0.020444363 -0.050197855 -0.012101337 0.06559044 -0.023702404
0.0520508 -0.015408217 0.13933003 -0.14141648 0.12505104 0.08731242 -0.13022943 0.029839355
-0.019922588 0.07019898 0.0803969 -0.06214263 -0.07950669 -0.10677524 0.083788514 -0.06840015
-0.118471935 0.1103389 0.075503744 0.08891655 0.11980208 -0.12833941 -0.0053053997 -0.016622502
0.11911141 -0.0570126 0.007095833 0.08157452 0.070077665 -0.11023403 -0.11868451 -0.06428641
0.0451246 0.10608293 0.075067125 0.089767836 0.040218424 -0.014099912 -0.0104530575 0.13089865
0.031729393 0.00693037 0.08194669 0.08759578 0.03420506 -0.01703391 -0.04031641 -0.07090032
-0.07421115 0.105833426 0.09588165 -0.07913327 0.10826811 -0.038333498 -0.048459318 0.054562658
-0.1168169 -0.063754305 -0.012533801 -0.055660952 0.08306126 -0.029285097 -0.103774674 -0.13239892
0.1467936 0.07093079 -0.12771557 -0.1092434 -0.09391983 0.12505049 0.07945161 0.053076547
0.08508846 0.02305136 0.09839552 -0.10635491 0.08022899 0.07448255 0.04400462 0.088514656
-0.026483258 -0.06495645 -0.03585115 -0.11268127 -0.014736042 0.077721015 0.018216396 0.00802016
0.03742397 -0.13676703 -0.084577315 -0.13674368 0.14471436 -0.11385512 0.057775535 0.10497381
-0.022946466 -0.03614847 0.08718218 -0.12578219 -0.14953963 -0.010512671 -0.016723441 -0.069455765
0.026362214 0.084084794 0.068893425 0.05350527 0.09605633 -0.0498924 -0.00075157563 0.044062342

weight f4 [128, 128]
00000000: e35f 453d c6e6 c5bc 19de 863d 8ab7 bbbb
00000010: f94b 5fbd d3d1 cebd 07d7 ea3c 5e98 58bd
00000020: dacf 7a3d 9ddb 06bd 6273 c93b dccd 983d
00000030: dead e23d 04a9 bd3a f1c7 8b3d 98a4 433c
00000040: 93d3 3f3d 59c5 05bd 1a68 78bd b2c2 693d
00000050: 9150 83bd a2b5 963d cd6f 9fbb 9e9c 2a3d
00000060: 5380 1a3c 9ac4 163d 9a1c 673d 3081 7abd
00000070: d112 2d3d 09ed 2bbd c571 b5bd 961d babd
00000080: eadf a83a 185c 963d ac01 1ebd 30e0 173c
00000090: f9ba 0c3d 7e46 acbd e7ae a63d 661d 31bd
000000a0: 7a61 b438 fb21 52bd 55b9 623d e66d ccbd
000000b0: 6b39 0b3d e3c8 37bd 3a89 383c 080a 64bb
000000c0: 9814 d0bd aceb 16bd 9154 643b 6d26 9f3c
000000d0: f407 2cbd 387c b53d 1064 90bd e17f 24bd
000000e0: d076 4c3d f166 04bd cb2c 903d 57f7 843d
000000f0: d4c7 83bd 3b59 e63c 6005 7a3d 9212 8e3d
00000100: 739e 973d b0e6 103d 44e0 863d 9438 813d
00000110: 2a9a 3d3d 15ea 2b3d 9fd1 163d 2bc5 ad3d
00000120: 6a9f 4f3d e9d1 393c bbf5 c7bc e9b1 49bc
00000130: a9d1 6e3d 762b df3c c1ac 60bd e71a d13c
00000140: 5297 da3c 2373 c2bc 01f0 0abd 50ce 53bc
00000150: 43f2 c7bc 8302 893d 622f 94bd f6c9 a1bd
00000160: 886e 68bc 28cc 953b d6e9 523d 2539 343d
00000170: f09e 2bbc 3e15 8abd 2630 0cbd 1fa4 963b
00000180: 992d 0abd 7fa4 9cbd 5606 d93c 8c1f 593d
00000190: c264 ee3b e860 8e3d 74ed 413d aed7 4b3d
000001a0: 677a b63d f3dd ce3c c4c2 313d a3ab dc3c
000001b0: 109a b5bd 724e cd3b 8ea2 bf3d 65ea 183d
000001c0: fec9 b63c 2080 a8bc 6e0a 93bd ebb2 203c
000001d0: 8df4 b73c f9bf b83c 2fb1 603d e5be 6bbd
000001e0: f318 b33d f59e 65bd 854d 01bd 20f0 20bd
000001f0: 22fa 7abd db96 653d 40c8 a6bc cca8 b93c
00000200: 5eba b8bd 086e e6bc d2a4 463d bff6 b3bd
00000210: 8b43 ec3d c7c5 4dbd 1a70 63bd f32d 8f3d
00000220: f913 7f3d 3d48 743d 7edb 5a3d 5e53 9bbd
00000230: d34f b9bb 2bd7 683d 87c8 37bd 4d0a 663d
00000240: 428c 683d 4704 23bd 474d 623c 1f64 f13c
00000250: 865a d03d 3507 80bd 9489 ac3d 2b16 033d
00000260: 5259 de3b c9f5 00be 7d80 cebd ed4b c0bc
00000270: 443a ea3c 9cb4 363d 738e 993d 1886 573d
00000280: f493 4f3d a683 b4bd 7517 a73d 6fd6 09bd
00000290: 9860 e6bd 212e 013d 9f54 bcbd 707d 3fbd
000002a0: 27c8 2bbd b484 83bc f179 7d3d 4ec0 f13d
000002b0: fba8 b1bd 3dd4 e63c e462 abbd 278e b4bc
000002c0: 3fbd f6bc b5a6 21bc 65b1 653d fd6c ffbb
000002d0: 9d9e 343d 75c3 843d 73c5 9f3c ec6e 85bc
000002e0: 12c7 c13d 7e6e ed3c 8bab a33d a424 62bd
000002f0: fa2d 303d 9515 623d e967 0b3e 1dc6 73bd
00000300: 582f a8bd 7df8 093d cd4a fabc c9b7 c63d
00000310: 8cfa 34bd 90c9 6dbc c45b 0e3d 5b21 c3bc
00000320: aff9 aebd 372b 693d bd54 143d d6be 283d
00000330: 494c 34bd b250 853a 4e6d 823d 8a77 b83c
00000340: 804c e33c bfc5 263d 5728 a1bb a7a4 aabd
00000350: 4f4d 3ebd 4f9f 4fbd 2d68 30bd a171 48bd
00000360: c804 7dbc 9ed0 223c c716 10bd 7807 82bd
00000370: 246e 07bd 9daa a53d d536 d63c 75da 993d
00000380: ef35 e63d c4e3 b03d 9c63 c8bb d2b9 7bbd
00000390: aaee 023d d01f ae3d 4f57 b23c 775b 38bd
000003a0: 6f9c 9bbd 13a6 a13d 9b00 b2bd 6408 49bd
000003b0: da98 a9bb fd75 3bbc 4bf1 b3bc 8b3b 94bd
000003c0: fa1a b83d 60a7 6fbd 8569 ea3c bce3 e8bc
000003d0: fe43 9b3c 9ed0 c93d 9f11 f1bc f878 23bd
000003e0: 091e 96bb b483 6a3c efe8 493d a22c 993d
000003f0: 635f 92bc 7cb1 833d e520 babd 5663 23bd
0.048187148 -0.024157893 0.065853305 -0.0057286667 -0.054515813 -0.100986145 0.028666986 -0.052879684
0.06123338 -0.032924283 0.006147788 0.074611396 0.11068319 0.0014469926 0.06825245 0.011941098
0.046832632 -0.03265891 -0.060646154 0.05707044 -0.06411851 0.073588625 -0.0048656226 0.041653268
0.009430009 0.036808588 0.05642376 -0.06115836 0.042254273 -0.0419741 -0.088595904 -0.09087674
0.0012884114 0.07341784 -0.038575813 0.009269759 0.034358 -0.08411883 0.08138829 -0.043240927
8.601225e-05 -0.051301938 0.055352528 -0.09981899 0.033990305 -0.044869315 0.011263186 -0.0034796018
-0.10160178 -0.036845848 0.0034840445 0.019427503 -0.041999772 0.088615835 -0.070503354 -0.040161017
0.049917996 -0.032324735 0.070397936 0.06492489 -0.064345986 0.02811872 0.061040282 0.06937136
0.07403269 0.03537625 0.06585744 0.063096195 0.0462896 0.041971285 0.036821004 0.084848724
0.05068914 0.01134155 -0.024409166 -0.0123104835 0.058305416 0.027242403 -0.05485225 0.025525523
0.026683483 -0.023736542 -0.03392029 -0.012927607 -0.024407512 0.06689932 -0.072356 -0.07899849
-0.014186509 0.0045714565 0.051492535 0.04399981 -0.010474905 -0.06742333 -0.034225605 0.0045972015
-0.03373489 -0.07648563 0.026492279 0.0530086 0.007275195 0.06952077 0.047345594 0.049766235
0.08910065 0.025252318 0.043398634 0.026937312 -0.08867276 0.006265455 0.09357177 0.03733291
0.022313114 -0.020568907 -0.07179724 0.009808282 0.022455478 0.022552477 0.054856475 -0.057555098
0.08744993 -0.056059796 -0.03156807 -0.0392915 -0.0612737 0.05605207 -0.020359159 0.022663496
-0.09019922 -0.028128639 0.04849703 -0.087872975 0.1153632 -0.050237443 -0.05552683 0.06991186
0.062274907 0.059639204 0.05343198 -0.075842604 -0.0056552677 0.056845825 -0.044868972 0.056162167
0.056774385 -0.039799 0.01381237 0.029466687 0.10173516 -0.06251375 0.084246784 0.032003563
0.00678555 -0.1259376 -0.10083101 -0.023473704 0.028592236 0.044605836 0.07497873 0.052618116
0.05067821 -0.088141724 0.08158771 -0.033651765 -0.112488925 0.031538133 -0.09195828 -0.046750486
-0.041938927 -0.016054489 0.06188387 0.11804257 -0.086748086 0.028177375 -0.08368471 -0.02204044
-0.030119536 -0.009866406 0.05607738 -0.007794975 0.044096578 0.06482593 0.01950333 -0.016288243
0.09461798 0.02898335 0.079917036 -0.055210724 0.043012597 0.055196363 0.13613857 -0.059515107
-0.08212155 0.033684243 -0.030553246 0.09703023 -0.044184253 -0.014513388 0.034755483 -0.023819616
-0.08543717 0.05692598 0.036213625 0.04119762 -0.044018064 0.0010171144 0.063685045 0.022517938
0.027746439 0.04071593 -0.004918139 -0.08332186 -0.046460446 -0.050689038 -0.0430681 -0.04893649
-0.0154430345 0.0099374335 -0.035177972 -0.06349081 -0.033064023 0.080891825 0.026149193 0.075123705
0.11240756 0.08637193 -0.00611539 -0.06145651 0.03196589 0.085021615 0.021770148 -0.045009103
-0.07598197 0.07893004 -0.08691522 -0.049080268 -0.005175692 -0.011441705 -0.021965643 -0.072379194
0.0898952 -0.05850923 0.028614769 -0.028428905 0.01895332 0.09854244 -0.029427348 -0.039910287
-0.004581217 0.014313627 0.04929441 0.07479216 -0.01786775 0.06430337 -0.090883054 -0.039889656

bias f4 [128]
00000000: 5a4c 233b cce8 b33d 85fd 1ebd 2a58 713d
00000010: 343a a5bd a0ec 323d 317f 7cbd 7c2a 993d
00000020: ee38 46bd 2a1e 013c 37d1 bc3d b0af 033d
00000030: c527 e2bb f18e fa3c 2d6b 023d af73 c0bc
00000040: 3b28 f4bc 6fcc 95bc d78c 99bd 8cb7 2dbd
00000050: e89b 7abb 3e35 2e3d 51d7 87bd 2768 723d
00000060: aa2d aa3d 3db8 71bd 852a f93c 0c33 703d
00000070: c94f 42bd ee80 223d 2655 a83d e6c0 7d3d
00000080: f8de 97bd c431 0ebc 6e65 58bc ced9 023d
00000090: 9799 723b b71f 55bd 2c33 92bd bfa5 f5bc
000000a0: 2023 533a 25e7 5abd 240e 063d b387 a7bc
000000b0: 28f9 c5bc 5b78 3ebd c817 67bd e677 8f3d
000000c0: d862 9e3d 8413 b139 5589 33bd 6e44 623c
000000d0: a105 6abc 6e68 203d 09d4 37bc 7d0a 44bd
000000e0: 362a 793d 53d6 5ebc baf5 863d 25f3 0dbb
000000f0: 593c 443d 0cb7 b03b 1299 22bc 3513 613c
00000100: 8055 adbc c302 30ba 8fd8 293c 02c6 4e3d
00000110: 6b1b fabb fd02 55bc 73ee a53c aad6 d43c
00000120: c615 a63d 1d4f cb3c d706 bc3d a52d 1d3d
00000130: 3a00 883d c497 8ebd a00b 803d a7d5 2bbd
00000140: 6e18 493c db3a a93d 003a baba 6bed 513d
00000150: fa1f 11bc 00d8 42bd fa63 883d 1b8f 4abd
00000160: 2bb1 ad3d 2dc6 843b ae56 3bbc 50f7 84bd
00000170: b65b 3b3d 80d0 86bd 9d96 a1bc 65d2 48ba
00000180: d4b3 1f3d e27e a1bc 90ed e03c c27c 8cbd
00000190: 8d4f 1c3d af83 54bc c964 593d 9e6c 9e3d
000001a0: 4463 ad3d f53d 7cbd f1d1 8bbd 2dac 1c3d
000001b0: a578 8abd 5603 25bc 5271 203d 86a9 413d
000001c0: cbd4 8bbc b48d 573d 941a 2abd b8e0 6abc
000001d0: 8d5b 513d f58d 013d b094 a93d 4475 453d
000001e0: 69af 843d c535 853c 5fd6 113b da27 daba
000001f0: 83e1 8b3d 7124 7f3c fe2f e53c 99cd 40bd
0.0024917335 0.08784637 -0.038815994 0.05892197 -0.08067742 0.043682694 -0.061644737 0.074788064
-0.048394136 0.007880727 0.09219592 0.03214997 -0.0069017136 0.030585738 0.031840492 -0.023492662
-0.02980434 -0.018285958 -0.07497566 -0.042411372 -0.00382399 0.042531244 -0.06632865 0.05918136
0.08309491 -0.059013594 0.030415783 0.058642432 -0.04743937 0.03967374 0.08219366 0.06195154
-0.07415575 -0.008678857 -0.0132077765 0.031945996 0.0037017816 -0.0520322 -0.071386665 -0.02998626
0.0008054245 -0.053443093 0.03272833 -0.020450449 -0.024166659 -0.0465015 -0.056419164 0.07005291
0.07733697 0.0003377461 -0.043832142 0.01381026 -0.014283569 0.039162092 -0.011219987 -0.047861565
0.06083127 -0.013600904 0.06589837 -0.0021659818 0.047909115 0.0053929146 -0.00992419 0.0137374895
-0.021158934 -0.0006714279 0.010366573 0.050481804 -0.007632663 -0.013001201 0.020255303 0.025981266
0.08109622 0.024817998 0.09180992 0.03837361 0.06640668 -0.06962541 0.06252217 -0.0419518
0.012273891 0.08263179 -0.0014207959 0.05125181 -0.008857721 -0.047569275 0.06659694 -0.049452882
0.08481058 0.0040519447 -0.01143424 -0.064924836 0.04574176 -0.06582737 -0.019725138 -0.0007660746
0.038989857 -0.019713823 0.027457029 -0.06859733 0.038161803 -0.012970849 0.05307463 0.07735561
0.08466199 -0.061582524 -0.068271525 0.038250137 -0.06761292 -0.010071596 0.03917057 0.04728081
-0.017069241 0.052625373 -0.041529253 -0.014335804 0.0511127 0.03162952 0.08280313 0.048207536
0.06478769 0.01626099 0.002225302 -0.0016643957 0.06830122 0.015572653 0.027976986 -0.047071073

weight f4 [128, 128]
00000000: 5b08 c43b 891c 09bd 1d82 e33c a6b4 913d
00000010: 22c7 6e3c 808e 54bd a198 83bd 1b1c b83d
00000020: c62b efbd cfc8 933d 44e6 80bc 3ac4 743c
00000030: c3b6 8bbd e9d4 e53c a755 6abb cdeb a63d
00000040: 35e2 01bd 762c 00bc 1948 0d3d 3670 873d
00000050: d89c 92bd 045d e03d 7a79 49bd 1265 8abb
00000060: e4e7 033d 8764 cfbd 8310 76bd da1e 923d
00000070: 654d 943d bc73 363d 0718 7dbd 41cf 723c
00000080: bda5 b9bd 1195 70ba c886 2abd 2c6c 19bd
00000090: 8014 373d 2339 4b3d 6dd2 54ba 99f4 703d
000000a0: af73 95bd e309 1e3c 3ef8 f13c 2748 a8b8
000000b0: 72fa 963d ed32 373d 1afa 0ebc 9fa2 953d
000000c0: 1576 e43d 2bac b83d 5e34 823c b40b 153c
000000d0: 3ce3 9abb 6cca 1d3d 2091 f53d 385b b1bd
000000e0: 4ed1 4c3d 6066 493d 81c6 91bd ff7d b83c
000000f0: a804 053c ce56 c7bb 6643 a33d f119 e43b
00000100: 5d35 f4bc c593 683d 6804 90bd 3a98 ed3d
00000110: 6746 903d 9099 11bd 218c 0c3e 6786 063d
00000120: 717d 453d ff16 143d 86c7 aebc ed1a f23c
00000130: 7782 d5ba d7cf 103b 9303 c63d 3caf 173d
00000140: a250 dc3d 47f5 983d f465 e03b 9719 013e
00000150: 37ea 50bd 23a9 4ebd 4254 48bd c167 4ebd
00000160: 1cfb b5bc 0a04 ddbc b977 22bd fc2f ca3c
00000170: ead5 6fbd b187 733c fba6 1dbd f0ab 35bd
00000180: 2084 9c3d dce2 0c3d b6e6 483d ed7c 9f3a
00000190: e943 a53d 0148 9bbc 1e86 7a3d 8d81 853d
000001a0: 1bbc 71bb a01b 8dbd 05b8 853c 37bc 1d3d
000001b0: 5c5b c83c 5895 d63d c78b 00bd 438e abbd
000001c0: 62ac 533d 61be 803d 693e 1bbd 1104 63bc
000001d0: dc5c cb3b 6196 033e ce0d 6c3d e7e7 8bbd
000001e0: a4c2 b63c f9f7 00bc 99df a4bb ddc2 6d3b
000001f0: 8044 ba3d 8374 14bc 85c6 313c bb8f 16bd
00000200: 607b 86bd c23f 86bd f180 e8bc ae2e adbc
00000210: 0aa6 a5bd bbab b13c 3651 8a3a 6506 3c3c
00000220: a95b 1abd 10e0 91bc 51b1 a4bd e4e3 0fbd
00000230: ad76 b3bd 684d 373d 0028 00bd 3720 943d
00000240: 614a 68bd 6d18 323d 8679 a73d 6e05 29bd
00000250: 69d0 1bbd 5e1b ed3d ffb0 b43d df75 99bd
00000260: f517 983c 0e2c 383d 4673 b1bc 76fd 803d
00000270: 6906 5cbd 1a83 943d dbc4 323d ecce 47bd
00000280: 7f21 8c3d 583c 1d3c fcc5 0b3d 4501 1e3d
00000290: 096b 8b3c f9cc 12bd 510a 88ba 2d84 903d
000002a0: 59c9 03bd f92d 8abd 905f e5bc d433 b13c
000002b0: b577 2d3d 75e6 95bc 200b 71bb 84c7 88bc
000002c0: 8146 aa3d 3493 113e a712 3ebc bd09 c23d
000002d0: b512 213d 7ae9 78bd 8511 503c 2415 30bd
000002e0: a078 b439 cca3 173d 47d8 a2bd d097 a33d
000002f0: 5dbc 27bd 60eb 97bd f50b 03bc 94e7 5dbc
00000300: 1d71 113e afe5 273c 721b b7bc 957b 23bd
00000310: 44ca 7dbd 6cc3 113d 7b44 59bc f0e2 95bc
00000320: 0b3c cf3c bb6c b7bd 9aa8 b33d 9b09 18bc
00000330: af3f a33d 9121 3e3d 43df debc a540 143d
00000340: 7a59 b33d 4a32 403d 2210 493d 4063 30bd
00000350: dba7 223c 0acb eb3d 6b31 0bbd a22b 203d
00000360: 575f b73c c3b5 c63c e496 9f3d d1bc 223d
00000370: 6417 b9bd 6094 f1bb 6106 68bd 479e 6b3d
00000380: 7712 31bd 3fdf c2bc d945 b13d 797f 7a3d
00000390: 9b16 b2bc bfd0 64bb cdb7 823b 1013 0a3d
000003a0: df85 e63c 80c3 67bd 3815 ddbd f496 69bd
000003b0: 0f65 013c 4a0f eb3d 043f 34bd b01c 60bc
000003c0: e776 72bc 7d13 4bbd 7a5c 633d 9b4a 353c
000003d0: 1e88 94bd 3a5f 043d 1f19 6a3d b8fd eabc
000003e0: f0c7 cabd 40d5 2e3b 8639 7cbc b883 d13c
000003f0: 7d73 123d 8ee0 843d 49d9 7abd 020a 223d
0.0059824414 -0.03347448 0.027772004 0.07114534 0.014573844 -0.05189371 -0.06425596 0.08989736
-0.11678271 0.072160356 -0.0157348 0.014939362 -0.068219684 0.028055625 -0.003575662 0.08150444
-0.03170987 -0.0078231 0.034492586 0.066131994 -0.07158822 0.10955241 -0.049188115 -0.0042234743
0.03220357 -0.10126596 -0.06007434 0.07134791 0.07241324 0.044543967 -0.061790492 0.014819921
-0.09064815 -0.0009177486 -0.041632444 -0.037456676 0.044697285 0.049615037 -0.0008118514 0.058827017
-0.072974555 0.009645912 0.029537316 -8.024304e-05 0.073719874 0.0447263 -0.008726621 0.07306408
0.11155335 0.090172134 0.015894111 0.0090970285 -0.0047267955 0.038523123 0.11990571 -0.08659977
0.050004296 0.049169898 -0.0711794 0.022521017 0.008118786 -0.006083346 0.079718396 0.0069611003
-0.029810602 0.05678155 -0.070320904 0.116013005 0.07044678 -0.03554684 0.1372533 0.03284302
0.048215333 0.036154743 -0.021335375 0.029553855 -0.0016289492 0.0022096538 0.096686505 0.03703235
0.10757567 0.07468658 0.0068480913 0.12607418 -0.051004615 -0.05045427 -0.04890848 -0.050391916
-0.022214465 -0.026979465 -0.039664958 0.024681084 -0.058553614 0.014863894 -0.038489323 -0.044353426
0.07642388 0.034396037 0.049048148 0.0012167968 0.080695935 -0.018955233 0.06116306 0.065188505
-0.0036885801 -0.06890035 0.016323099 0.038509574 0.024457626 0.10477704 -0.031383302 -0.08376744
0.05167807 0.06286312 -0.037901316 -0.01385595 0.006206138 0.12850334 0.057630353 -0.06831341
0.022309609 -0.007871621 -0.0050315377 0.0036279478 0.090950966 -0.009060982 0.010850553 -0.036758166
-0.06566501 -0.065551296 -0.028381797 -0.021140423 -0.0808831 0.021688333 0.0010552767 0.011476134
-0.03768507 -0.017807037 -0.08041633 -0.035129443 -0.0876287 0.044751555 -0.031288147 0.07232707
-0.05671156 0.043480325 0.08177476 -0.041264944 -0.038040552 0.115774855 0.08822822 -0.07493185
0.018566111 0.04496389 -0.021661412 0.06298344 -0.05371705 0.07251568 0.043644767 -0.04878132
0.068423264 0.009596907 0.03412436 0.03857543 0.017018812 -0.03584001 -0.0010379051 0.070564605
-0.032174442 -0.0674705 -0.02799967 0.021631159 0.04235049 -0.018298367 -0.0036780313 -0.016696699
0.08314229 0.1421631 -0.011601127 0.09474514 0.03932448 -0.060769536 0.0126994895 -0.04298891
0.00034422148 0.037021443 -0.07951408 0.0798794 -0.04095112 -0.07417941 -0.007998456 -0.013543982
0.14203306 0.010247632 -0.022351954 -0.03991278 -0.061960474 0.03558676 -0.013260956 -0.018296689
0.025297185 -0.089562856 0.087723926 -0.009279634 0.07971131 0.04641873 -0.027206069 0.036194462
0.08757301 0.04692296 0.04908765 -0.043063402 0.009927715 0.11513336 -0.033982676 0.03910411
0.022384329 0.024256593 0.07792452 0.03973085 -0.090376645 -0.007372424 -0.05664671 0.057523992
-0.0432305 -0.023788093 0.086559005 0.061156724 -0.021739295 -0.0034914461 0.003989196 0.033709586
0.028140007 -0.056582928 -0.10795063 -0.057028726 0.007897629 0.114775255 -0.04400541 -0.013678715
-0.014798856 -0.049579132 0.055508114 0.011065151 -0.07252525 0.032317378 0.057152864 -0.028685436
-0.09901416 0.00266774 -0.015394574 0.025575504 0.03575467 0.06488143 -0.061242376 0.039560325

bias f4 [128]
00000000: 309c b0bd 1869 093d 1d80 81bc 921c cbbc
00000010: f1db 3cbd 6753 68bd 1e31 b03d 3c48 d23c
00000020: e25d 983d b5b2 3dbd bd6e 973c 66f5 29ba
00000030: efa8 ad3d 1100 8d3c 0b36 1b3d f0fa 6d3c
00000040: 4f3b 3e3d db51 6dbd 8d42 723c dc08 5f3c
00000050: 20ab 91bd 0be6 9a3d 212f 76bd 3c5a d73b
00000060: 46e9 6bbd cd88 a53b 6be5 cd3c d91f ab3d
00000070: 74bf d8ba 4c1d cc3c 3f27 583d 4735 423d
00000080: dbec a13d c2b0 0e3c a13c aebd 4e02 c13d
00000090: a18b 343d b0b0 003c 2af8 833d ec5a 7dbc
000000a0: 4ec5 bf3c c18d 99bd ae6e 94bc 386d e23b
000000b0: a1f9 703c 58aa 593d f9a7 313c 03c8 823d
000000c0: e6aa 55bd b69e 1bbc 802e 4e3d c122 343d
000000d0: ca67 b6bb 7402 85bd f03b 5bbd c31b 77bc
000000e0: dcec 10bd 6637 6f3c d950 a53d ddc8 3f3d
000000f0: 1c36 5c3d e78a 9f3d d567 b43d 8d7b ac3d
00000100: a175 99bc e52c 5abd ef77 5f3c fd09 ad3d
00000110: b8f5 afbb a4c2 ccbc 133b 05bd 3694 803d
00000120: b2d3 61bd 62dc 213d 466f 91bd bad0 8b3d
00000130: cc51 3cbd 99da 893d 79b8 8e3d f28d 0b3d
00000140: 7955 27bd 388a 39bd f762 2cbd 3de1 90bc
00000150: 969d 9b3d 2879 9dbd 430f 45bd e8ad 2f3d
00000160: e6be dd3d 7fc9 92bb b433 a43c c987 11bd
00000170: 9440 eabc 460c 3c3c 20c2 8fba 6d38 823d
00000180: a34d 23bd 9c3c 7a3b 292c 4d3d 6b48 b0bb
00000190: 8369 0d3c 9509 863d 48b5 82bd f33b 81bd
000001a0: 2aaf 4d3c 1ba5 5ebd ee91 40bd 29af 43bd
000001b0: fbe9 d8bc 849b 4d3d c7f2 153d c49b 4e3d
000001c0: 1b32 fabc 569f 053c 1e46 0fbd 1a91 8abc
000001d0: 920e d73b ef0e 6e3b 87af c8bc 1918 813d
000001e0: 3662 8e3d 1875 28bb c5b2 8c3c ca90 6abd
000001f0: d395 5b3b 20ec 52bd c1cc 8dbd 2d95 28bd
-0.086235404 0.03354749 -0.01580816 -0.024793897 -0.04610819 -0.056720164 0.08603118 0.02566921
0.07439782 -0.046313006 0.018485421 -0.00064834056 0.08479487 0.017211946 0.037893336 0.01452516
0.04644328 -0.05793939 0.014786375 0.013612952 -0.07112718 0.075634085 -0.06010354 0.006572036
-0.057595514 0.0050517083 0.02513381 0.08355684 -0.001653655 0.024916314 0.052771803 0.04741409
0.07906505 0.0087091345 -0.08507658 0.09424268 0.044078473 0.007854626 0.06443818 -0.015463572
0.023409512 -0.074977405 -0.018119182 0.0069099925 0.014707954 0.053140968 0.01084327 0.063858055
-0.052164935 -0.009498289 0.050337315 0.043978456 -0.005566572 -0.064946085 -0.053523958 -0.0150823025
-0.035382137 0.01460061 0.08072061 0.046822418 0.05376254 0.077901654 0.08808867 0.08422003
-0.018732848 -0.05326547 0.013639434 0.08449171 -0.005369868 -0.024995156 -0.03252704 0.06278269
-0.05513353 0.039516814 -0.07101302 0.06826921 -0.045976445 0.06731147 0.06968779 0.034070916
-0.040852997 -0.04529783 -0.042086568 -0.017685527 0.075984165 -0.07689124 -0.048110258 0.04289046
0.108274266 -0.0044795866 0.020044185 -0.035529885 -0.028595246 0.011477536 -0.0010967888 0.063584186
-0.039868962 0.0038183099 0.050090943 -0.0053797266 0.008631113 0.065447964 -0.06382233 -0.063102625
0.012553969 -0.054356676 -0.04701417 -0.047774468 -0.026478758 0.05019714 0.036608484 0.05044152
-0.03054147 0.008155664 -0.03497898 -0.016914893 0.006563016 0.003632482 -0.02449776 0.063034244
0.06952326 -0.002570456 0.017175088 -0.057266988 0.003350605 -0.051494718 -0.06923819 -0.04115789

weight f4 [128, 128]
00000000: 0ea2 91bd 2ab4 97bd 08b4 41bd c64c 8bbc
00000010: 4e8e 91bd 350d 893d dc26 4abd a020 823d
00000020: ada0 3aba 1baf a5bc 82a2 3f3d cb61 4e3c
00000030: 92dd d6bd 8da3 8ebd 0bcb acbb cbf4 583d
00000040: 2677 5c3c 83e9 493d 0e1a f73c eb22 1ebd
00000050: ad99 a13c a8d2 a9bd bc9a a73d 3dbb 8abd
00000060: 943e b3bd 094a 46bc c3d0 713d 614d a63d
00000070: 9a37 54bb 2663 4fbd 99af c73d 82be 913d
00000080: 9d35 b23d 639d d4bc 234b 863d a6b2 253c
00000090: b67f 253b fb3a b43d 7559 6c3b d4c1 92bb
000000a0: 9f1e 3c3d efb5 a4bc 555d 673d 8727 41bd
000000b0: 463f de3c b87c d23d 4f1b a13a 8169 883c
000000c0: b1ff 05bd 6e1d b9bd 9161 a0bc d779 b23d
000000d0: b328 6dbb 7231 313d 9ad8 9b3d dbfa 4f3d
000000e0: 86a8 3ebd 25af 3dbd 47a2 0d3d 467a 3bbc
000000f0: 2678 91bc 0abc 1bbd 574f 9f3d a465 663d
00000100: a3db 5e3d 5f0b 433d 9b60 6bbd 2d80 083c
00000110: 6f2f bb3d 66ec c43d c8a3 883d 46fc 193d
00000120: 525c 283b 9561 393d 7b09 153b ff44 863d
00000130: e876 5e3d 83bf ffbc 7be5 b83d bc77 92bd
00000140: 1824 18bd c48c c63d a4ea 00b9 1e87 bdbd
00000150: c828 a3bc 672d 38bd f42d 403b 2b3b 77bc
00000160: 4b12 2ebd 21af 19bd e0ee d8bc ada4 903d
00000170: 27f9 783d ee15 ea3d 064e 713d fefd ca3d
00000180: 26e1 aa3d d743 5f3d 6def ae3b 71f2 e138
00000190: eb2e dabc 821e 8dbc 0631 71bd 753d 563b
000001a0: e8ea b93d 23f5 d5bb c928 74bd 6265 41bc
000001b0: ce00 b6bc 39d1 8e3d 6cc9 49bd 1814 1a3d
000001c0: 0dca 03bd 69a3 87bd 96d5 50bd 88eb b43d
000001d0: bdd6 29bd 4d36 b23d a5a2 413c 967e 7dbd
000001e0: f954 d43d 3346 153d 29a6 5b3d 8847 69bd
000001f0: 8861 80bd 28aa a8bc 30ef 40bd 7036 013d
00000200: d508 bb3d fefd f13c ac40 443d 9b50 46bd
00000210: e2b0 8bbb 6529 953d 1754 db3c 5cbf 0ebd
00000220: 180a 1a3d e673 6dbd 5649 74bc 38ee 80bd
00000230: 9e5e 863c 53e9 d43d 8dee d8bc ad68 683d
00000240: e703 1e3d a4cf 6c3c 39bd a53d bbfc cbba
00000250: 915e 04bd 243c 073d fb8f 66bd c83c 973d
00000260: 52bf ee3d 70bb 3c3d 8dc1 c7bd a3e8 9dbd
00000270: ee2d 893b cad4 f23d 537b 6fbd 1fe9 02bd
00000280: 9050 243c dfdb 3abc e267 3fbd c5c2 ec3b
00000290: 9405 0e3d 14d5 a03c a778 bcbd df62 113d
000002a0: fb70 69bb 755f 473d 1e49 47bd 2c1f 18bb
000002b0: 3e67 fc3c 40f6 5bbd ff95 933d af73 9a3d
000002c0: 27be e33c 2bd8 b83d a6dd 853d edfc 303d
000002d0: 5ec1 f63c fe52 bbbd 7bed 183d 8a69 dc3d
000002e0: 99d6 4e3d fc2b 61bb c265 dfbc 6d30 e63d
000002f0: a085 363d d5d6 a3bc c1d2 cd3d bf0e dfbc
00000300: 574d 263d 8631 a2bd 5e4c 323c eee5 53bd
00000310: 8b03 5f3d de9e 503d 4e00 0e3c e460 9a3d
00000320: fd2e a33b c0b8 c63c 7957 b43d abf2 933c
00000330: 4834 c13c a286 ca3d 17fa 69bd c0dd a03d
00000340: 51e4 1d3c 2688 d8bc 5d68 853c f29b 573c
00000350: f98a 8c3d 87d4 57bd 65b9 87bc 3950 e2bc
00000360: c401 a43d 53b9 c93c 2eaa a23c cb4f 663c
00000370: f0d0 e23c 51ce 2bbd d568 9c3c b341 24ba
00000380: 6c3f 38bd 0a48 88bc 016f 783c 7247 6ab9
00000390: b165 25bd 35e9 43bd 5e03 03bd 1f8c afbc
000003a0: d127 09bd 873e 993d 90b3 87bd dad0 bcbb
000003b0: 0ff7 ad3c 5f2e d0bb f201 c9bb 70cc f73d
000003c0: f317 73bc a26d 103d aebc 14bd 6f48 3cbc
000003d0: 784a 033d 99eb 99bd 5d86 b43d fc6c a63c
000003e0: 2d93 92bd 602a 42bd 2d9b 56bc d607 77bb
000003f0: 268d 4bbc f336 2abb faba 553d 5f7b 2a3d
-0.071109876 -0.074074104 -0.04729083 -0.017004382 -0.071072206 0.06691972 -0.049353465 0.06353879
-0.00071192795 -0.020225098 0.04678584 0.012596558 -0.1049148 -0.069647886 -0.005273228 0.052967828
0.013456142 0.04929496 0.030163791 -0.03860752 0.019726599 -0.082921326 0.0818381 -0.06773994
-0.0875217 -0.012102612 0.05903698 0.081202276 -0.0032381774 -0.050631665 0.097502895 0.071164146
0.08701632 -0.025953954 0.065573 0.010113394 0.0025253124 0.08800312 0.0036064063 -0.0044786725
0.04592764 -0.020106284 0.056485493 -0.047156837 0.02712978 0.102776945 0.0012291464 0.01665187
-0.03271455 -0.090388164 -0.019577773 0.08714645 -0.0036187589 0.043260045 0.07609673 0.050776344
-0.046547435 -0.04630961 0.034578588 -0.0114427265 -0.017757487 -0.038021125 0.07778805 0.056249276
0.05440868 0.047618266 -0.057465177 0.008331341 0.091399066 0.09615402 0.06671864 0.037594102
0.0025689793 0.045259077 0.0022741247 0.06556129 0.054312617 -0.03121925 0.09028145 -0.07151744
-0.037143797 0.09694818 -0.00012294442 -0.09254287 -0.019916907 -0.044965174 0.0029324265 -0.01508979
-0.042497914 -0.03752053 -0.026481092 0.070626594 0.060784485 0.11429964 0.0589123 0.099117264
0.08343725 0.054508056 0.0053386004 0.00010773994 -0.0266337 -0.017226461 -0.058884643 0.003269044
0.09078008 -0.0065294667 -0.05960921 -0.011803957 -0.02221718 0.069735 -0.049264356 0.03761682
-0.032175113 -0.06622965 -0.05098494 0.088339865 -0.041464556 0.08701763 0.011818563 -0.0618883
0.1036777 0.0364439 0.05362526 -0.056952983 -0.062686026 -0.02058895 -0.047103107 0.031546056
0.09132544 0.029540058 0.04791324 -0.048416715 -0.0042630294 0.07283286 0.026773496 -0.034850463
0.037607282 -0.057971857 -0.014910063 -0.062954366 0.016402539 0.103960656 -0.026480937 0.05674045
0.03857794 0.014453802 0.08092732 -0.001556299 -0.032316748 0.03301634 -0.056289654 0.0738464
0.11657585 0.04607719 -0.09753714 -0.077103876 0.0041863834 0.118569925 -0.05846722 -0.031960603
0.010028973 -0.01140496 -0.04672993 0.007225367 0.03467329 0.019632854 -0.092027 0.03549468
-0.003562032 0.04867502 -0.048653714 -0.002321194 0.030810948 -0.05370164 0.07206344 0.07541596
0.027800633 0.09025606 0.06536417 0.04320996 0.030121502 -0.09146689 0.037335854 0.107623175
0.050497625 -0.0034358492 -0.027270202 0.11239705 0.04456103 -0.0199999 0.10049964 -0.027228711
0.0406011 -0.07919602 0.010882465 -0.05173295 0.05444674 0.050932758 0.008667065 0.07538012
0.0049799667 0.024258018 0.088057466 0.018060049 0.0235845 0.098889604 -0.05712327 0.078547955
0.009636954 -0.026432108 0.016285116 0.013159739 0.068624444 -0.052692916 -0.016567895 -0.027626144
0.08008149 0.024624502 0.019856539 0.01405711 0.02768752 -0.041944806 0.019092957 -0.00062658935
-0.04498236 -0.016635913 0.015163184 -0.00022342594 -0.040380184 -0.047829825 -0.031985633 -0.02142912
-0.033485238 0.07482629 -0.06626046 -0.0057622017 0.02123597 -0.006353184 -0.006134265 0.1209954
-0.014837253 0.035260804 -0.03631275 -0.011491879 0.03205344 -0.0751564 0.0881469 0.02031564
-0.07156978 -0.047403693 -0.01309852 -0.003769388 -0.012423789 -0.0025972694 0.052180268 0.041621562
