advanced_functionality/autogluon-sagemaker-pipeline/AutogluonModels/ag-20230517_140744/models/NeuralNetFastAI/model-internals.pkl (torch, 175834 bytes, 19 tensors)

weight f4 [95, 20]
000000 0c a9 66 bd 98 fa 80 3c dd df 3e bd fd c5 13 bd
       -0.05631356 0.015744492 -0.04660021 -0.03607749
000010 45 73 ea bc 69 cb 23 bc c8 b9 87 3d e0 77 9a 3c
       -0.028619418 -0.009997227 0.06627232 0.018855989
000020 85 12 29 3d 69 f2 54 bb 47 b8 0e bd ba d1 13 bd
       0.041277427 -0.003249312 -0.03484371 -0.036088683
000030 6c f8 87 3c 67 59 61 bc 0e 36 9e 3c 38 b9 f2 ba
       0.016597949 -0.013754225 0.019312885 -0.0018518334
000040 ba cb 8f bb 7e 89 2f bd a1 35 35 3d aa 07 83 bd
       -0.0043883 -0.042855732 0.044240598 -0.06397946
000050 9b 84 5f bc be 07 1f 3c df 82 52 3c 15 f5 bc bc
       -0.013642455 0.009706436 0.012848585 -0.023066083
000060 74 93 61 3c 65 48 56 3c 93 0a 5e 3d 2c ce 58 3c
       0.013768066 0.013078784 0.054209303 0.013232749
000070 80 23 bc 3c ed b9 3e 3c 1c 0e 21 3c d8 df 32 3c
       0.022966146 0.011641008 0.009830024 0.010917626
000080 4b 61 e5 3c 9c d2 f7 3c 87 9a 54 bd 5e f2 a5 bc
       0.028000494 0.030251794 -0.05190518 -0.020257171
000090 08 be 03 3d 42 47 cd bb 7a 75 86 3b 9a 62 12 3c
       0.03216365 -0.006264598 0.0041033598 0.008934641
0000a0 a6 36 02 bd 4e ee 3a bc 8a 3d 7f 3c 3c 0d 07 bd
       -0.031790398 -0.011409355 0.015578637 -0.032971606
0000b0 3b e3 77 3c 51 a3 7f 3c 8d 15 00 bc 80 34 df bb
       0.01512986 0.0156029025 -0.007817638 -0.0068116784
0000c0 b0 e3 6a ba e1 8b f9 3b ee 6f 15 bb 2e c9 c5 bb
       -0.00089603197 0.007615552 -0.002280231 -0.0060359454
0000d0 45 8d 96 3c bf 22 e0 3c 2a 96 89 3c ba 48 cd bc
       0.01837791 0.027360318 0.016795237 -0.025059093
0000e0 9a e9 b1 bc dc 14 f5 ba 5a 6d e3 3b f4 70 96 bc
       -0.021717835 -0.0018698233 0.006940526 -0.018364407
0000f0 c2 87 60 bd 43 67 73 bd 15 15 74 bd 4a bf ce 3d
       -0.05481697 -0.05942465 -0.059590418 0.10095079
000100 29 ed b7 bd 51 fe 8e bd 38 a0 88 3d 69 4e 9a 3c
       -0.089807816 -0.06982101 0.06671184 0.018836217
000110 90 0e 41 bd c0 47 00 39 42 ca bd 3d 2f ff be 3d
       -0.04713303 0.0001223376 0.09267093 0.09326016
000120 fa d9 c7 bd 50 bf 1f bc e3 e8 56 3b bf 74 69 bd
       -0.097583726 -0.009750202 0.003279262 -0.056996103
000130 2e 59 ce bd f5 35 a8 bd fd ec 53 bd 6e 20 c1 bc
       -0.100756034 -0.082134165 -0.05173968 -0.023575034
000140 16 32 e7 b9 21 08 33 3c ef 84 83 3b c9 ed 12 bd
       -0.0004409707 0.010927231 0.0040136497 -0.0358713
000150 f4 91 f6 bb ad 87 18 3d 41 57 59 bc 40 0d 1b 3c
       -0.007524723 0.037238766 -0.013265432 0.009463608
000160 16 f6 1f 3a d2 05 e9 3b 2c 8a 3e bc 94 4e db bc
       0.00061020383 0.0071112895 -0.011629622 -0.026770867
000170 ba 28 9a 3c 6a e7 4b bc a8 a1 b9 b9 41 19 99 3b
       0.018818248 -0.01244531 -0.00035406393 0.0046722
000180 00 32 a4 36 e0 75 4e b8 a9 5b 2c 3c 78 48 e1 3b
       4.8934016e-06 -4.9224007e-05 0.0105199 0.006875094
000190 68 db b2 ba a5 76 15 bd dd 5c 75 3c 89 2d 14 bd
       -0.001364571 -0.0364901 0.014975754 -0.03617624
0001a0 39 44 52 3c 3c 3a 13 3d db 51 be bc 80 0c 7b bc
       0.012833648 0.03594421 -0.023232391 -0.015322804
0001b0 82 48 dd 3b 0e 49 19 3c b3 8a df bc 4d f2 1e bc
       0.0067530284 0.0093557965 -0.027287817 -0.009701324
0001c0 86 43 9d bc f6 6b 3c 3c fc bc 91 bb ca 65 34 bc
       -0.019197237 0.011500349 -0.0044475775 -0.0110105965
0001d0 60 70 a8 3a 3c ab 6e bc c0 17 01 3d 13 22 75 bc
       0.0012850873 -0.014567193 0.03151679 -0.014961737
0001e0 97 6b cc bc 1b a9 46 3d ea 92 01 bc e3 1e e7 bc
       -0.024953647 0.048501115 -0.007908562 -0.02821297
0001f0 2a 6d 5e 3d 2c 6f d7 3d c5 52 61 bd d0 88 9e 3d
       0.054303326 0.10519251 -0.055010576 0.07740939
000200 19 df 1f 3d 2b fe 32 bd 03 96 6e bd 2e 69 94 bd
       0.039031122 -0.043699425 -0.05824853 -0.07246624
000210 d8 8d a4 3d 54 33 b2 bc d2 de 82 3d ce 03 9f 3c
       0.08034867 -0.02175299 0.06390156 0.019410994
000220 b2 a4 48 3d a3 dc 4a 3d 04 0f b6 3d d0 7b a4 3c
       0.04898519 0.04952682 0.08889583 0.02007857
000230 47 29 2e bd a0 8c 21 3d 21 05 85 3c a6 64 92 3d
       -0.042519834 0.03944075 0.016237797 0.071481034
000240 93 4c a7 bd 76 93 bc bd 8a a6 8f 3d 20 e9 b3 bd
       -0.08168902 -0.092078134 0.07014187 -0.087846994
000250 3a 8c ab bd 9d 15 d0 3d b3 ff 9f 3d a3 cd 9f 3d
       -0.083763555 0.101603724 0.07812443 0.07802894
000260 02 1f 45 bd 48 85 89 3d f1 b4 82 3d e8 38 7f bd
       -0.048125274 0.067148745 0.06382168 -0.06231013
000270 2a 23 e9 bc 6d f1 b9 3c 35 bf ce bd 0c 7a b3 bd
       -0.02845915 0.022698129 -0.100950636 -0.08763513
000280 86 3f 2f bd b6 5b 31 bd 8f 52 0f 3c 06 d5 80 3c
       -0.04278519 -0.043300353 0.008747711 0.015726577
000290 00 2b 57 3c 46 9e 7e bc e1 3c d6 ba 31 b4 47 3d
       0.013132811 -0.015540665 -0.0016345048 0.04875583
0002a0 cd ea 9f 3c 40 18 d2 bc 1f cb 75 3c a3 02 8f 3c
       0.019521141 -0.025646329 0.015002041 0.017457312
0002b0 e8 ce 8d bb 0b 1a 1e bc d9 6e b5 bc 8e bd 7b 3b
       -0.0043276437 -0.009649764 -0.022147583 0.0038412544
0002c0 2d 6e dc bc 0d c7 e0 bc 8a ef 06 bd 5b b2 97 3c
       -0.026908005 -0.027438665 -0.032943286 0.018517664
0002d0 46 9e ec 3c c4 4c 9a 3d fd 98 a9 3d d9 cc dc bd
       0.028884064 0.07534173 0.08281133 -0.10781259
0002e0 49 39 ae 3d 6c fa 9e 3d 94 20 97 bc 98 e3 b6 bc
       0.0850702 0.07762608 -0.018448152 -0.022325322
0002f0 b7 2a 6a 3d ce 2a 24 bd 22 29 b8 bd 86 28 ae bd
       0.057169642 -0.040079884 -0.089922205 -0.08503823
000300 a6 ff 47 3d 82 80 da bc 40 04 25 3d 27 f2 ed 3c
       0.04882779 -0.026672605 0.040287256 0.029046131
000310 2a a7 94 3d 1c 4b cf 3c 70 f1 a2 3d 60 7c 93 3d
       0.072584465 0.02530437 0.07956207 0.07201457
000320 23 5c 4f 3b 74 f1 44 3d ee 91 83 3c 96 28 e3 bc
       0.003164061 0.04808183 0.016060796 -0.027729314
000330 e9 d3 26 3c 74 e7 28 3d d7 73 d9 3c 93 e2 a9 3b
       0.010182359 0.041236356 0.026544495 0.0051844805
000340 a8 4c a3 3c d7 30 c6 bc fd 71 01 bd 17 1c 04 bd
       0.019934013 -0.02419321 -0.03160285 -0.03225335
000350 32 4f 2b 3d 83 0d c7 3b ec 99 54 bc 05 aa 9e bb
       0.041823573 0.006074609 -0.012976151 -0.0048420453
000360 3e f2 85 3c a1 14 c0 bb 19 42 8e 3d 10 5c 84 38
       0.016350862 -0.005861834 0.06946201 6.3113985e-05
000370 3e d8 05 bd ca ed 4b bc 57 f7 03 3d 54 27 40 bd
       -0.032676928 -0.01244683 0.032218304 -0.046912506
000380 dc 06 34 3c a8 d0 7e 3c 11 cd 95 3b fc 48 bf 3c
       0.0109879635 0.015552677 0.004571565 0.023350231
000390 12 49 be 3c ac 44 5e ba b0 be 68 bc ba 27 59 bc
       0.023228202 -0.0008478861 -0.01420562 -0.0132541
0003a0 76 73 c9 3c 04 f1 3d 3c a7 93 37 bd dd 69 80 3b
       0.024591189 0.011593107 -0.044818547 0.00391887
0003b0 6b d9 41 bc 68 57 4a 3c 53 85 d3 bb 30 aa 27 3c
       -0.011831622 0.012349941 -0.0064551025 0.010233447
0003c0 ec 25 ac 3a 38 ed 48 3c 41 86 82 3c 53 76 ea bc
       0.001313386 0.012263589 0.015933158 -0.028620875
0003d0 b0 40 c4 3c 55 35 10 3d 1e 3b 93 3b b2 aa ce bb
       0.023956627 0.03520711 0.0044931313 -0.0063069696
0003e0 32 59 19 3c 91 cf 60 ba 4f d0 4a bc d7 5f b0 bc
       0.009359645 -0.00085758517 -0.012378766 -0.021530075
0003f0 63 e0 02 bc e9 7a b6 bc ad 66 c6 bc a9 55 0b 3d
       -0.007988068 -0.022275405 -0.024218882 0.03401724

weight f4 [34, 12]
000000 25 57 69 bd fa 78 3c 3d 38 01 67 3d e2 4f 83 bc
       -0.056967873 0.04601381 0.056397647 -0.016029302
000010 1c f3 0d bd c8 bc a2 bc 7c 54 a8 3c 47 84 89 bd
       -0.034655675 -0.019865409 0.020548098 -0.06714683
000020 66 ed 74 bc 30 19 13 3c 6f 06 25 3d 6c c4 ff bc
       -0.014949178 0.008978173 0.04028934 -0.031221591
000030 c7 8c cc 3c eb 58 4d bd b3 66 99 bc e8 54 ff bc
       0.024969472 -0.050133627 -0.018725729 -0.031168416
000040 aa 58 b7 3d 8a 2e 06 bd 70 93 86 bd 07 8f 44 3d
       0.08952458 -0.032759227 -0.0657109 0.047987964
000050 eb 4e 3a bd b0 5a 06 bd d2 29 3c bd 26 00 d6 3c
       -0.04548542 -0.03280133 -0.04593832 0.026123118
000060 8c 32 92 bc e6 ab e4 3c bf 34 b8 bb 4e b8 24 3c
       -0.017846368 0.027913999 -0.005621522 0.010053707
000070 ef cb e0 bc 07 5e e2 bc 96 ac 07 3d be f6 97 3c
       -0.027440993 -0.027632726 0.033123575 0.018550273
000080 9e 4c 2f bb 7d f2 14 3d 9b e7 aa 3c 51 43 01 bd
       -0.0026748548 0.036364067 0.020862391 -0.03155834
000090 63 ba bf bc 32 70 1e 3b 60 2c 5e bd ee b4 b3 bd
       -0.023404306 0.002417576 -0.054241538 -0.08774744
0000a0 96 ea a6 bc 85 33 a4 3d 62 11 7a bd 3e f2 9f 3d
       -0.020375531 0.08017639 -0.061051734 0.07809876
0000b0 59 bc 71 bd b0 a1 83 3a 00 84 70 b9 3d f1 c2 bc
       -0.059017513 0.0010042693 -0.00022937357 -0.023796672
0000c0 64 30 95 3b 3e c3 62 3c 2d a6 76 3c b2 3d 80 3c
       0.0045528878 0.013840495 0.015054268 0.015654419
0000d0 46 d8 a6 bc 1b 59 dc bc 23 43 b8 3c 87 20 fe 3a
       -0.0203668 -0.026897958 0.02249295 0.0019388356
0000e0 6e 25 86 bc 49 87 a3 bc be 4b e7 bb 5f d5 05 bd
       -0.01637527 -0.01996197 -0.0070585897 -0.03267419
0000f0 50 f3 84 bc 8b 36 6e 3c ba 4f a8 3c d6 40 a3 bc
       -0.016229302 0.014539371 0.02054583 -0.019928377
000100 64 a5 ef bc fc 11 bc bc 09 be aa 3c 32 b0 bc 3c
       -0.02925367 -0.022957794 0.020842569 0.023033235
000110 03 11 22 bd d5 40 09 3c f5 91 f3 3c cc a4 12 bc
       -0.039567005 0.008377274 0.029732684 -0.008950423
000120 b5 a3 8f bc b3 e8 c9 bb 24 41 37 bb 53 79 84 bc
       -0.017534116 -0.006161773 -0.002796241 -0.016171133
000130 54 3f 81 3c 42 23 10 bd 2a 5c 29 bc 58 2e 08 3d
       0.015777268 -0.035189874 -0.010336915 0.03324732
000140 94 fa 22 bc b5 e2 06 bd 31 96 83 3c 1e 54 02 bd
       -0.009947438 -0.03293105 0.016062828 -0.0318185
000150 c1 97 14 bd fe 63 ad bb b9 42 cc bc 6c c3 e3 3b
       -0.036277536 -0.005291461 -0.02493416 0.0069507863
000160 4f 90 dc bc 90 00 35 bc 31 47 11 3c 8c b8 a8 3c
       -0.02692428 -0.011047497 0.008867071 0.020595811
000170 58 bc 4a bc a1 83 9e 3c 1b 1c 99 3c d5 bb a2 bc
       -0.012374006 0.019349875 0.01869016 -0.019864956
000180 e6 81 48 3d 86 1f 65 3c 4d 82 ac bc 75 ff 38 bd
       0.048952006 0.013984567 -0.021058226 -0.045165498
000190 6f bd 3d 3d 7b c9 f2 bc 84 dc 2a bd 0c d3 06 3d
       0.046323236 -0.029637089 -0.041714206 0.032916114
0001a0 c7 2b 5f bd 11 11 69 bc f0 0e a7 bd 97 ac fe 3c
       -0.05448511 -0.01422526 -0.08157146 0.031088157
0001b0 01 c7 8e bd 6f 7f 8d 3c 34 cb 2c 3d 77 5e 3c 3d
       -0.06971551 0.01727268 0.042185977 0.045988526
0001c0 59 56 b5 bd 71 46 96 bc 7c 91 bf 3d 3e cc e4 bb
       -0.0885436 -0.018344136 0.09353921 -0.0069823554
0001d0 c7 22 32 3d d6 ef 52 3d b9 67 a8 3d 9d 79 cb bd
       0.043490198 0.051498257 0.082229085 -0.09935305
0001e0 e4 42 8c 3c 8c 20 87 3b 27 df 19 bd 4f 17 43 3b
       0.01712174 0.004123753 -0.03756633 0.0029768532
0001f0 d1 78 a8 3c 39 ba 2d 3c dc d8 b4 bc f1 f6 9d 3c
       0.020565422 0.010603481 -0.022076063 0.01928279
000200 3d 20 42 bd b9 10 5a bc 72 f3 17 bb 16 53 6e bd
       -0.047394026 -0.013309651 -0.0023185876 -0.058184706
000210 69 ac a5 3d f2 c3 45 bd f0 c9 a8 bd 4c 53 b3 bb
       0.08089525 -0.04828257 -0.082416415 -0.0054725762
000220 ce af 93 3d 58 6e 8d 3c 83 5b 8e bd d2 5c b7 3d
       0.072112665 0.01726453 -0.06951048 0.08953251
000230 cd 64 57 bc 13 67 97 bd e8 11 2c bd f1 92 cb 3b
       -0.013146591 -0.07392707 -0.042009264 0.006212585
000240 1f 8e 1b bd 8c 99 ec 3c e1 34 2f 3b df b8 e7 bb
       -0.037977334 0.02888181 0.00267344 -0.007071599
000250 80 03 85 3b 33 2f 82 bc d3 73 a2 3c 75 39 4d bc
       0.004059255 -0.015891647 0.01983062 -0.012525906
000260 fb db f8 3b 86 9d cb 3c 52 99 81 3b 65 01 a7 bc
       0.007594583 0.024855386 0.003955045 -0.020386407
000270 85 39 6c bd 9d ae a8 3d 6d 01 8e 3d 6e 0f 98 3d
       -0.057672042 0.0823643 0.06933866 0.07424818
000280 b8 2e 84 bd d8 ab 97 bd 0a 3c ae 3d 87 24 98 bd
       -0.064542234 -0.074058235 0.08507545 -0.07428842
000290 92 03 a0 3d 32 68 a4 3d e5 28 43 3d 36 44 e3 bc
       0.07813181 0.08027686 0.047646422 -0.027742486
0002a0 8f 9a 9b 3d 40 f2 ab bd d9 80 95 bc bf 28 e2 bd
       0.07597839 -0.08395815 -0.018249916 -0.11042928
0002b0 2e 76 d4 3d ed 15 7b 3d 29 89 d6 bd 6a 79 e3 bc
       0.103741035 0.061300207 -0.1047538 -0.027767856
0002c0 3a 15 ab bd f7 30 4c bc c8 60 bc bd 34 bb 91 3d
       -0.08353658 -0.012462846 -0.09198147 0.07115784
0002d0 36 39 ba bc 8a 42 9a bb aa 96 03 3d bc 84 99 3b
       -0.022732358 -0.004707639 0.032126106 0.0046850126
0002e0 40 87 75 bc c4 7c 58 3a 24 85 90 3c 04 31 9b bc
       -0.014985859 0.00082583376 0.017641611 -0.01894427
0002f0 d4 e5 0c bd 2f 5c 24 bd 12 ea 33 3d 85 2d 8a 3c
       -0.03439887 -0.040126976 0.0439244 0.016867409
000300 24 4f 43 3d d7 6f 07 bd df 57 57 bd 40 b5 51 bd
       0.047682896 -0.033065643 -0.052574035 -0.051198244
000310 19 28 03 3c 11 74 f2 3c 2a a9 69 bd 2a 2c 3a 3d
       0.0080051655 0.02959636 -0.057046093 0.045452274
000320 4d 6f 87 bd ea ef 09 bc 36 e1 17 bc 80 ff a0 bc
       -0.06613026 -0.008419016 -0.009270003 -0.019653082
000330 2e 2a 33 bd 9b 82 a5 3c 54 39 b1 3b 3c 9e 06 3d
       -0.043741398 0.02020388 0.0054084454 0.032865748
000340 88 77 0c bc 19 d8 cf bc 4a f5 e0 3c 14 4d bf 3c
       -0.00857342 -0.025371598 0.027460713 0.023352183
000350 b4 33 10 bc fd 3b d2 3b 48 9e f5 3b b0 52 03 bd
       -0.0088013895 0.0064158426 0.0074956752 -0.03206128
000360 af dd 8e bd 2a 20 8e 3d c3 6b 30 3d 96 34 92 3d
       -0.069758765 0.069397286 0.04307152 0.07138936
000370 05 e7 2e bd 21 72 ac bc 80 81 70 3d ab 2b 85 3c
       -0.042700786 -0.021050515 0.05871725 0.016256174
000380 99 30 92 3d 3c e2 22 3d 36 3e 06 3d f4 15 86 bd
       0.071381755 0.039766535 0.032774173 -0.06547156
000390 0b 6a 91 bc 48 b1 15 3d 9e 41 ac 3c ea b5 ae bb
       -0.01775076 0.03654602 0.021027382 -0.0053317444
0003a0 ea f2 16 bd c5 2c 66 bc 11 cf 10 3d f2 be fc 3b
       -0.036852755 -0.01404876 0.035353724 0.007713192
0003b0 52 0b 46 3c b1 0d 2f 3c 5c 83 a3 bc 88 aa fa ba
       0.01208766 0.010684417 -0.019960098 -0.0019124309
0003c0 4b fc f1 bb b4 02 1a 3d 7e 32 93 3d b5 41 91 3c
       -0.007384812 0.037600234 0.07187365 0.017731527
0003d0 09 fd ac 3b 40 74 15 bd 90 45 fa 3c 7e 68 cc bb
       0.0052791876 -0.036487818 0.030550748 -0.0062380424
0003e0 b2 1c 1e 3c ff f9 e4 3c 6f d9 a1 3b 27 08 d4 bc
       0.009650396 0.027951239 0.00493925 -0.025882794
0003f0 57 d7 5d 3d e0 f4 49 bd 55 7a bd bd e9 56 bc bc
       0.054160442 -0.049305797 -0.092518486 -0.02299066

weight f4 [4, 3]
000000 03 69 1e bc d2 a0 14 bc 74 0c 17 3c e4 29 77 3b
       -0.009668591 -0.009071546 0.009219278 0.0037714178
000010 0c 38 58 bd 21 93 4e 3d 55 a6 ff bb c9 79 51 bd
       -0.052787825 0.05043328 -0.0078018107 -0.051141534
000020 24 0d 08 3c 09 07 2f bd 8d 50 37 3d b9 de 8e bd
       0.008303914 -0.04273132 0.044754554 -0.06976075

weight f4 [16]
000000 18 71 77 3f 1e f4 7c 3f e9 8f 7d 3f 0a 98 82 3f
       0.9665694 0.98809993 0.99047714 1.0202649
000010 fc 54 81 3f 5d d0 7b 3f da d4 76 3f 48 4b 79 3f
       1.010406 0.9836481 0.96418536 0.97380495
000020 e5 fc 80 3f 6a 1e 7f 3f b9 b1 81 3f 3b 73 7b 3f
       1.0077177 0.99655783 1.0132362 0.982227
000030 95 7d 82 3f 63 8f 82 3f f2 28 7d 3f bc e0 7d 3f
       1.0194575 1.0200008 0.988906 0.9917104

bias f4 [16]
000000 2e 08 a8 3c 09 c0 31 3c 35 09 6f 3d 1a f5 63 bd
       0.020511713 0.010849007 0.05835839 -0.05565367
000010 df 2c 4d 3c ed 2f 1a 3d 99 77 f5 bc 77 24 51 3c
       0.012522905 0.03764336 -0.029964255 0.012765042
000020 47 ed a9 bc 50 3f c3 3c 76 40 e2 bc 3c 5a e7 bc
       -0.020743025 0.0238339 -0.027618628 -0.02824127
000030 0e 4c 5a bd 26 a6 bd bc 72 2f 25 bd ba 88 dd bc
       -0.053295188 -0.023150515 -0.04032845 -0.027042735

running_mean f4 [16]
000000 f9 33 db bb 20 24 a8 3b b4 b3 2a ba bf 37 24 bb
       -0.006689545 0.0051312596 -0.0006511763 -0.0025057641
000010 3d 70 39 bb 56 3f 62 3a 54 2e e3 bb 9e 02 97 bb
       -0.002829566 0.00086306536 -0.006933013 -0.0046084663
000020 26 b6 cf ba ad 6f 09 3b f2 34 1c bb af f6 64 3b
       -0.0015847131 0.0020971105 -0.0023835269 0.0034937074
000030 dc 24 59 bc 7b 25 40 3b 4b 5b 04 bb 90 1e 4b 39
       -0.013253417 0.0029319215 -0.0020196016 0.00019370974

running_var f4 [16]
000000 3f ca 7f 3f f4 31 7e 3f a2 08 80 3f dd eb 52 3f
       0.9991798 0.9929497 1.0002635 0.8239115
000010 19 25 80 3f 5a c5 7e 3f cc f4 75 3f 1f c6 80 3f
       1.0011321 0.99519885 0.96076655 1.0060462
000020 44 04 81 3f 17 38 80 3f 6a 56 80 3f 15 4d 80 3f
       1.0079427 1.0017117 1.0026371 1.0023524
000030 09 ff 2e 3f 46 1a 81 3f a7 f2 80 3f 7a 31 80 3f
       0.683579 1.0086143 1.0074052 1.0015099

weight f4 [200, 51]
000000 23 f7 31 3d f3 55 66 bd b9 10 f8 3c 9e 76 24 bd
       0.04344858 -0.05623431 0.030281411 -0.040152185
000010 1f 08 d4 bc 00 a5 88 b8 3d 67 c8 bd e7 6b 7e 3e
       -0.025882779 -6.515719e-05 -0.09785316 0.24845849
000020 3c 88 fc 3d 33 94 79 bd 3d 42 56 be b2 5a 2e be
       0.12330672 -0.06093235 -0.20923705 -0.17026785
000030 d6 5b dc 3d a8 46 3b be a0 eb 20 3d ee 76 dd 3d
       0.10759704 -0.18288672 0.03928721 0.108137
000040 77 f1 05 bd 92 9c fb 3d 14 c0 63 3c f2 d2 4c bc
       -0.032700982 0.12285723 0.013900775 -0.012501465
000050 14 6d 14 bd 80 ef ff 3a bf f2 49 bd c7 ff 1a 3d
       -0.036236838 0.0019526333 -0.049303766 0.037841585
000060 5f 65 e1 3d 03 b7 8a bd a0 ea 2c 3d fa a9 e5 3c
       0.11005663 -0.06773188 0.042215943 0.028035153
000070 48 99 4f bd 91 86 b8 3d 12 04 04 3e ae 2b d8 bc
       -0.05068329 0.090100415 0.12892178 -0.026388016
000080 9d 5a f0 bc a4 8e 19 3e 0a c2 e9 3d 69 a6 81 bd
       -0.029340083 0.1499582 0.11413963 -0.06330568
000090 27 f3 05 bd 09 e5 47 be 29 fe 6b 3d a5 29 0b 3e
       -0.03270259 -0.19520964 0.057615433 0.13590105
0000a0 89 6b 45 bd b8 82 ff 3b 71 b5 dd 3b 06 f0 23 be
       -0.048198257 0.0077975653 0.0067660143 -0.1600953
0000b0 cc 86 3d 3d c3 d8 35 3d aa de 00 3d 0d 46 bf bb
       0.04627113 0.044396173 0.03146235 -0.005837208
0000c0 2f 34 a1 3d c8 b5 85 3d ef c3 a9 3d 51 63 ad 3c
       0.07871281 0.06528813 0.082893245 0.021165522
0000d0 88 f3 d3 3d 6a f5 df bd e3 55 cc 3d 3d c2 1e be
       0.10349184 -0.10935481 0.09977319 -0.15503784
0000e0 27 5c 67 be c4 ff 8e 3d c2 44 e4 bc 46 de 41 bd
       -0.22593747 0.06982377 -0.027864818 -0.047331117
0000f0 b2 f5 e2 3d 02 e8 f3 3d 11 04 ea 3d c3 41 b9 bc
       0.11082019 0.11909486 0.11426557 -0.022614365
000100 cb c5 96 3c a0 90 2d 3b 33 51 b1 bc c3 4a 9d bd
       0.018404862 0.0026483908 -0.021645164 -0.07680275
000110 f6 18 1a be 66 56 71 bc b1 da f6 3d 6e 98 b7 bc
       -0.15048584 -0.014730072 0.12053431 -0.022411551
000120 10 0f c9 3d f6 7b e2 3b 4a 32 82 3d d5 c5 d5 bc
       0.09817326 0.00691175 0.06357248 -0.02609531
000130 c6 82 d2 bd a2 4b e0 bd 4f f8 0e 3d 08 5a c4 bd
       -0.10278849 -0.10951926 0.034904774 -0.095874846
000140 29 9d d7 3d cd a6 11 be 97 74 86 bd a4 04 57 bd
       0.10528023 -0.14223786 -0.065652065 -0.05249466
000150 66 71 09 3e 97 2b a8 bd bc 7c 15 3e f1 57 23 3d
       0.13422164 -0.08211439 0.14598364 0.03987879
000160 09 7e 18 bd 3b b3 e8 3d ba 93 aa 3d b4 ff 31 bc
       -0.03722957 0.113623105 0.08328958 -0.010864187
000170 fb bc 38 bc e2 e7 1d 3e 06 a7 e0 3d cd f2 06 bd
       -0.011275525 0.15420488 0.10969357 -0.032946397
000180 ee 45 1b bd 35 10 7b 3d 1c 4e bc 3d e0 07 f2 ba
       -0.037908487 0.061294753 0.09194586 -0.0018465482
000190 46 6b 72 bd 0c db 88 bd fc 4b 24 bd 8e 09 8f 3d
       -0.059184335 -0.06682405 -0.040111527 0.06984244
0001a0 66 86 b8 bb 0b 91 06 be a0 c5 33 bd 5e 01 dc 3d
       -0.005631256 -0.13141267 -0.04388964 0.10742448
0001b0 36 0e 3a bd 36 78 ae bd 7f 56 a3 3d b9 60 10 3e
       -0.04542371 -0.08519022 0.07975482 0.14099397
0001c0 25 33 f7 bd c5 0f 18 be d9 64 1b bd ea 0a f0 3d
       -0.12070302 -0.14849766 -0.037937973 0.11720832
0001d0 f3 c7 e4 bd 96 b1 69 3c 92 d4 02 3e 1d 86 9c bd
       -0.1117095 0.014263531 0.12776402 -0.076427676
0001e0 b6 bf 39 bd 6b 4f 09 be 35 ca 65 3d d5 97 99 3d
       -0.045348845 -0.13409202 0.056101043 0.07499663
0001f0 74 84 4c 3d 88 dc 8a 3d a8 3f ff 3c 4d db 50 bc
       0.049931005 0.06780344 0.031158283 -0.012747598
000200 e2 d1 9f bd 76 15 c6 3d a7 f4 5b bd 8a 84 29 be
       -0.07803704 0.09672062 -0.053700116 -0.16554466
000210 ce d9 ce bd 6b 2c ba 3d 92 03 14 3e 21 7d 2d bc
       -0.10100137 0.09090503 0.14454487 -0.010588915
000220 c5 e8 ff bd 73 b1 07 be 6b 12 ea bd 54 17 a9 3d
       -0.12495569 -0.13251285 -0.11429294 0.082564026
000230 23 cd 04 3e d8 3e 24 3c b9 fd 8a 3d 54 74 fa 3d
       0.12968878 0.010024749 0.06786675 0.12229219
000240 c9 f4 97 3d ce 62 6d 3d e7 0f a1 3d a4 58 5e 3d
       0.07419736 0.057955556 0.07864361 0.054283753
000250 fa de 4d 3d e7 d1 c6 bd 44 39 91 bd 4b 94 27 3c
       0.050261475 -0.097080044 -0.07091001 0.010228227
000260 2d 48 af 3c 4a e6 13 be 10 89 06 be f2 7b b0 bd
       0.02139672 -0.14443317 -0.13138223 -0.08617391
000270 d9 ab 2f 3e f8 0c 5c 3d 88 f0 c7 bd 27 9c 90 3d
       0.17155398 0.053723305 -0.097626746 0.07061034
000280 8f e8 36 bd 64 7e 94 3d f0 20 d2 bd ba ed 24 bd
       -0.04465538 0.072506696 -0.102601886 -0.040265776
000290 80 d4 37 bd 57 0d 00 3d a7 92 90 bc c8 de 81 3c
       -0.04488039 0.031262722 -0.017648054 0.0158533
0002a0 0d ff 19 bd 81 cb cf bd 9f 86 43 bd 31 39 fc bd
       -0.03759675 -0.10146237 -0.047735807 -0.12315596
0002b0 ee 0e 70 3d 07 4f 2d bd 9c a0 9f 3c 61 66 5d bc
       0.058607988 -0.042311694 0.019485764 -0.013513179
0002c0 27 bc e9 bd 95 07 9e bd ce b8 33 bd e8 54 c7 3c
       -0.1141284 -0.0771629 -0.043877415 0.024332479
0002d0 4e 56 7a 3d 4b 45 2e bc b6 23 ab bd 6c af 1b be
       0.061117463 -0.010636638 -0.08356421 -0.15203637
0002e0 29 a8 9a 3b 14 54 db bd 73 d2 04 be 3a 67 1f be
       0.0047197533 -0.10709396 -0.12970905 -0.15566722
0002f0 d6 f0 75 bd c2 a7 38 be 26 9d 16 3b 5d 1b 01 3d
       -0.060044132 -0.18032745 0.0022981851 0.031520236
000300 df db 92 3d 2d 2d ce bd 79 9b e9 3d 94 b8 7a 3d
       0.07170843 -0.1006721 0.11406607 0.061211184
000310 62 cf bc 3d e2 3a 2c bd 6a 89 c9 3d 5a b5 1c be
       0.09219243 -0.042048343 0.09840663 -0.15303555
000320 6a 9a f3 3c 50 83 7d 3d f4 b7 a1 3d 8c 0c f2 bd
       0.029736716 0.061892807 0.078964144 -0.118187994
000330 6d 24 1f bc 6c 24 56 bd 45 2f a8 3d e2 e3 53 bc
       -0.009713274 -0.05228083 0.08212141 -0.012932749
000340 26 9e d3 3c 05 f0 ab bd 99 27 4f bd 4e 72 c8 bc
       0.025832247 -0.083953895 -0.050574873 -0.024468567
000350 48 c6 ea bd 21 7b 81 bd 40 2e 45 3e fe 3e 21 3e
       -0.114636004 -0.06322313 0.19255924 0.15746686
000360 a9 be 5e bd 5e 76 31 3e 0e eb 09 3e 77 21 f3 bd
       -0.054381046 0.1733031 0.13468572 -0.11871617
000370 e0 26 da bd e2 93 cf bd b6 06 b1 bc 35 ce 69 3d
       -0.10651946 -0.10135628 -0.021609645 0.05708142
000380 8c 6a f5 bb 37 73 c4 3d 65 23 a2 bd 60 64 a0 bd
       -0.007489508 0.09592288 -0.07916907 -0.07831645
000390 47 26 aa bd be 82 70 bd 66 b3 07 3e 3a 8c 17 bd
       -0.08308082 -0.058718435 0.13252029 -0.036998965
0003a0 cc eb 91 bd 96 54 92 3d 3a 34 fd bd 79 62 d9 bd
       -0.07125053 0.0714504 -0.12363477 -0.10614485
0003b0 7d 0d ea 3d 8b 77 a6 bd 3d 2d 81 bd 40 ab 1c 3d
       0.11428354 -0.0812827 -0.06307457 0.038249254
0003c0 60 8a 1d 3c ef 79 3a 3d d1 51 d3 3d d2 b6 cd bd
       0.009615511 0.04552644 0.103183396 -0.10044636
0003d0 0b 2a 11 3e 08 d7 fc bd b6 e1 0f 3d 42 e1 a4 bc
       0.14176194 -0.123457015 0.035127364 -0.020126943
0003e0 1e 0d 86 bd 27 db 00 3e ce 0d fc bd d3 c6 aa bb
       -0.06545471 0.125836 -0.123073205 -0.00521169
0003f0 1c a0 ba 3d 11 8e 13 3e 85 0c a1 bd 55 4e ee 3c
       0.0911257 0.14409663 -0.07863716 0.029090086

weight f4 [200]
000000 ab 95 84 3f 17 a9 81 3f d1 8c 7c 3f 3d 53 85 3f
       1.0358175 1.0129727 0.9865237 1.0416027
000010 f8 1b 7e 3f fb 70 7e 3f 98 bb 80 3f ef 4e 82 3f
       0.99261427 0.99391145 1.0057249 1.0180339
000020 32 41 7d 3f 82 ee 80 3f 68 d6 80 3f b5 d9 82 3f
       0.98927605 1.0072787 1.0065432 1.0222689
000030 5b 81 7a 3f 14 5d 85 3f 60 68 83 3f 0d f8 78 3f
       0.9785363 1.041903 1.0266228 0.97253495
000040 58 bd 74 3f d6 15 82 3f 7e 6a 82 3f 07 e1 80 3f
       0.95601416 1.0162914 1.0188749 1.0068673
000050 99 5f 75 3f b3 b1 7f 3f fa ed 7d 3f d4 29 81 3f
       0.95848995 0.9988052 0.9919125 1.009089
000060 00 f0 80 3f 8c b1 7b 3f de 7d 79 3f 11 ab 79 3f
       1.0073242 0.9831779 0.97457683 0.9752665
000070 c1 3d 78 3f 25 0c 81 3f 33 29 83 3f 32 22 83 3f
       0.9696923 1.0081831 1.0246948 1.024481
000080 6d 80 83 3f 24 89 83 3f 4e 0a 7a 3f 36 02 7f 3f
       1.0273567 1.0276227 0.97671974 0.9961275
000090 db f4 82 3f 3f 15 85 3f e0 41 81 3f e2 fe 7e 3f
       1.0230974 1.0397109 1.0098228 0.9960767
0000a0 00 36 7e 3f 13 3a 7b 3f cb 75 7c 3f 82 cf 7c 3f
       0.9930115 0.9813549 0.9861724 0.9875413
0000b0 e1 d5 88 3f 47 d6 7c 3f e7 e9 80 3f 1a 4d 84 3f
       1.0690271 0.9876446 1.0071381 1.033603
0000c0 14 c8 7f 3f 54 f7 80 3f 24 bc 7f 3f e4 5f 78 3f
       0.9991467 1.0075479 0.99896455 0.9702132
0000d0 88 ed 78 3f b4 6b 84 3f 6c e4 80 3f 5f 4c 7e 3f
       0.97237444 1.0345368 1.0069709 0.99335283
0000e0 b4 c2 7f 3f 83 d0 7b 3f b3 9a 84 3f dc 31 81 3f
       0.9990647 0.9836504 1.035971 1.0093341
0000f0 8c e2 85 3f c5 0e 78 3f 0b bf 80 3f 87 44 7b 3f
       1.0459762 0.96897537 1.0058302 0.9815144
000100 0f 20 7b 3f f6 28 82 3f fc 5e 80 3f 3d f0 87 3f
       0.9809579 1.016875 1.0028987 1.062019
000110 f1 2a 81 3f 63 8e 83 3f e2 ce 7c 3f 72 16 87 3f
       1.009123 1.0277828 0.9875318 1.0553725
000120 53 a5 76 3f 87 8f 7c 3f 7e 0a 7c 3f d5 88 78 3f
       0.96346015 0.98656505 0.9845351 0.9708379
000130 85 45 7c 3f 76 c6 79 3f cc ca 7b 3f 90 8c 82 3f
       0.9854358 0.9756845 0.9835632 1.0199146
000140 8a 9c 7c 3f 5a 44 81 3f 55 57 71 3f 8b f2 81 3f
       0.9867636 1.0098984 0.94273883 1.0152143
000150 25 40 75 3f cd 8c 82 3f 25 55 83 3f cc 1e 7e 3f
       0.95801 1.0199219 1.0260359 0.9926574
000160 9f c3 84 3f 74 49 79 3f ef 0f 83 3f a5 07 7e 3f
       1.0372199 0.97377706 1.0239238 0.99230415
000170 ec 62 77 3f b0 6c 77 3f f5 65 81 3f 6f d8 79 3f
       0.9663532 0.9665022 1.010924 0.97595876
000180 a3 02 81 3f e4 45 85 3f 69 15 80 3f 46 01 7e 3f
       1.007893 1.0411954 1.0006534 0.99220693
000190 e2 99 7a 3f 4a 48 82 3f 50 42 82 3f fa 57 79 3f
       0.97891057 1.0178311 1.0176487 0.97399867
0001a0 ac 58 79 3f 5b e5 7f 3f 1a 22 75 3f 92 5e 84 3f
       0.9740093 0.99959344 0.9575516 1.034136
0001b0 57 fe 7c 3f 95 e2 82 3f 1a 05 78 3f f3 50 78 3f
       0.9882559 1.0225397 0.96882784 0.9699852
0001c0 02 e6 82 3f 62 be 79 3f 82 64 7a 3f 0a ca 7d 3f
       1.0226443 0.97556126 0.9780961 0.9913641
0001d0 06 68 7c 3f 07 28 79 3f 7f 24 7a 3f 60 24 76 3f
       0.9859623 0.973267 0.9771194 0.96149254
0001e0 e5 92 78 3f c8 9c 76 3f e5 48 83 3f 11 01 75 3f
       0.97099143 0.9633298 1.0256621 0.9570475
0001f0 17 46 7f 3f 73 75 88 3f 5b 4f 85 3f 83 6a 7c 3f
       0.99716324 1.0660843 1.0414842 0.98600024
000200 c8 2c 7d 3f ff a1 86 3f 88 55 7a 3f 36 83 82 3f
       0.98896456 1.0518187 0.9778676 1.0196292
000210 b6 59 81 3f 7a 5e 76 3f cb bf 84 3f f6 4a 83 3f
       1.0105503 0.9623791 1.037103 1.0257251
000220 16 e6 7b 3f 3e 98 85 3f d2 d6 7c 3f 6f d0 77 3f
       0.9839796 1.0437086 0.9876529 0.9680242
000230 cb 4a 80 3f 3b 3d 83 3f a0 65 81 3f 9f 04 84 3f
       1.0022825 1.0253061 1.0109138 1.031391
000240 70 79 79 3f c8 9a 81 3f 7c 62 83 3f 99 bb 81 3f
       0.97450924 1.012536 1.026443 1.0135375
000250 21 c7 7b 3f 79 31 7f 3f 67 9b 7d 3f ab 20 7f 3f
       0.9835072 0.99684864 0.9906525 0.9965922
000260 08 08 80 3f 91 28 79 3f 7b 85 83 3f 87 45 81 3f
       1.0002451 0.97327524 1.027511 1.0099343
000270 f3 e7 74 3f a9 ef 81 3f 0f 85 82 3f 54 09 77 3f
       0.95666426 1.0151263 1.0196856 0.9649861
000280 19 0d 80 3f 6a 34 7c 3f 86 5f 7c 3f 6b bd 7e 3f
       1.0003997 0.9851748 0.9858326 0.9950778
000290 0c 80 82 3f 13 ca 82 3f 24 5d 82 3f e5 b6 81 3f
       1.0195327 1.0217918 1.0184674 1.013394
0002a0 2c 3f 83 3f 0b 48 82 3f 29 09 7b 3f 9c 9f 7d 3f
       1.0253654 1.0178236 0.9806085 0.9907167
0002b0 b4 7b 82 3f 0e 3a 73 3f 17 52 7a 3f 16 ee 7e 3f
       1.0194001 0.9501046 0.9778151 0.9958204
0002c0 90 f4 84 3f 57 ae 81 3f 4f 29 7d 3f 3c fa 7d 3f
       1.0387135 1.0131329 0.98891157 0.9920995
0002d0 69 63 81 3f f4 58 82 3f 8f 02 81 3f e0 ad 7b 3f
       1.0108463 1.0183396 1.0078906 0.9831219
0002e0 bc 7f 82 3f ff f5 7c 3f 38 10 77 3f 27 b0 7a 3f
       1.0195231 0.9881286 0.9650912 0.9792504
0002f0 4a a1 82 3f 5f 51 7a 3f 7c 1c 78 3f 22 66 76 3f
       1.0205472 0.9778041 0.96918464 0.9624959
000300 e4 d6 81 3f af fa 7c 3f e7 3e 80 3f 79 1d 84 3f
       1.0143704 0.9882001 1.0019196 1.0321494
000310 7e 65 7b 3f ea 69 80 3f 3d a3 85 3f 8b b1 7d 3f
       0.9820174 1.0032322 1.0440441 0.99099034

bias f4 [200]
000000 aa 2e d4 bc f0 7f 2b bd 43 90 3e 3d f2 bb 02 bd
       -0.025901157 -0.041870058 0.046524297 -0.03191752
000010 88 b5 26 3b 93 cc 88 3c 67 f5 d9 3c cf 23 07 3d
       0.002543779 0.016699111 0.026606275 0.032993134
000020 20 ee 07 3d 8a 53 02 bc c6 73 0e bd f5 21 77 bc
       0.033186078 -0.007954488 -0.03477838 -0.01508378
000030 b0 c3 a7 bc ac c6 3d 3d 93 7b df bc 69 9a 2e 3c
       -0.020479053 0.046332046 -0.027280604 0.010656931
000040 99 52 cf bc 55 7d ed 3c c9 10 d7 bc 92 f2 d3 bb
       -0.02530794 0.028990427 -0.026253121 -0.0064681256
000050 26 6e 66 bc 55 42 6a 3d cb 39 c6 3c 1b 59 b9 bc
       -0.014064347 0.057192165 0.02419748 -0.022625497
000060 e5 1d 9f bc 1c 14 be bc 01 18 6a bd 27 c6 25 bd
       -0.019423435 -0.023202948 -0.0571518 -0.040472176
000070 42 27 39 3b 3b fb 9e bc 86 a7 41 3d 87 5a dc 3c
       0.002825216 -0.019406905 0.047278903 0.026898636
000080 39 63 14 bd 71 9e b4 bc 14 ce 08 bc e6 14 05 3d
       -0.03622744 -0.022048207 -0.008349914 0.032490633
000090 e9 56 12 3d 93 3a a5 3c 34 5e 1c 3d 03 a8 63 bc
       0.035727415 0.020169532 0.038175777 -0.013895038
0000a0 e9 ac 7c 3d ce e9 00 3d 20 9d b4 3c 8e 05 fe 3c
       0.061688337 0.031472974 0.02204758 0.031008508
0000b0 d8 dc 2d 3c 7c 96 2f bd 34 f3 fa bc c2 9b 94 bb
       0.010611735 -0.042868122 -0.030633546 -0.0045351693
0000c0 b0 e2 1e bc 7b 37 63 3d 5f a2 2b 3d 33 92 ea 3c
       -0.009697601 0.055472832 0.041902896 0.028634166
0000d0 13 a7 87 3b a5 4c 22 3d 22 d5 35 bc 8c f1 30 bd
       0.00413979 0.039623875 -0.011098178 -0.043199107
0000e0 01 08 20 bc 53 58 74 3c 7b ce f6 3b 92 da 5f 3c
       -0.009767533 0.014913636 0.0075319386 0.013662951
0000f0 a0 f9 a6 b9 cc 7f c2 bc 2a 5c b3 3c 70 7f bc 3b
       -0.00031847972 -0.023742579 0.021894533 0.0057524964
000100 d0 46 07 bb 12 35 f8 bc 8d fc 20 bc 5e ed 40 bd
       -0.0020641573 -0.030298743 -0.009825838 -0.04710137
000110 d6 73 4e bd 20 9f 75 bc a0 20 e5 bc 3a 91 01 3c
       -0.05040344 -0.014991552 -0.027969658 0.00790816
000120 ee 8d e9 3c 26 f8 b8 3c e4 e6 3a bc bd 34 02 bd
       0.02851006 0.022579264 -0.011407588 -0.031788576
000130 f6 41 d2 3c 7e c1 82 3c c8 90 0e bd e6 44 ef bb
       0.025666218 0.015961405 -0.034806043 -0.0073019145
000140 2b 6c 30 3d f8 93 98 3c 5f 51 b1 3c 9d c3 a5 bc
       0.043071907 0.018625244 0.021645246 -0.020234877
000150 df d3 ae bb ed a5 8b bc 33 f5 6f bd 61 4b f4 3c
       -0.0053353156 -0.017046893 -0.05858345 0.0298211
000160 92 14 8c 3c e8 cd 30 bd cf c9 e9 bb 74 43 25 3d
       0.017099652 -0.043165118 -0.007134653 0.04034753
000170 df f6 81 bd be 84 1f 3c dc 9b d7 bb 7e e7 2f 3c
       -0.06345915 0.009736238 -0.006579859 0.010736344
000180 3e bc 3b 3d 9a f2 cf 3b da 57 2a 3c 59 14 09 3d
       0.04583382 0.006346059 0.010396922 0.03346667
000190 2f ce 36 3d a7 39 e4 bc 22 27 46 3b 85 1a 3a bc
       0.044630226 -0.027859522 0.0030235727 -0.011358862
0001a0 01 48 c8 3b 39 1e ac 3c 87 37 78 3c ad 66 ef bb
       0.006112099 0.021010505 0.0151499575 -0.007305941
0001b0 48 84 8b 3c fc a6 08 b9 3a e4 22 3d 19 45 2b bc
       0.01703085 -0.00013032177 0.039768435 -0.010453486
0001c0 bc fd ed 3a 05 fe 81 3c 7c 69 54 3d 1b cf f3 bb
       0.0018157284 0.015868196 0.05185841 -0.0074404604
0001d0 ab 06 29 bd 7d 15 b0 bb be f3 2b bc ad 09 ed 3b
       -0.041266125 -0.0053736554 -0.010495124 0.0072338195
0001e0 61 db 61 3c 46 e4 64 3c 81 82 0e bd 66 00 dd 3c
       0.013785214 0.01397044 -0.034792427 0.026977729
0001f0 d7 b4 89 3c 40 5f fa bc 25 5e 63 3d 7b 80 0e bc
       0.016809864 -0.030562997 0.055509705 -0.008697624
000200 ab a7 17 bd 1e db 29 3d e6 61 14 3d 5e 1b 32 bc
       -0.037025135 0.041468732 0.036226176 -0.010870783
000210 e5 3b 2a bb 04 b7 f8 3c be 80 b3 bc 94 f8 f3 3c
       -0.0025975641 0.030360706 -0.021911975 0.029781617
000220 a9 2e 69 bc 99 fd 39 bd 35 35 49 bd a5 9f ab bc
       -0.014232316 -0.045407865 -0.049123008 -0.020950148
000230 56 51 4d 3c 2c 41 1e bc d0 f6 11 3d c8 48 a7 3c
       0.012531599 -0.009659093 0.03563577 0.020420447
000240 9a 91 95 3b 69 97 2e 3d 33 27 df 3c 36 f6 f9 3c
       0.004564476 0.042624865 0.027240371 0.03051291
000250 c2 a9 df 3c f2 ff 12 3d 4d ea 73 3d 09 9a bb 3c
       0.027302627 0.03588862 0.05954962 0.022900598
000260 a3 20 c7 3b f0 2e 58 3c 7f 7a b1 bc 63 b4 8d bc
       0.0060768886 0.0131947845 -0.021664856 -0.01729793
000270 98 f2 96 3a b8 f2 4f 3d 02 59 1c bd a9 80 da 3b
       0.001151639 0.050768584 -0.038170822 0.0066681695
000280 9d f3 28 bd be 4e 0c bc d6 4b eb bc 10 59 a2 ba
       -0.041247953 -0.0085636955 -0.028722685 -0.0012386162
000290 71 c0 e2 bc 1b 1b f5 3c 78 26 28 3d 87 9b 13 bd
       -0.027679654 0.029920151 0.04105231 -0.036036994
0002a0 45 05 94 3c 6d 09 08 bd 51 ca 92 3c cd 31 08 bd
       0.018068919 -0.033212114 0.017918738 -0.03325062
0002b0 d9 da f8 bc 4a 60 0e bd 62 cc 51 bb 1c 7b 78 bc
       -0.030377792 -0.034759797 -0.003201269 -0.01516607
0002c0 5a 80 3f bd d2 7f 0b 3d c5 9b 63 3d 8a 5b 26 bc
       -0.046753265 0.034057446 0.055568475 -0.010153661
0002d0 9c d3 d5 bc 19 66 61 bc 6a d1 a9 bb 17 c0 1b bc
       -0.02610188 -0.013757252 -0.005182435 -0.009506247
0002e0 29 8b 14 bd 7d d6 9b 3c 98 82 20 3d f5 41 0d bc
       -0.036265526 0.019023174 0.039187044 -0.008621682
0002f0 72 b3 b1 3c 2b 76 23 bb fa 07 5c 3d b7 1f 2d 3b
       0.021692012 -0.002494226 0.053718545 0.0026416609
000300 23 74 1a bd 18 90 70 3c c6 8a 57 ba a0 40 40 3b
       -0.037708413 0.014682792 -0.0008222278 0.0029335395
000310 a8 c7 e2 bb 29 96 1c 3d 57 85 d3 bc b6 ea c9 bb
       -0.0069207735 0.03822914 -0.025820417 -0.006162013

running_mean f4 [200]
000000 98 0e a7 3d 6e 7e ca 3d f9 b7 0e 3e 0b ec 2f 3e
       0.081570804 0.09887396 0.13937367 0.17179887
000010 48 1a 0b 3e 0d c3 85 3d e4 49 2f 3e e3 05 f4 3d
       0.13584244 0.065313436 0.17118031 0.11915185
000020 06 7e 0d 3e c2 ba c6 3d 0f ba c4 3d 5f 8b e9 3d
       0.13817605 0.0970359 0.096058 0.11403536
000030 10 42 a2 3d 3a 2a 8e 3d 54 54 f0 3d 67 f8 d2 3d
       0.07922757 0.06941648 0.11734834 0.10301285
000040 13 f4 c3 3d e0 88 ef 3d 45 c1 32 3e 00 60 b9 3d
       0.09568038 0.11696029 0.17456539 0.09051514
000050 aa a5 00 3e 69 0b e7 3d df 86 e4 3d f2 6b 9d 3d
       0.12563196 0.11281473 0.11158537 0.076866046
000060 f1 6b ee 3d 93 eb b0 3d 9b 8a 28 3e 16 fd 03 3e
       0.11641682 0.08638682 0.16459124 0.12889513
000070 59 99 e4 3d a5 b3 05 3e 4a 1a 03 3e 91 fc 07 3e
       0.11162061 0.1305681 0.12802997 0.1327994
000080 56 d2 38 3e 77 20 34 3e 8f c4 3a 3e 9b f0 d3 3d
       0.18048987 0.1759051 0.18239044 0.10348626
000090 f5 5f cd 3d f4 9b b0 3d c3 16 b4 3d df c2 10 3e
       0.10028068 0.08623496 0.08793404 0.14136837
0000a0 27 00 93 3d 1c 6d 4d 3e 43 51 97 3d 52 6b 01 3e
       0.071777634 0.20061153 0.07388546 0.12638596
0000b0 6b c9 93 3d 09 ac 2d 3e bd 69 03 3e 65 27 df 3d
       0.07216152 0.16960157 0.12833305 0.10896186
0000c0 1f 48 dc 3d f4 cd bd 3d 8d b0 e0 3d 21 3b d0 3d
       0.107559435 0.09267798 0.109711744 0.10167528
0000d0 f9 c1 db 3d f3 c5 ef 3d 99 33 ad 3d 5e 3e 27 3e
       0.10730357 0.11707678 0.08457107 0.16332385
0000e0 55 c8 19 3e 84 b6 fe 3d f3 9a b0 3d e7 a2 8a 3d
       0.15017827 0.12437156 0.08623304 0.067693524
0000f0 41 6a 13 3e b8 7b ce 3d df 1c ea 3d 2c 81 ce 3d
       0.14396001 0.10082191 0.11431288 0.10083231
000100 35 50 01 3e 5b 94 1c 3e 39 55 d1 3d e8 02 94 3d
       0.12628253 0.15290968 0.10221333 0.07227117
000110 b8 c4 d4 3d 5a ac f1 3d d5 b7 d1 3d 36 ac 6f 3d
       0.103890836 0.118004516 0.10240141 0.058513843
000120 fd 28 2c 3e 2f 11 e7 3d 6c cf 07 3e 23 c3 de 3d
       0.16812511 0.112825744 0.13262719 0.10877063
000130 43 d5 bd 3d d8 88 b5 3d cf bb 05 3e 54 25 c0 3d
       0.09269192 0.088639915 0.13059925 0.0938212
000140 85 04 af 3d 4c 83 0c 3e ce 4c c8 3d de 9c b0 3d
       0.08545784 0.13721961 0.09780274 0.0862367
000150 be a5 be 3d 72 db df 3d e5 88 e0 3d b1 62 ab 3d
       0.093089566 0.10930528 0.109636106 0.08368433
000160 3d a6 b1 3d 42 f0 42 3e 87 41 13 3e a0 f9 d8 3d
       0.086742856 0.19036964 0.14380465 0.10594487
000170 b3 1a a2 3d 7c 27 9e 3d 64 14 ee 3d bf 4a 2a 3e
       0.07915249 0.07722375 0.11624983 0.16630076
000180 47 26 1c 3e 7e 46 e4 3d dc ac b6 3d a0 56 f2 3d
       0.15248977 0.11146258 0.08919689 0.11832929
000190 3f fd 36 3e fe 50 cf 3d f6 4c 35 3e 17 50 05 3e
       0.17870043 0.1012287 0.1770514 0.13018833
0001a0 e6 f9 c2 3d db a0 12 3e d3 a1 d8 3d 7f f7 b2 3d
       0.095203206 0.14319174 0.105777405 0.087386124
0001b0 48 1f 98 3d 36 de b9 3d df 90 a7 3d 01 9e 19 3e
       0.074278414 0.090755865 0.08181929 0.1500168
0001c0 87 2f 0a 3e 74 da cf 3d d8 26 27 3e e4 7c 02 3e
       0.13494693 0.101490885 0.16323411 0.12742954
0001d0 dc ff 07 3e da 21 f6 3d 4c 01 0d 3e f7 e3 e8 3d
       0.13281196 0.120181754 0.13770026 0.11371606
0001e0 c2 79 43 3e ed d9 70 3e f5 1d 21 3e aa e0 0d 3e
       0.19089416 0.23520632 0.15734084 0.13855234
0001f0 e7 e6 c7 3d 0f 51 c5 3d 64 a2 c7 3d e0 21 9c 3d
       0.09760838 0.09634601 0.097477704 0.07623649
000200 41 c2 a8 3d 19 59 0c 3e 5f ea 50 3e e1 ae 05 3e
       0.08240176 0.13705863 0.20401905 0.13054992
000210 e0 81 02 3e ed 77 eb 3d fb 6d cf 3d 28 24 a2 3d
       0.12744856 0.114974834 0.10128399 0.079170525
000220 55 a6 bf 3d fb 22 97 3d d7 f7 06 3e 5a dd cb 3d
       0.09357897 0.07379719 0.13180481 0.09954329
000230 32 01 e9 3d 55 44 30 3e 7e f9 87 3e 7f 24 84 3d
       0.11377181 0.17213567 0.26557535 0.064522736
000240 a5 0d eb 3d 10 49 ed 3d 77 41 f4 3d 72 77 a8 3d
       0.11477212 0.11586201 0.11926549 0.082259074
000250 02 5f c9 3d 40 b0 1e 3e 0b a4 2a 3e ce af cd 3d
       0.098325744 0.15496922 0.1666414 0.10043298
000260 8d b4 14 3e 53 60 0c 3e 24 70 ba 3d c7 d5 54 3e
       0.14522 0.1370862 0.091034204 0.20784675
000270 1f 4e 00 3e b2 16 b3 3d 84 18 ce 3d 16 5d 13 3e
       0.12529801 0.08744563 0.1006327 0.14390978
000280 bc 64 1d 3e fe d2 0c 3e b4 e8 2c 3e bc 4d dc 3d
       0.15370458 0.13752362 0.16885644 0.10757014
000290 a4 7e ff 3d b8 21 b2 3d 48 73 21 3e a2 2b cb 3d
       0.12475327 0.086978376 0.15766633 0.09920432
0002a0 ef 42 17 3e e0 a8 d3 3d 66 73 b4 3d 2c e1 d5 3d
       0.14771627 0.10334945 0.08811073 0.10443339
0002b0 5a 37 1b 3e 59 6c 0c 3e 05 c7 c2 3d 03 68 ca 3d
       0.15157834 0.13713206 0.09510616 0.0988312
0002c0 87 bd aa 3d 1e f3 11 3e b1 aa fe 3d b2 be 1f 3e
       0.08336931 0.14252898 0.124349006 0.15600088
0002d0 8a 03 b0 3d a6 f0 f4 3d d3 65 06 3e 3b 40 2e 3e
       0.08594425 0.119599625 0.1312478 0.1701669
0002e0 9a 75 c9 3d 10 44 8d 3d b1 c4 dc 3d b5 23 e0 3d
       0.09836884 0.068977475 0.107797034 0.109443106
0002f0 b6 97 c1 3d c7 b7 09 3e b7 a1 b9 3d d4 2b b7 3d
       0.09452765 0.13449012 0.09064048 0.089439064
000300 42 38 e9 3d ea 42 d7 3d cc 9c f0 3d 78 c4 1d 3e
       0.113876835 0.1051081 0.11748657 0.15406978
000310 34 6e 2e 3e a7 b0 0c 3e 5b 9a 06 3e 72 60 8f 3d
       0.17034227 0.13739263 0.1314482 0.07000817

running_var f4 [200]
000000 07 06 ca 3d 77 a0 dd 3d f6 d3 07 3e 8a 98 1c 3e
       0.09864431 0.10821622 0.1326445 0.15292564
000010 3d cf fb 3d a0 4e b8 3d 87 7b 07 3e d7 d9 e3 3d
       0.12295387 0.089993715 0.13230716 0.11125534
000020 98 b8 f0 3d 84 ac db 3d f0 be d1 3d 9a d5 e1 3d
       0.117539585 0.10726264 0.102414966 0.110270694
000030 95 f0 c2 3d 6f 02 bb 3d fd 0d dc 3d 98 1a f8 3d
       0.09518544 0.091313235 0.107448556 0.12114447
000040 c4 38 e7 3d ba 52 ca 3d c0 d2 24 3e 80 0c dc 3d
       0.11290124 0.0987906 0.1609602 0.10744572
000050 30 f6 e7 3d 0c 9f e2 3d 7c ad ee 3d e4 68 e1 3d
       0.113262534 0.11065492 0.11654183 0.110063344
000060 52 ff d5 3d 3d 06 ca 3d 1a 1c 20 3e 26 f2 f5 3d
       0.10449089 0.09864471 0.1563572 0.12009077
000070 a3 b7 e6 3d 39 d4 e5 3d f2 af fc 3d 7c 60 0f 3e
       0.11265495 0.11222119 0.123382464 0.1400165
000080 be 34 0b 3e ff 7e 3c 3e 1e 3d 1a 3e 21 d3 d7 3d
       0.13594338 0.1840782 0.15062377 0.105383165
000090 c4 c5 d2 3d 86 d9 d4 3d 7c b3 b9 3d 2d 10 08 3e
       0.10291627 0.10393052 0.09067437 0.1328742
0000a0 55 54 be 3d b6 36 1e 3e 43 fe d6 3d 7b 0b 06 3e
       0.09293429 0.15450558 0.10497715 0.13090317
0000b0 34 d3 ba 3d 0f 4e 0b 3e 92 cc f5 3d 4e c0 d6 3d
       0.09122315 0.13603996 0.12001909 0.10485898
0000c0 10 0b d3 3d 02 e8 d1 3d 8a dd bd 3d e2 99 d6 3d
       0.103048444 0.1024933 0.09270771 0.104785696
0000d0 e4 de ef 3d fd d1 d4 3d ca 3f cb 3d 08 43 1b 3e
       0.11712435 0.103916146 0.09924276 0.15162289
0000e0 9b d1 00 3e 0b 50 0b 3e 9d 58 db 3d 68 4f bb 3d
       0.12579958 0.13604753 0.10710261 0.09146005
0000f0 c1 34 f6 3d 93 ca db 3d b7 1f c4 3d 6d 3b dd 3d
       0.12021781 0.10731997 0.095763616 0.1080235
000100 54 bf ef 3d fe 3e 15 3e 6a e8 ed 3d 4f f2 c2 3d
       0.11706415 0.14574811 0.11616595 0.09518873
000110 14 df e1 3d e9 8d fc 3d 54 75 db 3d 9b 80 ba 3d
       0.11028877 0.12331755 0.10715738 0.09106561
000120 36 bb 0d 3e 89 ec d7 3d 8b 90 d9 3d 27 d9 d4 3d
       0.13840947 0.105431624 0.106232725 0.10392981
000130 2b 0d c6 3d b0 57 d6 3d aa 91 09 3e 83 2d e5 3d
       0.0967048 0.10465944 0.13434473 0.11190321
000140 09 1f c5 3d a4 d3 e1 3d 67 f8 ca 3d 11 34 c3 3d
       0.0962506 0.11026695 0.0991066 0.09531415
000150 6a f3 cc 3d 9a f7 04 3e 81 b7 e6 3d 7e 63 c6 3d
       0.10007365 0.12985078 0.11265469 0.096869454
000160 bd 7e d8 3d 98 5a 22 3e 9f 34 04 3e 18 25 dd 3d
       0.105710484 0.15854871 0.12910698 0.10798091
000170 38 33 df 3d f5 bf c1 3d 82 d1 09 3e 35 1d 09 3e
       0.10898441 0.09460441 0.13458827 0.13390048
000180 7a fc e0 3d 8e 8b db 3d 2b a9 cf 3d be ec e1 3d
       0.10985656 0.10719977 0.10139688 0.11031483
000190 b6 18 19 3e b3 6d ce 3d ef 18 04 3e e0 5a e7 3d
       0.14950833 0.10079517 0.12900136 0.1129663
0001a0 2f 74 df 3d f1 58 fc 3d eb 9e ee 3d 82 2c c8 3d
       0.10910832 0.12321652 0.11651405 0.09774114
0001b0 47 39 d4 3d ce e5 d9 3d 2b ba ca 3d 4f 4a 03 3e
       0.10362487 0.10639535 0.0989879 0.12821315
0001c0 a5 8b f2 3d 61 aa f8 3d 3f b2 0b 3e 9e 66 03 3e
       0.11843041 0.12141872 0.13642214 0.12832114
0001d0 e5 59 0c 3e 76 fd de 3d 4e 48 ff 3d 35 63 de 3d
       0.13706167 0.108881876 0.12464963 0.10858766
0001e0 2b 93 3d 3e e7 70 3f 3e 18 79 05 3e 21 a9 ff 3d
       0.18513171 0.18695413 0.13034475 0.12483431
0001f0 20 53 d6 3d de 19 c4 3d cc 03 c5 3d 8a d2 c1 3d
       0.104650736 0.09575246 0.09619865 0.09463985
000200 0e 65 c5 3d 9a 3f fa 3d 0d a0 47 3e 40 ee eb 3d
       0.09638415 0.12219162 0.19494648 0.11520052
000210 36 e6 ea 3d f7 86 ec 3d 8b 85 d1 3d d0 ac c4 3d
       0.114696905 0.1154918 0.102305494 0.09603274
000220 f1 4f ee 3d c3 e8 cb 3d 7a 29 eb 3d 52 fd df 3d
       0.11636341 0.09956505 0.114825204 0.10936989
000230 bf a4 df 3d 49 5d 0d 3e a4 75 57 3e be b7 c6 3d
       0.10920095 0.13805117 0.2104097 0.09703015
000240 ed 92 0f 3e a3 18 d7 3d 87 bb dd 3d 06 26 c7 3d
       0.14020891 0.10502746 0.108267836 0.09724049
000250 e7 f2 d1 3d 13 9f 0f 3e 97 2b 05 3e 64 fd d1 3d
       0.10251408 0.14025526 0.1300491 0.102534086
000260 aa d7 e9 3d e0 32 ea 3d fc 75 dc 3d e3 b3 4b 3e
       0.11418088 0.11435485 0.10764691 0.1989284
000270 4a 8c f1 3d 55 ed d2 3d 8c 3f d6 3d 40 a0 f2 3d
       0.11794336 0.10299174 0.10461339 0.118469715
000280 e9 d0 09 3e 3d 1b fc 3d 20 fa 19 3e 98 17 df 3d
       0.13458599 0.12309883 0.15036821 0.10893172
000290 94 51 16 3e 74 14 cd 3d 02 0a 05 3e c6 28 dc 3d
       0.14679557 0.10013667 0.12992099 0.107499644
0002a0 85 8d 02 3e de eb e7 3d 8e 14 c8 3d a8 86 e7 3d
       0.12749298 0.11324285 0.097695455 0.113049805
0002b0 aa a9 17 3e 8c e0 00 3e d1 ec e5 3d d8 c9 de 3d
       0.14810815 0.12585658 0.1122681 0.108783424
0002c0 d7 73 c7 3d b6 0b f1 3d c6 7e e0 3d a3 76 13 3e
       0.097388916 0.11769812 0.1096168 0.14400725
0002d0 79 de dd 3d 54 75 fa 3d 20 96 de 3d 29 10 22 3e
       0.10833449 0.1222941 0.10868478 0.15826477
0002e0 da 9d e6 3d c6 54 d0 3d 4c d3 d4 3d ab ae cc 3d
       0.112605765 0.10172419 0.10391864 0.09994253
0002f0 47 c9 d3 3d 95 f5 03 3e c2 a2 d8 3d c5 d8 c5 3d
       0.10341125 0.12886651 0.105779186 0.09660486
000300 b3 0f e1 3d f4 6d eb 3d 39 72 f6 3d ec 98 1e 3e
       0.109893225 0.11495581 0.12033505 0.15488023
000310 90 25 0b 3e 4e ea f3 3d 13 27 dd 3d d4 05 c0 3d
       0.13588548 0.119099244 0.107984684 0.093761116
