advanced_functionality/autogluon-sagemaker-pipeline/AutogluonModels/ag-20230517_142930/models/NeuralNetFastAI/model-internals.pkl (torch, 126243 bytes, 15 tensors)

weight f4 [13]
0.95149934 1.028552 1.0521909 1.0248511 1.012359 0.96730083 1.014572 1.0276401
1.0157796 0.9825303 0.9704366 0.99207234 0.9909748
00000000: 7695 733f 98a7 833f 31ae 863f 522e 833f
00000010: fb94 813f 07a1 773f 7fdd 813f b689 833f
00000020: 1105 823f 1b87 7b3f 886e 783f 74f8 7d3f
00000030: 86b0 7d3f

bias f4 [13]
0.048990525 0.0039095064 0.013313742 -0.004012711 8.3063074e-05 -0.022020202 -0.05588339 -0.018455585
-0.029998204 0.02457644 0.0260569 0.016433388 0.035639487
00000000: 4aaa 483d 511b 803b e221 5a3c 0f7d 83bb
00000010: 2632 ae38 b663 b4bc fbe5 64bd 2b30 97bc
00000020: cbbe f5bc 8854 c93c 4875 d53c 509f 863c
00000030: b6fa 113d

running_mean f4 [13]
0.0017217381 -0.0054109674 0.0063241767 0.0013505027 0.0066431873 6.803289e-05 0.0057661333 0.0012471221
-0.0015142498 0.0025280023 0.005995299 -0.0034858098 -0.00032339286
00000000: f2ab e13a 7c4e b1bb 0a3b cf3b 5a03 b13a
00000010: 18af d93b e1ac 8e38 d5f1 bc3b 7976 a33a
00000020: cb79 c6ba d7ac 253b 3774 c43b 2f72 64bb
00000030: 0e8d a9b9

running_var f4 [13]
1.0540327 0.9978842 1.0055221 1.0051771 1.0122198 0.98154724 0.99458027 1.0076616
0.99787635 0.9969648 1.0014306 1.0045881 0.98735684
00000000: 8bea 863f 5775 7f3f f3b4 803f a5a9 803f
00000010: 6b90 813f ae46 7b3f d09c 7e3f 0efb 803f
00000020: d374 7f3f 1639 7f3f e12e 803f 5896 803f
00000030: 6bc3 7c3f

weight f4 [200, 13]
0.032006852 0.178846 -0.19919536 -0.21273434 -0.096490316 0.04830212 -0.05537213 0.25209233
0.015703999 0.10064185 -0.07486199 -0.081880204 -0.230623 -0.15655352 -0.12289318 0.029042866
0.085501015 0.18976122 -0.16517605 -0.10676603 0.089128695 0.27559543 -0.024637472 0.22109401
-0.06935697 0.044915438 0.25778863 -0.2697936 -0.15598384 -0.103854924 -0.10616893 0.21611938
-0.1782723 -0.12907021 -0.1719213 -0.26647952 -0.15449038 0.21502168 0.15992887 0.09993488
0.055609595 -0.18246517 0.09015592 -0.2992526 -0.15973258 -0.19398154 0.21123144 0.13019554
-0.14934117 -0.055762563 0.19274114 0.2283778 0.0839991 0.07484583 0.19514562 -0.11476437
0.08156809 -0.25213873 -0.16554783 -0.17988577 0.12769254 0.11715149 -0.19068304 0.090612955
0.11404407 -0.02620438 0.014348686 0.04714864 0.17204608 0.27561677 -0.25459674 -0.027188163
0.06923087 0.21663745 0.21409628 0.24567507 0.037746847 -0.24593784 -0.005758577 -0.120425574
-0.27935463 0.27515036 0.22272426 -0.3034479 -0.012745903 -0.02708187 -0.058978982 -0.14353056
0.043378387 -0.1400475 0.044662718 0.12895268 0.20360139 0.09148478 -0.2884859 -0.19042431
0.15860869 0.037129246 -0.22087935 -0.15357709 0.25775284 0.15585865 -0.11947176 -0.0794924
-0.27163804 -0.034662575 -0.19808188 -0.2374966 0.00079785974 0.07007623 -0.11685611 0.1342225
-0.16919123 0.23101644 0.22960435 -0.23423514 -0.10514652 0.02228727 0.07057564 0.074164316
0.10073463 -0.02901746 -0.18222173 0.14122547 -0.26095182 -0.09058156 -0.018451866 -0.121909216
-0.06888247 -0.23282012 -0.07151209 0.08669902 -0.20172167 -0.026873052 0.19011371 0.015043914
-0.021008922 0.03509561 0.026453692 0.14934903 0.24900731 0.18443015 0.27669865 -0.018823138
-0.24587315 -0.093396306 0.23017123 0.04254316 -0.14588387 -0.17165121 -0.26045555 -0.25347358
-0.03443972 0.15592235 0.10540584 -0.25783145 0.1759863 -0.2237928 -0.07198022 -0.12876627
-0.06573947 -0.07169599 -0.2599401 -0.23351918 -0.05934965 -0.009500128 -0.11257153 0.12043635
-0.23187746 -0.020425126 0.23895697 -0.13823597 0.22130974 0.09326122 -0.26422825 0.16894774
-0.016697828 -0.12764725 0.2060259 -0.22471346 -0.05485287 -0.07178276 0.18443882 0.07795536
0.1476463 0.079347484 -0.09498444 -0.06396189 -0.21920209 0.1457662 0.2161272 0.18243489
-0.20552805 0.0075131264 -0.2399026 -0.13969764 -0.19661206 0.07553132 -0.20984326 -0.005498574
0.041000646 0.22017512 -0.20036256 -0.18296733 -0.14727719 0.22232275 -0.12888238 0.21325071
0.07601111 -0.0036020947 -0.014129319 -0.07956591 0.011035466 -0.07111137 0.029329816 -0.021901911
-0.22721809 -0.16744986 0.2728825 -0.20372514 -0.0062697227 0.31457257 0.11115802 0.027490417
-0.22374484 0.15564139 -0.21633852 -0.062479593 -0.107370496 -0.015094378 0.028234605 0.20024665
0.018242525 0.21612823 0.18561311 -0.1815155 0.17243527 -0.19436617 -0.073933244 0.085408255
0.12211546 0.17745356 -0.058923166 0.03459223 0.14246535 -0.267725 0.20040019 -0.19050588
0.013393687 -0.029533591 -0.13873792 0.049659193 0.26495358 -0.07282611 -0.18343793 -0.0665177
00000000: 9e19 033d 6823 373e def9 4bbe 08d7 59be
00000010: b79c c5bd 72d8 453d e3cd 62bd 3f12 813e
00000020: aca5 803c 501d ce3d 3e51 99bd cfb0 a7bd
00000030: 7028 6cbe 914f 20be 6baf fbbd 4eeb ed3c
00000040: 281b af3d c450 423e e923 29be 26a8 dabd
00000050: 1b89 b63d d81a 8d3e 86d4 c9bc 7866 623e
00000060: 070b 8ebd 40f9 373d dffc 833e 6322 8abe
00000070: 3aba 1fbe e4b1 d4bd 196f d9bd 664e 5d3e
00000080: 048d 36be fb2a 04be 230c 30be 0170 88be
00000090: ba32 1ebe a52e 5c3e 65c4 233e a9aa cc3d
000000a0: e3c6 633d 26d8 3abe aba3 b83d a337 99be
000000b0: f090 23be 19a3 46be 0e4d 583e fb51 053e
000000c0: e4ec 18be 4967 64bd ef5d 453e dfdb 693e
000000d0: b807 ac3d c548 993d 41d4 473e 9509 ebbd
000000e0: 2c0d a73d 5418 81be 5f85 29be fa33 38be
000000f0: d5c1 023e 1fed ef3d 6a42 43be 4993 b93d
00000100: f08f e93d 91aa d6bc c016 6b3c ef1e 413d
00000110: d92c 303e a41d 8d3e 815a 82be b6b9 debc
00000120: eac8 8d3d 35d6 5d3e 0e3c 5b3e 3f92 7b3e
00000130: 709c 1a3d 21d7 7bbe 72b2 bcbb afa1 f6bd
00000140: 9207 8fbe 82e0 8c3e d411 643e 865d 9bbe
00000150: 31d4 50bc ccda ddbc f293 71bd adf9 12be
00000160: 89ad 313d 9d68 0fbe 41f0 363d 2c0c 043e
00000170: e27c 503e 5f5c bb3d 6db4 93be 97fe 42be
00000180: 516a 223e d614 183d 322e 62be 5043 1dbe
00000190: 2ef8 833e 6999 1f3e 9cad f4bd e9cc a2bd
000001a0: 2414 8bbe 58fa 0dbd fad5 4abe 4f32 73be
000001b0: 7627 513a 2084 8f3d 4252 efbd 9f71 093e
000001c0: 7740 2dbe 938f 6c3e 671d 6b3e 56db 6fbe
000001d0: 0f57 d7bd cb93 b63c f689 903d 76e3 973d
000001e0: f54d ce3d 06b6 edbc 5598 3abe 699d 103e
000001f0: 7a9b 85be d382 b9bd 5e28 97bc 8aab f9bd
00000200: 4112 8dbd 6668 6ebe ee74 92bd 418f b13d
00000210: 2090 4ebe e024 dcbc 2bad 423e c07a 763c
00000220: e71a acbc 6ac0 0f3d 6ab5 d83c f4ee 183e
00000230: c6fb 7e3e 42db 3c3e 72ab 8d3e fb32 9abc
00000240: 2cc6 7bbe 9046 bfbd 02b2 6b3e bd41 2e3d
00000250: 9562 15be 56c5 2fbe 6e5a 85be 4ac7 81be
00000260: aa10 0dbd 1caa 1f3e 04df d73d 7c02 84be
00000270: c135 343e f129 65be 5e6a 93bd 4edb 03be
00000280: 6aa2 86bd 59d5 92bd de16 85be a71f 6fbe
00000290: 9e18 73bd 6da6 1bbc e78b e6bd 55a7 f63d
000002a0: 4971 6dbe 9852 a7bc 23b1 743e bb8d 0dbe
000002b0: 059f 623e bdff be3d ed48 87be a300 2d3e
000002c0: e2c9 88bc f6b5 02be 74f8 523e 491b 66be
000002d0: 67ad 60bd d702 93bd 88dd 3c3e 0fa7 9f3d
000002e0: 9730 173e ef80 a23d 3487 c2bd 74fe 82bd
000002f0: 8376 60be bc43 153e 7350 5d3e 36d0 3a3e
00000300: f275 52be ac30 f63b 07a9 75be e60c 0fbe
00000310: ac54 49be 2ab0 9a3d 27e1 56be 622d b4bb
00000320: 4bf0 273d 9675 613e d82b 4dbe ca5b 3bbe
00000330: d5cf 16be 93a8 633e bef9 03be 655e 5a3e
00000340: b6ab 9b3d 1f11 6cbb a97e 67bc 74f3 a2bd
00000350: 19ce 343c d7a2 91bd 1545 f03c a36b b3bc
00000360: dcab 68be fa77 2bbe 41b7 8b3e 539d 50be
00000370: 3f72 cdbb a80f a13e d1a6 e33d 9533 e13c
00000380: 5e1d 65be 7560 1f3e d887 5dbe 9aea 7fbd
00000390: 10e5 dbbd 694e 77bc 424c e73c 750d 4d3e
000003a0: 5971 953c b850 5d3e 5d11 3e3e 33df 39be
000003b0: df92 303e ed07 47be 506a 97bd 86ea ae3d
000003c0: ac17 fa3d 63b6 353e 6b59 71bd 95b0 0d3d
000003d0: 70e2 113e 4013 89be b535 4d3e f913 43be
000003e0: 3271 5b3c 6ef0 f1bc 5011 0ebe 7067 4b3d
000003f0: ffa7 873e db25 95bd 27d7 3bbe 6f3a 88bd

weight f4 [200]
1.0195172 0.9701683 0.9854608 1.0068606 0.9762743 1.0039964 1.0127805 1.0102834
1.0069289 1.0009934 1.010951 1.0399095 0.98501575 1.0481734 1.0076481 1.0016574
1.0415242 0.97329247 0.9887212 1.036116 1.0060946 0.96311194 0.97855926 1.0099972
0.9877722 1.0460024 0.9869664 1.0087651 0.9975588 0.9864814 1.0269498 0.9805415
1.0180782 1.0243231 0.97804105 1.0619313 1.012911 1.0015789 0.9702313 1.0005057
0.9837035 0.96443707 0.9929659 0.984627 0.9761205 1.0069818 1.0177361 0.98043257
1.0113376 0.9958006 1.0508406 0.9906364 1.0203949 0.98554575 0.98880863 1.0163993
0.97001857 0.9849608 1.0022479 0.980463 0.9650504 0.9811225 1.005004 1.0039623
0.99418175 1.0443356 1.0255126 1.0024887 0.9595319 1.0316241 1.0350537 0.9915953
0.99090594 1.0191748 1.000174 1.020564 0.98925674 1.0042108 1.0019786 1.0161003
0.98587376 0.987727 1.0132579 0.96515536 0.9951015 1.0411685 0.97519505 1.0180167
1.0239283 0.9944664 1.0260085 1.0103625 0.9808893 0.9950413 1.0155216 1.0116215
0.99431753 1.0268271 0.99654675 0.99091524 1.0363048 1.0183998 0.94313514 0.9897711
1.0073805 1.0007423 1.0236248 0.9777516 0.96975327 1.0280617 0.9651835 1.0025839
0.97990674 0.9971815 1.0109856 0.96819556 0.99216545 0.97512853 0.98731685 1.0228263
0.9967308 1.0206499 0.98472047 0.9879165 0.9921376 1.0322284 0.99525905 1.0414037
1.0127896 0.9805051 1.0173441 0.98644435 0.99179703 0.9916298 1.0493286 1.0573556
0.95824313 0.9681173 1.0197269 0.97897726 0.98454565 0.9910094 1.0116388 1.0320953
0.9989175 0.99479693 0.9763971 1.0263697 0.99569476 0.988372 1.0007833 1.0231423
1.0048391 0.99361134 1.0249099 0.9794183 1.0150481 0.98589253 1.0136755 0.9649891
1.0132092 0.98707134 1.0239522 0.98739874 1.0448202 0.9477588 1.0046989 0.9814278
1.0182843 1.0110265 1.0067294 1.0166247 0.9988158 1.0272309 1.0026041 1.0232071
0.9990338 1.0160683 0.946487 1.0135922 0.98105556 0.9414035 0.9989519 1.0106875
1.0081499 0.9815121 1.0320127 0.99950224 0.99671364 0.9966036 1.0359254 0.999079
0.9687767 1.0552883 0.9862497 0.9773858 1.0216488 0.982524 0.98940057 1.0255102
00000000: 8a7f 823f f35c 783f 2947 7c3f cfe0 803f
00000010: 1ded 793f f482 803f cba2 813f f750 813f
00000020: 0ce3 803f 8d20 803f d866 813f c11b 853f
00000030: fe29 7c3f 8c2a 863f 9dfa 803f 4f36 803f
00000040: aa50 853f b229 793f d51c 7d3f 739f 843f
00000050: b5c7 803f 818e 763f dc82 7a3f 9747 813f
00000060: a4de 7c3f 68e3 853f d4a9 7c3f 371f 813f
00000070: 0360 7f3f 0c8a 7c3f 1773 833f c504 7b3f
00000080: 6350 823f 051d 833f e660 7a3f 5ded 873f
00000090: 11a7 813f bd33 803f 1461 783f 9210 803f
000000a0: fed3 7b3f 59e5 763f 0333 7e3f 8410 7c3f
000000b0: 08e3 793f c8e4 803f 2d45 823f a1fd 7a3f
000000c0: 8373 813f caec 7e3f f281 863f 599a 7d3f
000000d0: 4d9c 823f ba4c 7c3f 9022 7d3f 5f19 823f
000000e0: 2353 783f 6426 7c3f a949 803f a0ff 7a3f
000000f0: 8b0d 773f d82a 7b3f f9a3 803f d681 803f
00000100: b282 7e3f caac 853f ff43 833f 8d51 803f
00000110: e2a3 753f 420c 843f a47c 843f 31d9 7d3f
00000120: 03ac 7d3f 5274 823f b405 803f d7a1 823f
00000130: ee3f 7d3f fb89 803f d640 803f 930f 823f
00000140: 3962 7c3f addb 7c3f 6fb2 813f 6c14 773f
00000150: f9be 7e3f 0245 853f 62a6 793f 5f4e 823f
00000160: 1510 833f 5a95 7e3f 3f54 833f 8f53 813f
00000170: 901b 7b3f 07bb 7e3f 9dfc 813f d07c 813f
00000180: 988b 7e3f 126f 833f b01d 7f3f 9fac 7d3f
00000190: a3a5 843f ed5a 823f 4e71 713f a461 7d3f
000001a0: d8f1 803f 5318 803f 2306 833f ee4d 7a3f
000001b0: c041 783f 8797 833f 4416 773f ab54 803f
000001c0: 2bdb 7a3f 4947 7f3f fa67 813f aadb 773f
000001d0: 8efe 7d3f 06a2 793f ccc0 7c3f f9eb 823f
000001e0: c029 7f3f a8a4 823f a416 7c3f 19e8 7c3f
000001f0: bbfc 7d3f 0f20 843f 4cc9 7e3f b74c 853f
00000200: 17a3 813f 6202 7b3f 5538 823f 9e87 7c3f
00000210: 69e6 7d3f 73db 7d3f 6650 863f 6e57 873f
00000220: 6c4f 753f 89d6 773f 6986 823f 419e 7a3f
00000230: 2f0b 7c3f cbb2 7d3f 617d 813f b31b 843f
00000240: 0fb9 7f3f 03ab 7e3f 29f5 793f 1560 833f
00000250: dae5 7e3f f305 7d3f ab19 803f 54f6 823f
00000260: 919e 803f 505d 7e3f 3f30 833f 28bb 7a3f
00000270: 19ed 813f 7463 7c3f 1ec0 813f 8709 773f
00000280: d7b0 813f b5b0 7c3f de10 833f 2ac6 7c3f
00000290: abbc 853f 52a0 723f f999 803f da3e 7b3f
000002a0: 2457 823f 5169 813f 82dc 803f c220 823f
000002b0: 64b2 7f3f 4d7c 833f 5555 803f 73f8 823f
000002c0: aec0 7f3f 870e 823f f94c 723f 64bd 813f
000002d0: 7526 7b3f d2ff 703f 50bb 7f3f 355e 813f
000002e0: 0e0b 813f 6144 7b3f fe18 843f 61df 7f3f
000002f0: a028 7f3f 6a21 7f3f 3499 843f a4c3 7f3f
00000300: c001 783f b013 873f dc7a 7c3f f535 7a3f
00000310: 63c5 823f b186 7b3f 5b49 7d3f eb43 833f

bias f4 [200]
0.0063300687 0.020708926 -0.024716558 -0.004452381 0.0032190506 0.030459937 -0.006834122 0.013981655
0.004873714 -0.009634069 0.021989627 -0.022535712 -0.009872161 -0.036770403 -0.012694802 0.022718167
0.0024258015 0.03541623 -0.007289866 -0.033204712 0.03910671 -0.03683917 -0.006953779 0.036813296
0.010844916 0.026477171 -0.037083376 0.018032828 0.0035547228 0.012683021 -0.035546295 0.02033577
0.028749224 -0.0244815 0.03265535 -0.009101396 -0.0109202 0.004145926 0.01103614 0.0012075661
0.0013911702 0.041450255 -0.01285471 0.005005927 0.027209578 0.0034314012 -0.059023503 -0.032800637
0.020431018 -0.017219186 -0.007673731 -0.04328992 0.016658556 -0.021083215 0.0043048067 -0.012961405
0.03237721 -0.0034842265 0.016841311 -0.02471364 0.026026271 -0.029413236 -0.034700952 -0.016167268
0.04763394 -0.029489413 -0.04692049 0.03960215 -0.007451859 -0.035931386 -0.046496537 -0.013465955
0.005099277 -0.012432356 0.02309478 -0.00440572 -0.037391152 0.0008933583 -0.014298226 0.01780746
0.05718292 -0.025969237 -0.026713189 0.03965086 -0.02937412 -0.04042128 -0.0006654719 0.02172885
0.044395123 -0.0010436714 -0.012497252 -0.052696988 -0.04555502 -0.027578335 -0.0018193028 -0.023125354
0.031870108 0.02804908 -0.0177106 -0.041677214 -0.019389916 0.018515721 -0.043762207 0.015244879
0.022385174 0.045788676 0.028898638 -0.01568377 -0.021672346 0.01041563 -0.008973056 0.027262358
0.042514846 0.020057654 0.0039933333 0.027278127 0.04279902 0.020132735 -0.06379555 -0.051898304
-0.020050103 0.00867893 0.0061053983 0.0033372967 -0.023102757 0.057717342 -0.020977087 0.053105507
-0.014714489 -0.06396897 0.04796796 -0.026237221 -0.005974731 0.0404986 -0.01835496 -0.0026877858
0.00720487 0.015197133 -0.0504307 -0.01542334 0.05095967 -0.033422694 -0.0064466475 -0.031118246
0.02284434 0.0118078 0.03401023 -0.033496797 -0.0064951503 0.04970702 0.003518647 -0.011315845
0.035661407 0.0016541142 -0.03189336 0.018287823 -0.028644174 0.037055492 -0.0071620513 0.03830359
-0.032821078 0.020660562 -0.02673157 -0.0040806527 0.020635743 -0.033443764 0.014602131 -0.015639205
0.016848395 -0.058531724 0.017047018 -0.0047881263 -0.0413279 -0.007849932 -0.032929324 -0.022354234
0.037101675 0.027589006 0.02176128 0.020799039 0.027134903 0.007854763 0.046802588 -0.04946535
-0.014415312 -0.004223368 0.044378642 0.0013753044 -0.005288924 -0.024964694 0.010378746 0.049217835
-0.039914936 0.044458758 0.0074917367 0.025540255 0.057297096 0.015582386 -0.033724565 0.027618753
00000000: 776c cf3b c4a5 a93c 617a cabc 47e5 91bb
00000010: b5f6 523b 1e87 f93c c5f0 dfbb 5013 653c
00000020: adb3 9f3b 37d8 1dbc 9723 b43c d09c b8bc
00000030: d8be 21bc 909c 16bd dcfd 4fbc 731b ba3c
00000040: 32fa 1e3b 9c10 113d d4df eebb aa01 08bd
00000050: 5c2e 203d abe4 16bd 87dc e3bb 8ac9 163d
00000060: e0ae 313c a7e6 d83c bde4 17bd 95b9 933c
00000070: 5af6 683b 72cc 4f3c fe98 11bd 3397 a63c
00000080: 7e83 eb3c 6d8d c8bc 9ec1 053d 061e 15bc
00000090: a3ea 32bc 8cda 873b edd0 343c 3247 9e3a
000000a0: ed57 b63a bec7 293d 909c 52bc c208 a43b
000000b0: 9fe6 de3c 5ce1 603b a1c2 71bd f659 06bd
000000c0: f35e a73c 400f 8dbc ec73 fbbb c550 31bd
000000d0: 8677 883c b5b6 acbc 560f 8d3b 135c 54bc
000000e0: f79d 043d 9f57 64bb caf6 893c 4274 cabc
000000f0: 0c35 d53c 07f4 f0bc 9622 0ebd 3871 84bc
00000100: ce1b 433d c893 f1bc b32f 40bd dd35 223d
00000110: b92e f4bb ca2c 13bd 2773 3ebd 4fa0 5cbc
00000120: d617 a73b 15b1 4bbc 4431 bd3c dc5d 90bb
00000130: 7727 19bd 4330 6a3a 1b43 6abc f3e0 913c
00000140: a338 6a3d 70bd d4bc 9ed5 dabc f168 223d
00000150: ffa1 f0bc c990 25bd 1073 2eba b400 b23c
00000160: a9d7 353d cdcb 88ba 46c1 4cbc ccd8 57bd
00000170: e797 3abd f6eb e1bc ac75 eeba 6271 bdbc
00000180: 3b8a 023d 2fc7 e53c d215 91bc bab5 2abd
00000190: 9ad7 9ebc 48ae 973c 0040 33bd a8c5 793c
000001a0: 1d61 b73c e88c 3b3d d6bc ec3c 407b 80bc
000001b0: 348a b1bc 52a6 2a3c ba03 13bc 4f55 df3c
000001c0: 0c24 2e3d f34f a43c 82da 823b 6176 df3c
000001d0: 064e 2f3d 68ed a43c 3ea7 82bd 5193 54bd
000001e0: 1d40 a4bc 1232 0e3c cb0f c83b 8cb6 5a3b
000001f0: fe41 bdbc 0569 6c3d 24d8 abbc 2985 593d
00000200: 0a15 71bc 2a02 83bd 0d7a 443d 71ef d6bc
00000210: adc7 c3bb dce1 253d 245d 96bc 9025 30bb
00000220: d516 ec3b 65fd 783c 6c90 4ebd 2db2 7cbc
00000230: 16bb 503d 3ce6 08bd 663e d3bb b1eb febc
00000240: 0e24 bb3c 8175 413c 504e 0b3d f033 09bd
00000250: 45d5 d4bb 9799 4b3d 1a99 663b 1866 39bc
00000260: b211 123d ddce d83a 9da2 02bd 58d0 953c
00000270: 30a7 eabc 80c7 173d a4af eabb 3ae4 1c3d
00000280: 656f 06bd 5740 a93c 2afc dabc ffb6 85bb
00000290: 4a0c a93c 54fc 08bd c73d 6f3c ca1d 80bc
000002a0: a505 8a3c f6be 6fbd 30a6 8b3c b7e5 9cbb
000002b0: 7247 29bd 009d 00bc e6e0 06bd 3a20 b7bc
000002c0: edf7 173d 5702 e23c b644 b23c bf62 aa3c
000002d0: 044a de3c 44b1 003c 12b4 3f3d 2e9c 4abd
000002e0: 332e 6cbc 2e64 8abb 61c6 353d 8f43 b43a
000002f0: b64e adbb c282 ccbc 9e0b 2a3c a498 493d
00000300: d87d 23bd 631a 363d 3e7d f53b cc39 d13c
00000310: 5cb0 6a3d 444d 7f3c c522 0abd b940 e23c

running_mean f4 [200]
0.3164622 0.20849289 0.2672406 0.3138782 0.2573851 0.2702169 0.18310304 0.185747
0.22452623 0.1352321 0.16873391 0.23177707 0.18254817 0.17379194 0.20110676 0.26717427
0.14581463 0.30658546 0.24389711 0.20541765 0.16321447 0.22011304 0.12707847 0.13678646
0.1444481 0.2650293 0.22535115 0.30529517 0.3365118 0.38462922 0.15200907 0.31700724
0.12325773 0.17197159 0.17122416 0.18754293 0.25944176 0.19817567 0.24627429 0.10134863
0.21515177 0.13357995 0.20373125 0.3263764 0.2603513 0.4366713 0.29036066 0.24688533
0.11465169 0.2384376 0.21483749 0.39171138 0.37342104 0.23961438 0.26830173 0.23109049
0.2912001 0.16548517 0.14525849 0.23528819 0.1342129 0.16854215 0.17299871 0.17925015
0.1290172 0.14332667 0.2679346 0.33543926 0.26134235 0.17589523 0.19243897 0.43635717
0.26325613 0.13882595 0.2108347 0.21315575 0.106112346 0.20053676 0.15231577 0.19704433
0.15634082 0.28518173 0.27033475 0.1461945 0.25646922 0.2578438 0.32607976 0.15796702
0.3823118 0.14299765 0.19883949 0.20798153 0.24853331 0.4007358 0.2336915 0.27970093
0.16613789 0.18255427 0.19206734 0.17358784 0.23774742 0.15585014 0.16495457 0.23288292
0.23540013 0.2880075 0.14930575 0.21528816 0.40970016 0.17016089 0.14541881 0.21753265
0.18797284 0.2534545 0.43662676 0.32177514 0.1629044 0.15732194 0.22244862 0.17773625
0.23815036 0.17572112 0.18762945 0.09880464 0.30221397 0.17585056 0.26981178 0.16585855
0.1490803 0.20682606 0.17299482 0.24333455 0.3100214 0.3117151 0.15753402 0.28469956
0.26658455 0.17335062 0.13058084 0.28967157 0.21461052 0.15070075 0.3584631 0.29300895
0.14335197 0.28516027 0.14887467 0.16761889 0.14071824 0.23566708 0.14517258 0.15516354
0.18953426 0.21289764 0.17864835 0.22642481 0.2407269 0.118704796 0.15806161 0.12194366
0.2764181 0.3242602 0.15522578 0.19484574 0.17072178 0.27780914 0.16004166 0.20196673
0.16584617 0.196416 0.26719445 0.18747185 0.23747963 0.14154334 0.25953513 0.16940977
0.19858298 0.20535673 0.12094934 0.19904803 0.16947144 0.17359464 0.26265493 0.23427702
0.16420059 0.16725893 0.26973876 0.16502488 0.24113895 0.17841114 0.23322211 0.27726585
0.43057913 0.15396702 0.26970044 0.24503735 0.2520606 0.18740664 0.23970978 0.47894067
00000000: 5507 a23e 297f 553e c3d3 883e a5b4 a03e
00000010: fbc7 833e df59 8a3e 5d7f 3b3e 7634 3e3e
00000020: 34ea 653e 497a 0a3e 95c8 2c3e f856 6d3e
00000030: e8ed 3a3e 84f6 313e eeee 4d3e 11cb 883e
00000040: 6e50 153e c5f8 9c3e 2ac0 793e 0159 523e
00000050: b221 273e 5065 613e dc20 023e c011 0c3e
00000060: 34ea 133e ecb1 873e 74c2 663e a64f 9c3e
00000070: 464b ac3e 1fee c43e 44a8 1b3e c64e a23e
00000080: 8c6e fc3d 5219 303e 6355 2f3e 410b 403e
00000090: 8dd5 843e 90ee 4a3e 542f 7c3e df8f cf3d
000000a0: bf50 5c3e 2fc9 083e ed9e 503e cf1a a73e
000000b0: c44c 853e 6193 df3e 27aa 943e 82cf 7c3e
000000c0: 81ce ea3d fc28 743e 5cfe 5b3e 658e c83e
000000d0: 0b31 bf3e 795d 753e d85e 893e fca2 6c3e
000000e0: 2e18 953e f274 293e a4be 143e 63ef 703e
000000f0: 1b6f 093e 5096 2c3e 9326 313e 5a8d 373e
00000100: 161d 043e 3ac4 123e b92e 893e b2be ab3e
00000110: aace 853e e11d 343e b90e 453e 356a df3e
00000120: 82c9 863e 6428 0e3e 0de5 573e 8045 5a3e
00000130: 6e51 d93d 8259 4d3e aaf8 1b3e fdc5 493e
00000140: cf17 203e 5703 923e 5169 8a3e 03b4 153e
00000150: ef4f 833e 1a04 843e edf3 a63e 1bc2 213e
00000160: 5fbe c33e fa6d 123e 949c 4b3e 1cf9 543e
00000170: 847f 7e3e 3e2d cd3e d34c 6f3e f634 8f3e
00000180: 0d20 2a3e 82ef 3a3e 4dad 443e 03c1 313e
00000190: 0f74 733e 2e97 1f3e dae9 283e dc78 6e3e
000001a0: bb0c 713e b875 933e 9be3 183e 8074 5c3e
000001b0: 38c4 d13e a83e 2e3e abe8 143e e1c0 5e3e
000001c0: f47b 403e cac4 813e 8b8d df3e b6bf a43e
000001d0: 69d0 263e 0119 213e 92c9 633e 7e00 363e
000001e0: b0dd 733e 3df0 333e ef21 403e 165a ca3d
000001f0: cabb 9a3e 2b12 343e c524 8a3e d3d6 293e
00000200: 82a8 183e 36ca 533e 8e25 313e b12c 793e
00000210: 20bb 9e3e 1f99 9f3e 9950 213e 24c4 913e
00000220: c57d 883e d382 313e fcb6 053e d54f 943e
00000230: dcc2 5b3e 4c51 1a3e 7a88 b73e 4505 963e
00000240: dcca 123e 8700 923e 9a72 183e 49a4 2b3e
00000250: 7118 103e b652 713e 1fa8 143e 31e3 1e3e
00000260: 4515 423e d701 5a3e 98ef 363e e8db 673e
00000270: 1d81 763e 801b f33d e7da 213e 99bd f93d
00000280: ac86 8d3e 6f05 a63e 82f3 1e3e a485 473e
00000290: b1d1 2e3e 003d 8e3e f6e1 233e 5ed0 4e3e
000002a0: 94d3 293e 4721 493e b6cd 883e 9ff8 3f3e
000002b0: dc2d 733e bdf0 103e cae1 843e c179 2d3e
000002c0: 5659 4b3e 0949 523e 4ab4 f73d 3fd3 4b3e
000002d0: ec89 2d3e cbc2 313e b57a 863e 51e6 6f3e
000002e0: 3324 283e ed45 2b3e 331b 8a3e 48fc 283e
000002f0: 21ed 763e 69b1 363e c7d1 6e3e caf5 8d3e
00000300: de74 dc3e 88a9 1d3e 2d16 8a3e 12eb 7a3e
00000310: 160e 813e 87e7 3f3e 7b76 753e b637 f53e

running_var f4 [200]
0.3061483 0.14114903 0.15062796 0.21269952 0.20366408 0.25712568 0.15318942 0.121889934
0.11836092 0.10132299 0.10880011 0.14099254 0.10452462 0.14784472 0.13305223 0.17550077
0.08076851 0.3144474 0.23866665 0.12348855 0.11556335 0.15074652 0.07078626 0.11720953
0.11127359 0.19441336 0.19805162 0.31241083 0.32221246 0.46684524 0.088615514 0.35829687
0.12819551 0.15524174 0.1232921 0.10036439 0.234522 0.119125046 0.22963285 0.072305605
0.10767896 0.08117321 0.16541052 0.24900883 0.15558277 0.5012247 0.27557984 0.21424913
0.06754004 0.17763424 0.14648686 0.32216883 0.38338134 0.18575355 0.1861003 0.13623103
0.17966905 0.11613442 0.09877931 0.13785248 0.08755339 0.103871025 0.15600936 0.15663905
0.08569667 0.119109966 0.21955526 0.2664794 0.21598324 0.16815662 0.15862857 0.34929028
0.25053027 0.08646394 0.15270343 0.13887186 0.10175467 0.093169786 0.122777455 0.18280134
0.10396554 0.2702857 0.22583434 0.10005058 0.14442559 0.1486768 0.18392862 0.08880787
0.2767105 0.109228164 0.14104132 0.12453825 0.2101333 0.2500862 0.19219285 0.18904899
0.14020874 0.14421238 0.1359185 0.12505566 0.1561053 0.11459952 0.09385234 0.15016498
0.18340623 0.20571768 0.09817262 0.17959975 0.4631031 0.09058006 0.09667654 0.13610232
0.11329268 0.23201217 0.45108798 0.20572609 0.118212916 0.13325101 0.15240161 0.13979402
0.20001782 0.08848723 0.12253998 0.07983235 0.17421201 0.14378102 0.25720906 0.09387137
0.13898009 0.10970843 0.17280938 0.11908707 0.3132532 0.28632325 0.10311358 0.2137601
0.13280103 0.09643392 0.11674076 0.23877297 0.13927609 0.13432947 0.37113005 0.29433364
0.11640756 0.17220758 0.10421383 0.123908855 0.07567378 0.109606594 0.09307211 0.116482094
0.1524476 0.15856566 0.13245699 0.113709256 0.1900909 0.08791439 0.11071348 0.08373521
0.16302341 0.24277197 0.13370362 0.12717201 0.12795278 0.20752226 0.08916075 0.16703637
0.10405652 0.15806915 0.1774967 0.13112907 0.18803376 0.111087926 0.27678236 0.16560501
0.15879522 0.14688906 0.07563128 0.119605824 0.14874242 0.1349131 0.20736957 0.15614548
0.10712572 0.11546438 0.105252296 0.14138952 0.19206111 0.15744649 0.14519738 0.19992374
0.4279074 0.13125266 0.18513939 0.13580512 0.13390028 0.13102892 0.14305645 0.58587325
00000000: 78bf 9c3e 5f89 103e 373e 1a3e e7cd 593e
00000010: 518d 503e faa5 833e b0dd 1c3e 6ea1 f93d
00000020: 3667 f23d 6e82 cf3d 98d2 de3d 5960 103e
00000030: 0111 d63d 9b64 173e d83e 083e 79b6 333e
00000040: f669 a53d 40ff a03e 0865 743e 91e7 fc3d
00000050: 7aac ec3d 4c5d 1a3e 63f8 903d 8d0b f03d
00000060: 68e3 e33d 4c14 473e 0bce 4a3e 50f4 9f3e
00000070: 08f9 a43e 5706 ef3e 0d7c b53d b072 b73e
00000080: af45 033e b1f7 1e3e 9280 fc3d d88b cd3d
00000090: 8926 703e d5f7 f33d e024 6b3e f614 943d
000000a0: c986 dc3d 243e a63d 6061 293e 2cfc 7e3e
000000b0: 1751 1f3e 4350 003f cd18 8d3e 2064 5b3e
000000c0: 6f52 8a3d c0e5 353e a700 163e 50f3 a43e
000000d0: 8f4a c43e 2e36 3e3e 1491 3e3e 2680 0b3e
000000e0: 2afb 373e e2d7 ed3d cf4c ca3d 3329 0d3e
000000f0: 314f b33d 55ba d43d ebc0 1f3e fd65 203e
00000100: bc81 af3d edef f33d 18d3 603e fd6f 883e
00000110: b62a 5d3e 4031 2c3e 876f 223e 2dd6 b23e
00000120: 8145 803e 0214 b13d 4a5e 1c3e 6d34 0e3e
00000130: c164 d03d cdcf be3d bf72 fb3d 4630 3b3e
00000140: e3eb d43d e362 8a3e 1e41 673e 52e7 cc3d
00000150: 4de4 133e bb3e 183e c957 3c3e e7e0 b53d
00000160: 00ad 8d3e 04b3 df3d 236d 103e e90d ff3d
00000170: 2f2d 573e 4c0b 803e 34ce 443e 0f96 413e
00000180: e192 0f3e 69ac 133e 382e 0b3e 970e 003e
00000190: 11da 1f3e 27b3 ea3d a835 c03d d9c4 193e
000001a0: d8ce 3b3e a8a7 523e ba0e c93d ffe8 373e
000001b0: d91b ed3e 0a82 b93d 5afe c53d 685e 0b3e
000001c0: fe05 e83d 9994 6d3e 01f5 e63e dca9 523e
000001d0: 9d19 f23d f472 083e 2b0f 1c3e 2a26 0f3e
000001e0: 79d1 4c3e cb38 b53d 3ef6 fa3d 257f a33d
000001f0: a264 323e 553b 133e e8b0 833e a23f c03d
00000200: cc50 0e3e d0ae e03d f1f4 303e ece3 f33d
00000210: b962 a03e f698 923e 362d d33d ede3 5a3e
00000220: fefc 073e 267f c53d c815 ef3d e780 743e
00000230: 649e 0e3e aa8d 093e c204 be3e e6b2 963e
00000240: 1667 ee3d 2f57 303e 0f6e d53d edc3 fd3d
00000250: dbfa 9a3d 6c79 e03d 979c be3d 2a8e ee3d
00000260: 391b 1c3e 095f 223e cea2 073e 66e0 e83d
00000270: 30a7 423e 760c b43d c0bd e23d 5e7d ab3d
00000280: 9cef 263e 3799 783e 9ae9 083e 6139 023e
00000290: 0e06 033e b780 543e e999 b63d 950b 2b3e
000002a0: 961b d53d e1dc 213e b2c1 353e b346 063e
000002b0: ec8b 403e 1182 e33d 6bb6 8d3e 5c94 293e
000002c0: 379b 223e 166a 163e 93e4 9a3d e6f3 f43d
000002d0: ef4f 183e a926 0a3e b058 543e 9ae4 1f3e
000002e0: bb64 db3d 9778 ec3d 848e d73d 6ac8 103e
000002f0: abab 443e a739 213e 9fae 143e cfb8 4c3e
00000300: ae16 db3e 1967 063e 2e95 3d3e 7f10 0b3e
00000310: 281d 093e 722c 063e 647d 123e cafb 153f

weight f4 [100, 200]
0.07858952 -0.042303514 -0.0005150435 -0.082009666 -0.018409107 0.009331071 0.0012071074 -0.05588464
-0.0155877825 -0.0341843 -0.0729884 0.016996115 -0.03448356 0.03163156 -0.04915765 -0.0645664
-0.028808504 -0.07879295 0.041585322 0.0814866 -0.01190449 -0.0058365827 0.06769773 0.0056996937
0.00534312 -0.08304027 0.06729675 -0.07771127 -0.011390091 -0.0049957624 -0.0056590796 -0.027515877
-0.07546999 0.008553881 0.019522628 0.05390579 -0.0018029662 0.087375306 -0.0111447405 -0.036581855
-0.029219657 -0.021561509 0.020131387 -0.022344735 -0.0073104626 0.04246256 0.03052763 0.043207966
0.045655824 0.0069707534 0.017365528 0.02278128 0.0488175 -0.06167185 0.041201435 0.021959085
0.0036839664 -0.0093807895 0.02353068 0.08670828 -0.07190998 0.010088472 0.07962535 0.021270668
-0.029833157 0.08817579 0.017650628 -0.015409903 0.014786479 0.047960345 0.023514984 0.013695817
0.0080320565 0.03932647 -0.031716 0.010816584 0.05828432 0.0022541678 0.0070031635 0.03349558
-0.08444265 -0.015080838 -0.03704292 0.06599245 -0.08903063 0.02084898 -0.053925578 -0.007572837
0.015153192 -0.019607602 0.07474795 0.025644116 -0.012357951 0.010026702 0.037368786 -0.0047214963
0.10145123 -0.05179294 0.028311078 0.054682124 0.019941371 0.04340212 0.009433553 -0.0719146
-0.029883353 -0.013967785 0.020461852 0.05352615 0.040734664 0.06676452 -0.033381492 -0.042848594
-0.066167325 0.016384209 -0.06961441 -0.05520599 -0.05054628 -0.05167834 -0.004928747 -0.015739087
-0.05230928 0.08737023 -0.0039363997 0.05975202 0.012046045 -0.009618785 -0.02880132 -0.04040809
-0.08777373 0.037274644 -0.031695608 -0.07408868 0.04965764 -0.017775523 -0.0611002 -0.07405192
-0.03804988 -0.016943045 0.092085026 0.058477174 0.014140516 -0.052863117 -0.0295909 -0.05827836
0.007551499 -0.012305483 0.011697788 -0.018279474 0.02357622 0.047640383 0.012559455 -0.006719058
-0.01833143 0.018422727 -0.03910696 0.04879037 -0.01667705 0.07533034 -0.01119717 -0.036947455
0.017427614 -0.08105493 0.00596036 -0.069159165 -0.013842358 0.008136418 0.072165154 0.09452231
0.02060561 0.023416761 -0.042827453 0.04407449 -0.048212416 0.014382343 -0.03569201 0.032765687
0.042122304 0.02458041 -0.0235069 0.047220692 -0.03552924 0.074929915 -0.03385299 0.04459164
0.0152886165 -0.04996763 -0.020955859 0.074955106 -0.04243213 -0.011457233 0.016171977 0.0033025714
-0.043532908 -0.10461625 -0.044221763 0.04960179 -0.04703795 0.017287714 0.032731008 -0.02961498
-0.046281584 -0.033047713 -0.005439439 -0.015970336 0.016541174 0.03767451 0.048738062 -0.036305305
-0.0053576822 0.03171806 0.019163743 0.060191333 -0.04510543 0.0820122 -0.029759733 0.0058005927
-0.047019076 -0.036152832 0.010032707 -0.026172828 -0.033219047 0.049917042 -0.03258753 0.005493279
0.06941383 -0.051776107 -0.052500863 0.002149192 -0.019484604 -0.024140412 -0.030308096 0.020085696
0.059762035 0.10132522 0.036707364 0.01875276 0.011522941 -0.0013272666 -0.0225636 0.010645708
0.04250246 -0.06405586 -0.051702727 0.013248068 -0.004186385 -0.0154214 -0.08130363 0.031679746
-0.014903885 -0.037924364 -0.026448656 0.039953697 -0.027355045 0.032230668 -0.01596829 0.013671264
00000000: 8bf3 a03d 7346 2dbd fc03 07ba aff4 a7bd
00000010: b2ce 96bc 59e1 183c ce37 9e3a 4be7 64bd
00000020: e663 7fbc d604 0cbd f17a 95bd 703b 8b3c
00000030: a23e 0dbd 1890 013d 8859 49bd 643b 84bd
00000040: d0ff ebbc 335e a1bd 5f55 2a3d 72e2 a63d
00000050: 0d0b 43bc ce40 bfbb 1ca5 8a3d 7fc4 ba3b
00000060: 5715 af3b 0411 aabd e1d2 893d 1627 9fbd
00000070: 819d 3abc 7eb3 a3bb cd6f b9bb fa68 e1bc
00000080: 0390 9abd 9425 0c3c ebed 9f3c 51cc 5c3d
00000090: 8251 ecba d3f1 b23d 6e98 36bc dbd6 15bd
000000a0: 105e efbc c3a1 b0bc 94ea a43c 4e0c b7bc
000000b0: 9b8c efbb 39ed 2d3d 1515 fa3c d6fa 303d
000000c0: 9a01 3b3d eb6a e43b 2742 8e3c cf9f ba3c
000000d0: dcf4 473d 9f9b 7cbd d6c2 283d 8ae3 b33c
000000e0: b36e 713b e2b1 19bc 6ac3 c03c 1c94 b13d
000000f0: 8a45 93bd 1e4a 253c 9e12 a33d d33f ae3c
00000100: aa64 f4bc 8295 b43d 0d98 903c d179 7cbc
00000110: fd42 723c 1172 443d 7fa2 c03c 6c64 603c
00000120: e398 033c cb14 213d a3e8 01bd 0b38 313c
00000130: 8abb 6e3d a9ba 133b cb7a e53b a932 093d
00000140: 45f0 acbd 9f15 77bc 51ba 17bd 0d27 873d
00000150: b155 b6bd 7bcb aa3c 11e1 5cbd 9025 f8bb
00000160: 1845 783c 1fa0 a0bc 7415 993d 9c13 d23c
00000170: 0179 4abc 0947 243c 0310 193d c8b6 9abb
00000180: aac5 cf3d d524 54bd a2ec e73c 5dfa 5f3d
00000190: 165c a33c 6cc6 313d 308f 1a3c f647 93bd
000001a0: efcd f4bc 23d9 64bc 9d9f a73c 3c3e 5b3d
000001b0: 64d9 263d d6bb 883d 08bb 08bd 0282 2fbd
000001c0: bc82 87bd 2d38 863c 0092 8ebd ad1f 62bd
000001d0: 9e09 4fbd abac 53bd 5481 a1bb 42ef 80bc
000001e0: 4142 56bd 2aef b23d eafc 80bb 89be 743d
000001f0: c65c 453c 1c98 1dbc bff0 ebbc f482 25bd
00000200: b7c2 b3bd 4cad 183d 41d3 01bd cebb 97bd
00000210: cf65 4b3d f99d 91bc 3444 7abd 88a8 97bd
00000220: 31da 1bbd 24cc 8abc 1397 bc3d c385 6f3d
00000230: 9fad 673c ff86 58bd 9d68 f2bc 4ab5 6ebd
00000240: 9172 f73b f09c 49bc 14a8 3f3c d6be 95bc
00000250: eb22 c13c 9022 433d 2cc6 4d3c 8b2b dcbb
00000260: cc2b 96bc 42eb 963c 9f2e 20bd 69d8 473d
00000270: 4f9e 88bc cb46 9a3d 5674 37bc 3756 17bd
00000280: 5bc4 8e3c 2100 a6bd 204f c33b 52a3 8dbd
00000290: 0fcb 62bc 9c4e 053c 53cb 933d ea94 c13d
000002a0: 19cd a83c 82d4 bf3c d76b 2fbd 7487 343d
000002b0: 627a 45bd eba3 6b3c c931 12bd 5035 063d
000002c0: 7088 2c3d db5c c93c 8b91 c0bc 7c6a 413d
000002d0: 1c87 11bd db74 993d 6fa9 0abd b9a5 363d
000002e0: 1b7d 7a3c dcaa 4cbd 9fab abbc 1082 993d
000002f0: 50cd 2dbd 1eb7 3bbc 187b 843c f46f 583b
00000300: 904f 32bd 0b41 d6bd e121 35bd 3f2b 4b3d
00000310: deaa 40bd f79e 8d3c f310 063d 1d9b f2bc
00000320: c291 3dbd 0a5d 07bd 523d b2bb 39d4 82bc
00000330: 5b81 873c 9650 1a3d 90a1 473d dfb4 14bd
00000340: 7f8f afbb ccea 013d 48fd 9c3c 308b 763d
00000350: 79c0 38bd 03f6 a73d afca f3bc e612 be3b
00000360: 1397 40bd fe14 14bd 3960 243c 6668 d6bc
00000370: b210 08bd d075 4c3d 807a 05bd f700 b43b
00000380: d728 8e3d 2f13 54bd 250b 57bd 75d9 0c3b
00000390: 2d9e 9fbc 1dc2 c5bc af48 f8bc c28a a43c
000003a0: 09c9 743d 9983 cf3d 765a 163d 639f 993c
000003b0: b8ca 3c3c adf7 adba 4dd7 b8bc 566b 2e3c
000003c0: 0f17 2e3d b82f 83bd 3dc6 53bd 6d0e 593c
000003d0: f12d 89bb 0aaa 7cbc 8482 a6bd 9fc2 013d
000003e0: 6d2f 74bc 9456 1bbd daaa d8bc 7da6 233d
000003f0: b017 e0bc 4e04 043d eecf 82bc 70fd 5f3c

weight f4 [100]
0.9886831 0.983611 1.0006547 0.9825778 0.9400994 0.95213705 0.97309804 0.96859306
0.9510195 0.9840982 0.98218715 0.9723549 1.0043093 0.9997646 0.97757363 0.9568777
0.9904889 0.9874543 0.9696757 0.96428716 0.9898072 0.99947274 0.9645992 0.94826627
0.9858004 0.96858484 0.97447395 0.96672535 0.9690707 0.98748755 0.96338964 0.97045946
0.9823401 0.9751559 0.95865554 0.96761096 0.97093505 0.9796736 0.97472954 0.9649181
0.97416574 0.98323494 0.9641566 0.98742294 0.9884431 0.9780398 0.979657 1.004021
0.9916732 0.9637234 0.97829413 0.99393004 0.9812553 0.9819295 0.9745566 0.93780327
0.9598818 0.98833513 0.96629715 0.9705593 0.9542997 0.9741947 0.9885876 0.9692356
0.96406627 0.9895948 0.9733361 0.98883295 1.0023787 0.99145424 0.96546006 0.95834136
0.9820996 0.98873454 0.9520027 0.96522063 0.97853863 0.97713107 0.95810014 0.941986
0.9871215 0.9867101 0.97687393 0.9773532 0.9874177 0.99427 0.9763352 0.94143385
0.96857727 0.91917986 1.0006313 0.97160184 1.0094727 0.9601051 0.9845164 0.98616946
0.98706985 0.9704001 0.9773529 0.97237486
00000000: 561a 7d3f eecd 7b3f 7415 803f 388a 7b3f
00000010: 5baa 703f 41bf 733f f41c 793f b7f5 773f
00000020: 0476 733f dced 7b3f 9e70 7b3f 40ec 783f
00000030: 358d 803f 93f0 7f3f 4442 7a3f f0f5 743f
00000040: ae90 7d3f cec9 7c3f ab3c 783f 86db 763f
00000050: 0164 7d3f 72dd 7f3f f9ef 763f 94c1 723f
00000060: 6a5d 7c3f 2df5 773f 2077 793f 507b 773f
00000070: 0415 783f fccb 7c3f b4a0 763f 0870 783f
00000080: a47a 7b3f d1a3 793f 736a 753f 5ab5 773f
00000090: 338f 783f e4cb 7a3f e087 793f df04 773f
000000a0: ed62 793f 49b5 7b3f f8d2 763f c0c7 7c3f
000000b0: 9b0a 7d3f d160 7a3f cdca 7a3f c383 803f
000000c0: 4bde 7d3f 94b6 763f 7c71 7a3f 3372 7e3f
000000d0: 8c33 7b3f bb5f 7b3f 8b7c 793f e013 703f
000000e0: d0ba 753f 8803 7d3f 405f 773f 9376 783f
000000f0: fc4c 743f d364 793f 1414 7d3f d31f 783f
00000100: 0ccd 763f 1656 7d3f 8e2c 793f 2824 7d3f
00000110: f24d 803f f2cf 7d3f 6428 773f dc55 753f
00000120: e16a 7b3f b51d 7d3f 73b6 733f b318 773f
00000130: 8281 7a3f 4325 7a3f 0d46 753f ff25 713f
00000140: ffb3 7c3f 0899 7c3f 6914 7a3f d233 7a3f
00000150: 68c7 7c3f 7b88 7e3f 1bf1 793f cf01 713f
00000160: aef4 773f 5f4f 6b3f b014 803f e6ba 783f
00000170: 6736 813f 73c9 753f 4409 7c3f 9a75 7c3f
00000180: 9cb0 7c3f 246c 783f cd33 7a3f 8fed 783f

bias f4 [100]
0.01082557 -0.0076172333 0.0231143 -0.008041109 0.014095923 0.016903916 0.0044409423 -0.00568288
-0.02288618 0.023402367 0.014420414 -0.0041125235 0.0052836295 -0.0055790045 -0.009741844 0.005840459
0.014743022 -0.006701952 0.022361523 -0.011257718 0.010457244 0.011419916 0.011231265 -0.007957674
-0.0030905593 0.021061542 -0.015878333 0.00385214 -0.02140137 0.0126697775 -0.008244906 -0.01025492
-0.0012873712 0.019711014 0.0065085525 0.0042239246 -0.002133781 -0.0048202355 -0.015651766 -0.0074597923
0.0031185301 0.012544426 -0.005236373 0.0043519097 0.0058857366 -0.004735028 -0.022202704 0.015516115
-0.0042940686 0.010844224 -0.014735371 -0.009781686 -0.013924255 -0.016072456 -0.0012233558 -0.023152737
0.020303216 0.0101585975 -0.008440479 0.004242744 -0.018176474 0.002894266 -0.0039140736 0.009706931
-0.0025738273 0.022754015 -0.006100468 0.023538498 0.0062437817 -0.0063034506 0.008592125 0.017172499
0.00076125114 0.015530791 0.009547891 -0.018188074 0.0013769733 -0.0057468107 0.014596944 -0.0146369655
-0.0055323713 0.016851151 -0.015451702 0.01869639 0.01597356 0.010177435 -0.009426118 -0.012768956
0.0012917394 -0.023767175 -0.0007293477 0.023160903 0.01623762 -0.023985665 -0.0029190597 0.009390582
0.008335005 -0.006063511 -0.0022178884 0.014211424
00000000: bb5d 313c fc99 f9bb 335a bd3c dbbe 03bc
00000010: 96f2 663c 157a 8a3c 5385 913b 7437 babb
00000020: cc7b bbbc 52b6 bf3c 9a43 6c3c 59c2 86bb
00000030: 4c22 ad3b 15d0 b6bb 419c 1fbc 5261 bf3b
00000040: b78c 713c 0c9c dbbb 832f b73c 4b72 38bc
00000050: dc54 2b3c 991a 3b3c 5703 383c e760 02bc
00000060: fb8a 4abb 4189 ac3c 4713 82bc 2f74 7c3b
00000070: ed51 afbc e694 4f3c a415 07bc 4104 28bc
00000080: 02bd a8ba fe78 a13c b245 d53b d968 8a3b
00000090: e8d6 0bbb 11f3 9dbb 2238 80bc 4671 f4bb
000000a0: 4160 4c3b 2387 4d3c e195 abbb 779a 8e3b
000000b0: 23dd c03b 4b28 9bbb 72e2 b5bc 4e37 7e3c
000000c0: 42b5 8cbb f9ab 313c a06c 71bc 5d43 20bc
000000d0: 8f22 64bc 62aa 83bc 0259 a0ba cfaa bdbc
000000e0: ee52 a63c 3f70 263c ef49 0abc b706 8b3b
000000f0: d4e6 94bc baad 3d3b a141 80bb d209 1f3c
00000100: a8ad 28bb a166 ba3c 6fe6 c7bb cfd3 c03c
00000110: a398 cc3b 2d8d cebb fcc5 0c3c 57ad 8c3c
00000120: b38e 473a dc74 7e3c c26e 1c3c 28ff 94bc
00000130: 8f7b b43a be4f bcbb 0528 6f3c e2cf 6fbc
00000140: e548 b5bb 6d0b 8a3c 2329 7dbc 2c29 993c
00000150: fcda 823c 42bf 263c 0170 1abc e234 51bc
00000160: 954f a93a 61b3 c2bc b231 3fba efbb bd3c
00000170: c204 853c 967d c4bc b24d 3fbb f5da 193c
00000180: 8b8f 083c 6bb0 c6bb fe59 11bb 08d7 683c

running_mean f4 [100]
0.3613197 0.3433205 0.40403822 0.5798022 0.3965546 0.7099008 0.6034862 0.40121305
0.51208746 0.540807 0.5604716 0.42145565 0.3079488 0.34720767 0.8892406 0.3984612
0.42038047 0.5277344 0.4126866 0.5744588 0.67306757 0.3436785 0.3248461 0.46099675
0.95733994 0.42114615 0.52327305 0.49178603 0.4892812 0.31742615 0.6873485 0.603376
0.7557095 0.50666565 0.3084972 0.31256455 0.4778339 0.56631327 0.48237598 0.31850156
0.33356297 0.5323741 0.6961947 0.4035013 0.55151504 0.52270776 0.77028024 0.34671593
0.33433184 0.4600037 0.72933733 0.46622238 0.3749736 0.42186198 0.44471806 0.5003062
0.39616424 0.4122734 0.5673323 0.43117526 0.32975385 0.6593806 0.71347976 0.49026075
0.5933511 0.38842592 0.6445963 0.3198304 0.4498106 0.71170795 0.5166109 0.28153095
0.5609484 0.6876849 0.4268375 0.5926316 0.4819742 0.4418844 0.4129156 0.42094016
0.68946004 0.62899697 0.55575365 0.5962915 0.3358005 0.5925963 0.5221422 0.460293
0.49419102 0.6888052 0.39976937 0.48284006 0.37513798 0.8158712 0.4077737 0.654934
0.47941923 0.48181826 0.6294099 0.58302194
00000000: e5fe b83e b4c7 af3e 19de ce3e eb6d 143f
00000010: 3409 cb3e 0fbc 353f 127e 1a3f cc6b cd3e
00000020: 2a18 033f 5472 0a3f 117b 0f3f 09c9 d73e
00000030: 77ab 9d3e 34c5 b13e 46a5 633f 1b03 cc3e
00000040: 1c3c d73e 9a19 073f a84b d33e bb0f 133f
00000050: 284e 2c3f a1f6 af3e 3a52 a63e c407 ec3e
00000060: 3b14 753f 78a0 d73e 39f5 053f 61cb fb3e
00000070: 1183 fa3e ae85 a23e 12f6 2f3f d976 1a3f
00000080: 2e76 413f d7b4 013f 58f3 9d3e 7608 a03e
00000090: a5a6 f43e e8f9 103f fcf9 f63e a312 a33e
000000a0: c4c8 aa3e ab49 083f d139 323f b997 ce3e
000000b0: 1730 0d3f 2dd0 053f 1631 453f c084 b13e
000000c0: 8b2d ab3e 9b85 eb3e dab5 3a3f b3b4 ee3e
000000d0: 8afc bf3e 4bfe d73e 16b2 e33e 1114 003f
000000e0: 0ad6 ca3e 8015 d33e b13c 113f 01c3 dc3e
000000f0: 7fd5 a83e 2bcd 283f 9ca6 363f 7503 fb3e
00000100: dce5 173f c3df c63e 4304 253f cfc0 a33e
00000110: 934d e63e 7e32 363f 9d40 043f d324 903e
00000120: 509a 0f3f 1e0c 303f 728a da3e b4b6 173f
00000130: 53c5 f63e ac3e e23e ac69 d33e 7885 d73e
00000140: 7480 303f f205 213f df45 0e3f 8fa6 183f
00000150: 0bee ab3e 64b4 173f 1cab 053f 86ab eb3e
00000160: 9b06 fd3e 8a55 303f 92ae cc3e d036 f73e
00000170: 1612 c03e efdc 503f b7c7 d03e c1a9 273f
00000180: 7076 f53e e2b0 f63e 0221 213f ed40 153f

running_var f4 [100]
0.37247887 0.85697377 0.6038589 0.62527496 0.32706046 2.4462254 1.3494451 0.28019634
1.0082465 0.751922 0.8464351 0.6797487 0.3258979 0.45047033 1.2974554 0.7858406
0.5855784 1.2140385 0.73922455 0.70749325 1.343476 0.5033604 0.4082316 0.8294562
2.5738595 0.7140197 0.9859144 0.6773782 1.0987947 0.42548433 1.7060258 1.2364031
1.9901234 1.0196564 0.42615587 0.29979795 0.36607978 1.0933394 0.34812412 0.2313815
0.64180243 0.5003857 1.577351 0.7638048 0.87870467 1.4826329 1.218808 0.431669
0.3868632 0.46459275 1.25898 0.7682468 0.26726902 0.7420269 0.68311435 1.0109407
1.1734961 0.5762111 1.2939943 0.52373075 0.3996109 0.7522112 1.1063353 0.4322617
0.98785335 0.4606595 1.2735877 0.2340738 0.49334994 1.5898324 1.068007 0.46570414
0.6799823 1.7702416 1.5310477 1.142098 0.5368826 0.8299792 0.6849779 0.7427837
1.4067502 1.3089919 1.0237765 1.1149223 0.47204986 0.76954556 1.4054064 1.197884
1.0975 1.5037744 0.5345494 0.4816978 0.4876421 1.4560579 0.34108925 0.861535
1.0897421 0.8248874 1.2647219 0.5972123
00000000: 8db5 be3e a262 5b3f 7f96 1a3f 0512 203f
00000010: 7874 a73e f58e 1c40 9eba ac3f e575 8f3e
00000020: 390e 813f f67d 403f f9af 583f 0304 2e3f
00000030: 17dc a63e 0ca4 e63e 0513 a63f d92c 493f
00000040: 77e8 153f 9d65 9b3f d23d 3d3f 471e 353f
00000050: 06f7 ab3f 3adc 003f bb03 d13e 3e57 543f
00000060: 1dba 2440 ffc9 363f e364 7c3f a868 2d3f
00000070: 4ea5 8c3f 15d9 d93e 0e5f da3f 7542 9e3f
00000080: 5dbc fe3f 1a84 823f 1a31 da3e 1e7f 993e
00000090: cf6e bb3e 8cf2 8b3f 533d b23e 46ef 6c3e
000000a0: 2a4d 243f 4719 003f a3e6 c93f b688 433f
000000b0: caf2 603f eac6 bd3f e701 9c3f b803 dd3e
000000c0: ef12 c63e 1adf ed3e 4226 a13f d3ab 443f
000000d0: 7cd7 883e 7af5 3d3f 95e0 2e3f 8166 813f
000000e0: 1f35 963f 9282 133f 9ba1 a53f 3813 063f
000000f0: cd99 cc3e ea90 403f 659c 8d3f 6851 dd3e
00000100: f5e3 7c3f 90db eb3e ec04 a33f 0bb1 6f3e
00000110: 5d98 fc3e a17f cb3f 74b4 883f c670 ee3e
00000120: 5213 2e3f 4797 e23f 5ff9 c33f 4430 923f
00000130: 2371 093f 8479 543f b65a 2f3f 1327 3e3f
00000140: 6410 b43f 0c8d a73f 1c0b 833f c6b5 8e3f
00000150: 85b0 f13e f000 453f 5be4 b33f 4354 993f
00000160: e17a 8c3f ae7b c03f 3bd8 083f 18a1 f63e
00000170: 3aac f93e 1b60 ba3f 40a3 ae3e 8f8d 5c3f
00000180: ab7c 8b3f d22b 533f 68e2 a13f e8e2 183f

weight f4 [1, 100]
0.03998816 -0.0066254493 0.09581571 -0.050956793 -0.0010155315 0.018648928 0.06633607 -0.0012447396
0.007518497 0.016352966 0.0022222246 -0.06938941 0.023079174 0.04249198 -0.018516572 -0.0060295216
0.033782575 0.0043906285 0.04205272 0.0015294706 0.03301041 0.031504195 0.0075622955 -0.015869942
-0.05070474 0.04964724 -0.05394648 0.0022099114 0.0024721697 0.029194748 -0.04213034 -0.06715399
-0.060641035 0.014614938 -0.0066655544 0.012809316 -0.015144838 -0.016103027 0.0051363753 0.009541613
-0.02941101 0.009013169 -0.06073538 0.049886614 0.054495115 0.006567795 -0.014024141 0.03454442
0.02686324 0.0526146 -0.04341503 -0.057483345 -0.02248637 -0.04326959 -0.032423254 0.018893331
0.05472842 0.018975226 -0.040098026 -0.02998986 0.012475383 -0.053579696 -0.028396342 0.006855353
-0.0014079405 0.08249295 -0.041291233 0.020913787 0.025422802 -0.028645638 0.04720234 0.015429344
0.010676645 0.04440597 0.028493809 -0.046567973 -0.005551679 -0.020890458 0.014382682 0.018082475
-0.07250421 0.027491292 0.00015909705 -0.017789638 0.08907698 0.045309663 -0.001956168 0.007662237
-0.019347034 0.010378188 0.05763608 0.029146524 0.04030477 -0.055545535 -0.026835699 0.009893204
0.048263583 -0.002357359 -0.056482933 -0.01600521
00000000: a0ca 233d 4c1a d9bb 073b c43d 12b8 50bd
00000010: 951b 85ba a3c5 983c 35db 873d 8826 a3ba
00000020: b95d f63b a8f6 853c bea2 113b 091c 8ebd
00000030: 8910 bd3c 120c 2e3d 11b0 97bc 4b93 c5bb
00000040: 995f 0a3d 43df 8f3b 793f 2c3d 8478 c83a
00000050: ec35 073d 8b0a 013d 22cd f73b ae01 82bc
00000060: c6af 4fbd e85a 4b3d fcf6 5cbd 29d4 103b
00000070: 2004 223b d329 ef3c dd90 2cbd 0888 89bd
00000080: bc62 78bd 7e73 6f3c b96a dabb 2ade 513c
00000090: 0e22 78bc 7fea 83bc 0a4f a83b 6d54 1c3c
000000a0: 5cef f0bc f9ab 133c a9c5 78bd e855 4c3d
000000b0: 4536 5f3d a836 d73b 83c5 65bc 737e 0d3d
000000c0: 4c10 dc3c 6882 573d f5d3 31bd a873 6bbd
000000d0: 5635 b8bc 743b 31bd 3fce 04bd 30c6 9a3c
000000e0: e82a 603d ef71 9b3c d43d 24bd 4bad f5bc
000000f0: 8c65 4c3c 6276 5bbd 729f e8bc dea2 e03b
00000100: a58a b8ba 10f2 a83d ff20 29bd 6453 ab3c
00000110: 7b43 d03c 42aa eabc 3e57 413d 5ccb 7c3c
00000120: 18ed 2e3c 09e3 353d d96b e93c 0fbe 3ebd
00000130: dcea b5bb 7722 abbc 57a5 6b3c b321 943c
00000140: 167d 94bd 6b35 e13c 4ad3 2639 93bb 91bc
00000150: fe6d b63d a096 393d 0e33 00bb 8113 fb3b
00000160: ac7d 9ebc 4709 2a3c cf13 6c3d b1c4 ee3c
00000170: 9d16 253d b783 63bd 8ad6 dbbc 1b17 223c
00000180: 09b0 453d ec7d 1abb a65a 67bd 5c1d 83bc
