advanced_functionality/autogluon-sagemaker-pipeline/AutogluonModels/ag-20230517_142930/models/NeuralNetTorch/net.params (torch, 211335 bytes, 9 tensors)

weight f4 [128, 13]
00000000: 0fff 59bd dc50 d83d 66d5 96be 3fa5 6dbe
00000010: caec eebd 2920 e83d afa8 87bc ea92 4b3e
00000020: a550 d5bc de78 e03d e1e5 ffbd a3d3 44bc
00000030: 8534 9bbe 5c91 44be f41b 12be 6cc0 25bd
00000040: e08d fd3d 7558 1a3e a7bb 36be c1a6 a8bd
00000050: a1dc dc3d bcf0 7b3e 9844 8abd 0343 433e
00000060: 58f4 7ebd 2e72 5c3d 1c35 9c3e 4ee7 70be
00000070: 87f6 38be 3e30 9cbd e0f8 ccbd 98d9 683e
00000080: 8364 52be 5351 debd bf15 2cbe 0927 c0be
00000090: 056d 15be 357a 3f3e b812 fe3d 44bd ea3d
000000a0: 9220 893c d3a0 23be 96f7 5f3d 12f7 8ebe
000000b0: 30cb 36be c8d6 0bbe db0b 473e 3016 213e
000000c0: 729c d5bd b873 55b9 c579 2e3e b2b0 be3e
000000d0: cd5a 1a3e e676 493d 8a46 713e f268 09be
000000e0: eb2c 1c3d ea6f 64be 9f3e 4fbe e466 0cbe
000000f0: 6c1d b73d e67d 833d 1aac 28be 1d51 943d
00000100: c3eb a73d f4e0 05bd d024 f13c 7a47 a33d
00000110: 7750 423e 1379 823e 8668 62be afcf 15bd
00000120: 030f 193e 06b5 673e cb70 803e b8af 7e3e
00000130: 6883 763d 7a23 85be f05f f9bc 1d4a 48be
00000140: 5f8c 7dbe bb17 8e3e accc 603e b59e 87be
00000150: 5c1e 9c3d 3fcd 78bd 7d8d 58bd d2dc 4bbd
00000160: d90a bc3d 5e22 20be 45e3 633d 26bf 203e
00000170: 3e2a 383e 1bfb 2e3e cfbf a2be 0046 55be
00000180: e47e e23d ea49 36bc bbcb 7abe e64e 0cbe
00000190: 0567 7d3e 4d16 493e 4b01 e7bd 5870 94bd
000001a0: 6a77 96be 58b1 17bd 8fd3 74be c1b8 44be
000001b0: 07f0 4abd 1cb1 103d 41de 9fbd cc86 273e
000001c0: 427e 33be c965 933e f5dd 263e a083 4dbe
000001d0: 27a9 eebd c95b c1bc 1b9c 5d3d e6d7 123d
000001e0: 99e2 073e 9c18 7e3d f96b dfbd fc06 3d3e
000001f0: 1dba 70be 2fef 22be eada a8bc 4c0e f6bd
00000200: 12e0 07be bae1 61be ac8f 5abd eb70 603d
00000210: 2be1 76be bbd0 ff3b cc22 493e 2a1e edbc
00000220: 8477 5a3d fb9d 1fbd 3831 513d 815f 473e
00000230: b6e8 863e ebb6 203e 10b9 613e aa5f a63b
00000240: 723a 80be 2cf2 0bbe 7b0c 433e 4678 07bd
00000250: d429 06be e9cb 67be 8f64 8fbe 3023 5cbe
00000260: 0ae1 e0bd dd9b 133e a77c 0b3e 007b 80be
00000270: 0909 5b3e fe1e 41be 8a8a 5ebc 6773 1abe
00000280: b338 babd 451a 91bd f861 80be 6ca5 47be
00000290: 5162 66bd 923b 2fbd a45f e0bd abf0 d13d
000002a0: b78d 63be 2169 a9bd 4523 843e 88d8 25be
000002b0: eded 8e3e fdaa 303e c7d9 75be f451 483e
000002c0: 2c67 9fbc e9d1 fbbd 7cc9 7a3e e095 64be
000002d0: 1526 833c 9c46 aabd 9f0b 483e 689e cd3d
000002e0: 6548 483e b0a7 aa3d 4eb4 74bd eba1 51bd
000002f0: 0d31 80be 6df2 1e3e a2e0 643e 738c 4e3e
00000300: dc81 38be d73e b03c a7bb 3abe 6da0 febd
00000310: 5152 2fbe 5c7d 0a3e 4d9b 44be e615 f2bc
00000320: 4934 3dbc 839a d73d 4aae 6bbe c47d 38be
00000330: 9cff 4ebe 93e4 3d3e 1f28 debd fb3b 873e
00000340: 9ed3 0a3e 582b 2a3d c990 f93c 0028 6cbd
00000350: 4e2c f63c 4075 8ebd 3d2a 7bbd 7e27 793c
00000360: 5c60 45be 797e 75be 063e 603e 7c20 71be
00000370: 4f46 9bbb d65a 933e 0da7 8d3d 54dc ffbc
00000380: 4ff3 87be 3f11 de3d 2e55 3ebe 8369 94bd
00000390: 2de9 e7bd 4fe6 27bd 232c 1a3c a571 5e3e
000003a0: da8e cd3c af91 7e3e 74ce 163e a292 45be
000003b0: d2cc 163e 3434 5cbe 0ac5 11be 6ea9 e13d
000003c0: 7622 423e a8fe 803e 9768 8ebd 3b33 7b3d
000003d0: 4068 013e c581 85be 842b 353e b8ac 7cbe
000003e0: 8e1a f1b9 9f01 6abd a018 01be e1c1 423c
000003f0: f32d 7b3e d7a2 65bd 1afd 41be 4e7a bcbd
-0.05322176 0.10562298 -0.29459685 -0.23207568 -0.11666258 0.11334259 -0.016559927 0.19880262
-0.02603943 0.109605536 -0.12495018 -0.012013349 -0.30313507 -0.19196075 -0.14268476 -0.04046671
0.12380576 0.15072806 -0.17845021 -0.08234931 0.10784269 0.24603552 -0.067513645 0.19068532
-0.062244743 0.053819828 0.3050927 -0.23525736 -0.18062793 -0.07626389 -0.10008407 0.22739255
-0.20546155 -0.10855355 -0.1680517 -0.3752978 -0.14592369 0.18698962 0.12405914 0.11461881
0.016739164 -0.15979318 0.054679476 -0.27922875 -0.17850947 -0.13656151 0.19438116 0.1573112
-0.1043023 -0.00020356372 0.17038639 0.37244183 0.150737 0.049185656 0.23562065 -0.1341894
0.038128775 -0.22308317 -0.20238732 -0.13711125 0.08941159 0.064204976 -0.16471902 0.07242034
0.08199265 -0.032685235 0.029436499 0.079726174 0.18976007 0.25482997 -0.22110185 -0.036575016
0.14947133 0.22627649 0.25086054 0.24871719 0.060183913 -0.2600363 -0.030441254 -0.19559522
-0.24760579 0.2775248 0.21953076 -0.2648827 0.07622978 -0.060742613 -0.05286931 -0.049771138
0.091817565 -0.1563811 0.055636663 0.15697917 0.17984864 0.17087977 -0.31786963 -0.20827484
0.11059359 -0.011126021 -0.2449178 -0.13701972 0.2474633 0.19637413 -0.112795435 -0.0724799
-0.2938798 -0.037034363 -0.23908828 -0.19211103 -0.049545314 0.035325155 -0.078060634 0.16360015
-0.17528632 0.28788593 0.16295607 -0.20069742 -0.11653357 -0.023603337 0.054103952 0.035850428
0.13270034 0.062035188 -0.10909266 0.18459696 -0.23508497 -0.15911554 -0.020612199 -0.12014446
-0.1326907 -0.22058764 -0.053359672 0.054795187 -0.24109332 0.007806865 0.1964218 -0.028945047
0.053336635 -0.03896902 0.05107233 0.19470026 0.2634942 0.15694778 0.22043252 0.005077322
-0.2504459 -0.136666 0.1904773 -0.033073686 -0.13101894 -0.2263638 -0.28006408 -0.21497798
-0.10980423 0.14414926 0.1362177 -0.25093842 0.21390165 -0.18859479 -0.013582835 -0.15083085
-0.09092846 -0.07085089 -0.25074744 -0.19496697 -0.056246106 -0.04278142 -0.10955742 0.10250982
-0.22222029 -0.08272005 0.2580816 -0.16195881 0.27915898 0.17252727 -0.24008857 0.19562513
-0.019458376 -0.122958966 0.24490923 -0.22322798 0.01600937 -0.08314249 0.19535683 0.10039979
0.19558866 0.08332765 -0.059742264 -0.051179808 -0.25037423 0.15522166 0.22351316 0.20170765
-0.18018287 0.02151434 -0.18235646 -0.124329425 -0.17121245 0.13524383 -0.19199868 -0.029551458
-0.01154811 0.10527518 -0.23015705 -0.18016726 -0.20214695 0.18544225 -0.10847496 0.2641295
0.13557288 0.041545242 0.030464547 -0.057655334 0.030050423 -0.069559574 -0.06131958 0.01520717
-0.1927504 -0.23974027 0.2189866 -0.23547548 -0.004738606 0.2878024 0.06916628 -0.03123299
-0.26552817 0.10843133 -0.18587181 -0.07246687 -0.113237716 -0.040991124 0.009409937 0.2172304
0.025092531 0.24860261 0.14727193 -0.19294217 0.1472657 -0.21504289 -0.1423532 0.11018644
0.18958458 0.25194287 -0.06953543 0.061328154 0.12637424 -0.2607557 0.17692381 -0.24675262
-0.00045986887 -0.057130452 -0.1260705 0.011887045 0.24529247 -0.0560635 -0.18944207 -0.09203015

bias f4 [128]
00000000: 670a 74bd 4e96 1d3e 83df 55be d9ec 9a3e
00000010: 001a 323e a28e 453d d1a8 243e 8f60 703d
00000020: 8486 03be 3452 83bb d118 a13d dec2 c1bd
00000030: cf19 813e 465e c1bd f1c8 8bbe 49b3 22be
00000040: 482d 90be c327 733e 6915 0abe b211 48be
00000050: 51ce a5bd 87e1 40be 3181 10be 47af 0e3e
00000060: febc 33be f2ac d13d ffe7 503e 90e3 90ba
00000070: 637f cb3d e63a febd e1da 7a3e 87d4 8e3e
00000080: 6c7a b33d 2422 6f3e 0d1f 8abe 72f4 94bd
00000090: 1d18 613d 9c88 8cbe 0d18 033e 9b19 b5bd
000000a0: 4031 03be b8a1 76be 856e 0e3e 5a05 2ebe
000000b0: a212 72bd 0fa7 d43d 0977 783e f930 d93d
000000c0: 0b37 b9bd 5944 cdbd a9ff f43d bad6 e13c
000000d0: 87f0 7b3e 0e55 bc3d ded7 8c3e a4aa 74be
000000e0: 37a4 4b3e 7247 0bbe eec3 a5bd 7fa1 bb3c
000000f0: 25ba eabd 4948 a83d ef75 733e 6161 29be
00000100: 67d2 f83d f143 77be 5abc 3c3d 1635 7e3e
00000110: 04bb 273e 7524 693e 1d35 1f3e df10 1cbd
00000120: a227 b23c b70d 97bd e303 843e 3457 cc3d
00000130: 73bc 2bbe 2a46 7c3e fd80 e0bc db05 52bc
00000140: 91f5 dbbd 05ae 61bd 5212 a1bc 253f a0bd
00000150: 37c5 97be 314e 00be 3d77 a0bd ae8f 283e
00000160: 5ed6 453e d3a4 3cbe 66c6 8a3b e836 9dbd
00000170: c82c 22be 0c8e a7bd 74fe 6fbd 678f 0e3e
00000180: 40d6 18be 20c8 513d fc48 1dbe 2344 a3bd
00000190: e4d8 453e 042b 1cbe 05f4 e7bc 59ad 623e
000001a0: d9d0 c63d 63ad c7bd c315 49be dfd7 bbbd
000001b0: fa8a d3bd 23b5 113e 833f d6bd ad0b 573e
000001c0: 97da 1ebe b93e f4bd 4379 e93d 39a9 743e
000001d0: 7504 6e3e d968 1e3d d000 913c bd30 cabd
000001e0: 643a 343e e690 2dbe 98e9 e1bd e3f9 4ebe
000001f0: 73c5 92be 3d39 153e 3a25 9b3c a672 7b3e
-0.059580233 0.15389368 -0.20886044 0.30258825 0.1739273 0.04823173 0.16080023 0.058685835
-0.12844282 -0.004007602 0.078660615 -0.09460996 0.25215003 -0.09441809 -0.27301744 -0.15888704
-0.28159547 0.23745637 -0.1348473 -0.19538 -0.08095992 -0.18836032 -0.14111783 0.1393405
-0.17552564 0.10238065 0.20401 -0.0011054147 0.099364065 -0.12413578 0.24497558 0.2789652
0.087635845 0.23352867 -0.26976815 -0.07273187 0.054954637 -0.27447975 0.12802143 -0.088427745
-0.12811756 -0.24085128 0.13909347 -0.16994229 -0.0590998 0.103834264 0.24264158 0.10605044
-0.09043702 -0.10022802 0.11962826 0.02756821 0.24603473 0.091959104 0.27508444 -0.23893219
0.19886862 -0.13601473 -0.08094011 0.022904156 -0.114612855 0.08216912 0.23775457 -0.16541053
0.12149506 -0.24147011 0.046078064 0.24824938 0.16379935 0.22767814 0.15547605 -0.038102027
0.021747414 -0.07375663 0.25784215 0.0997757 -0.16771106 0.2463614 -0.027405256 -0.012818779
-0.107401974 -0.0550976 -0.019662056 -0.07824544 -0.2964265 -0.12529828 -0.07835243 0.1646106
0.19320056 -0.1842225 0.0042350767 -0.07676488 -0.15837395 -0.0818139 -0.058592275 0.13921891
-0.1492548 0.051216245 -0.15359873 -0.079719804 0.19321018 -0.15250784 -0.0283146 0.2213644
0.09707803 -0.09749868 -0.19637208 -0.091720335 -0.10329242 0.14229254 -0.10461333 0.21000548
-0.15513073 -0.11926026 0.11400082 0.23892678 0.23243888 0.03867421 0.017700583 -0.09872577
0.176004 -0.16949806 -0.110308826 -0.20212512 -0.28666267 0.14572616 0.01893865 0.24555454

weight f4 [128, 128]
00000000: 9cec 043e d5a8 833d d36d 193d e62e 5fbb
00000010: 7a13 dc3c 24df 443d affa 333d 4582 9abc
00000020: 8c2f c43c a0de 2bbc 42c4 91bd 8d54 4f3c
00000030: 308b 88bd 1052 4f3d c821 b4bd 84de 09bd
00000040: 8ada 3cbd 89c2 723d 3554 9ebd 6b9b 1d3d
00000050: 5c53 bf3c 2aad 763d 79bf 963c c716 763d
00000060: 5357 6c3d 2e7f f93a 4b08 4b3d e0fb 90bd
00000070: 0eed 26bd cea8 7f3c daf6 783c 129c 89bc
00000080: 0f35 f2bd 0516 e8bc 9085 ee3c 2e11 513d
00000090: ecfd c8bd b1bb 1f3d d4be e4bd ed19 03be
000000a0: 3b37 84bd 1b3d b3bc 68ea 203d e753 89bd
000000b0: 1bd5 633d e1bc 9e3d c10a 093d 7a2e 423d
000000c0: 74c8 43bd f561 79bc d534 e7bc ee6e 20bc
000000d0: 61d3 49bd 7bab 94bd 724e 773d 428a 853c
000000e0: 4fcf a13d 732b 3cbd 67b7 063d 82e9 1abd
000000f0: 8503 dd3c d377 02bc 71f5 703d f04b 403d
00000100: 5a02 be3d e84d 8c3c 5d64 f93a bd8f c33d
00000110: 88b8 b5bd d6ad b43d 4383 8a3d 5e03 9f3d
00000120: 9525 4fbd 6392 eebc d5e9 323b 11f5 32bb
00000130: 3e17 803d 7887 3e3d 67b0 673d 8863 6abd
00000140: b5f4 93bc 1379 3f3d ee18 9e3c 9724 9cbc
00000150: 6f4e efbb e0a9 91bd 92fe 03bd 1673 21bd
00000160: 0c64 9c3d e6c6 afbd 6402 d3bc d16f 94bd
00000170: 3b71 913c 91bf 4abd 71a2 133d 871d 86bd
00000180: ec6d 80bd 270d 53bd 2963 16bd e8a4 953d
00000190: f736 963d e34a cbbb 103f b7bd a8b7 19bd
000001a0: e67f 41bd 49e0 19bc fb59 473c b360 9a3b
000001b0: e68f 033d da4e c73c 1e1c 20bd a4e3 463b
000001c0: ebbe cebb 3e3b 71bd 6068 a83c 6a21 40bb
000001d0: ec6c c5bd 13d2 433d b13c 3c3b 76d0 7fbd
000001e0: f502 8f3d f91c 3ebd 431e 9e3c e047 9b3c
000001f0: 1657 bd3b f079 053c 6973 f93c 95c9 b23d
00000200: ad41 abbd 0ddf 5dbd 671c 00bc e3c6 403d
00000210: aad9 d13b c612 903d d71e 27bc 5bbe 1c3d
00000220: d322 02bd 8bc8 013c d9e7 bdbd c446 8fbd
00000230: 8fa3 903b 3b22 9e3c b3f8 af3d ea2e a03c
00000240: 97da 3d3d 675c 0b3d 5ade 97bd 0083 31bd
00000250: b397 48bd 66e8 b9bc b300 d0bd 9344 fabc
00000260: 0e59 98bc 5abf 363d 14eb 84bb b073 c23d
00000270: 1c3c c03d 1c2f b4bd c128 d1bc 4668 263c
00000280: db65 e13d 9b62 23bc bca0 38bd 4a15 eebc
00000290: 2571 8b3d 8a98 a73b 307c 67bd ca4f b33d
000002a0: 1816 ad3d a7c6 ddbb f633 b8bd 9381 753d
000002b0: 8311 f6bc f0b4 0ebd b421 f8bd b93f acbd
000002c0: ff1d 80bd e389 4abd 7492 5dbd fe28 a83b
000002d0: c2c8 1f3d 180a 85bd c327 59bd f8f1 71bc
000002e0: 3189 723d 7020 5c3d ed53 d0bc 62fb 68bd
000002f0: a16f 87bd 0d52 8cbd f194 b13b 82a8 fb3b
00000300: 1531 393c 14a1 f4ba a360 3b3d 29df c2bd
00000310: 1407 023d 6e4f aa3d ac9f 64bd f86b 77bd
00000320: 8a12 a73d 027b fcbc 2cec abbd 4348 a73d
00000330: 825e e9bc f93f b3bc 5046 763b d41d 023e
00000340: 91c9 c83c 100a 8b3b fed6 d93b afcf 7fbc
00000350: c28d 1c3d 4615 48bd 1c50 5c3c c643 3d3d
00000360: d9cf 24bd 117c ce3d cd89 ddbd d55f f23a
00000370: b6d8 72bd 5ce6 663c 6e02 4c3d 9b4c a73c
00000380: 133a b6bb db13 723d aad0 cbbc 1255 97bd
00000390: 40ab 7bbd cbfc d7bc 829e 45bc 9a46 1ebd
000003a0: e826 743b 874f 8bbd d4ab ec3d 3169 70bc
000003b0: e077 88bc 70fa 523d 767d c4bb ea11 a43d
000003c0: 8f7f 4fbd 9df1 99ba 77c7 52bc cfe7 a43c
000003d0: 0fb0 af3c 68d4 36bd dd99 2d3d 20fa 8dbb
000003e0: 887d dfbc ba90 59bc bb1b 863d 313a 093e
000003f0: 430f fa3c 0dab 093d e589 993d 01b2 89bd
0.12980884 0.064286865 0.037458252 -0.0034055053 0.026864756 0.048064366 0.043940242 -0.018860945
0.023948453 -0.01049009 -0.07117511 0.012654436 -0.06667173 0.05061537 -0.08795506 -0.033659473
-0.046106853 0.059267554 -0.07730905 0.038478296 0.023355179 0.060223736 0.018401848 0.060080316
0.057700466 0.0019035095 0.049568456 -0.07079291 -0.040753417 0.015604211 0.015195573 -0.016798053
-0.118265264 -0.028330812 0.029116422 0.051041774 -0.09814057 0.038997356 -0.1116921 -0.12802859
-0.06455847 -0.021879723 0.039286047 -0.06705456 0.055623155 0.077508695 0.03345752 0.047407605
-0.04779859 -0.015221109 -0.028223434 -0.009792073 -0.049273852 -0.0725927 0.060377546 0.016301278
0.07900869 -0.045939874 0.03288975 -0.037820347 0.026979217 -0.007963139 0.05882782 0.04694742
0.09277792 0.017126992 0.0019027103 0.095489 -0.08873087 0.08822219 0.067633174 0.07764314
-0.05057295 -0.029122537 0.002730002 -0.0027306715 0.06254433 0.04651591 0.056564715 -0.057223827
-0.018061021 0.046746325 0.019298997 -0.019060416 -0.007303051 -0.07112479 -0.0322252 -0.039416395
0.0763627 -0.08582859 -0.025757976 -0.0724789 0.017754188 -0.0494991 0.036043588 -0.06548601
-0.06270966 -0.051526215 -0.03671566 0.07306844 0.073347025 -0.0062039956 -0.08947575 -0.037528664
-0.047241114 -0.009391853 0.012167449 0.0047112345 0.032119654 0.024329592 -0.039089315 0.0030348087
-0.0063093803 -0.05889439 0.020557582 -0.0029316791 -0.09639916 0.047807764 0.0028722698 -0.062454663
0.06982986 -0.04641435 0.01930154 0.018955171 0.0057782037 0.008146748 0.03045054 0.08729855
-0.08362136 -0.054167796 -0.007819272 0.047064673 0.0064041214 0.07034831 -0.010200224 0.038267475
-0.031771492 0.007921348 -0.09272737 -0.06995919 0.004414029 0.019303432 0.085923575 0.01955362
0.04635104 0.03402367 -0.07415457 -0.043337822 -0.048972797 -0.022693824 -0.10156383 -0.030550277
-0.018597152 0.04461608 -0.004056344 0.09494722 0.09386465 -0.08798048 -0.025532128 0.010156697
0.110057555 -0.00997224 -0.045075163 -0.029062886 0.0680869 0.0051146196 -0.05651492 0.08755453
0.0845148 -0.006768066 -0.08994286 0.059938025 -0.030037647 -0.034840524 -0.12115803 -0.08410592
-0.06255721 -0.049447905 -0.054094747 0.00513184 0.039009817 -0.06496066 -0.053016435 -0.0147671625
0.059212867 0.053741872 -0.025430644 -0.056880362 -0.066130884 -0.068515874 0.0054193665 0.00768
0.011303206 -0.0018663728 0.045746457 -0.09515221 0.03174503 0.08315931 -0.055816337 -0.0604057
0.08157833 -0.030820373 -0.083946556 0.0816808 -0.028487448 -0.02188109 0.003757853 0.12706691
0.024510177 0.004243143 0.0066479435 -0.0156134805 0.03822113 -0.048848413 0.013446834 0.046207212
-0.04023728 0.100822575 -0.10817299 0.0018491695 -0.059288703 0.014093008 0.049807005 0.02042227
-0.005561122 0.059100967 -0.024879772 -0.07389273 -0.061442614 -0.026365658 -0.012061717 -0.03864155
0.0037254635 -0.06802278 0.11556211 -0.014673517 -0.016658723 0.051508367 -0.0059964014 0.08011229
-0.05065876 -0.001174498 -0.012864939 0.020130066 0.021446256 -0.04463616 0.042383064 -0.0043327957
-0.027281538 -0.013279134 0.06548258 0.13401105 0.030524855 0.033610392 0.074970044 -0.06723405

bias f4 [128]
00000000: c93b a23d 37fa 13bd f7d6 c6bd 86ab 7ebb
00000010: 7014 fa3b 0ab0 7a3d 95df a9bd f25e 47bc
00000020: 06c7 473d 70a2 3ebc 8523 99bd 0df6 03bd
00000030: 4738 9d3c 5574 193d 8fa9 b9bd 9f9f ab3d
00000040: b4d6 9dbd a528 313d ad1b 923d 3c23 8ebd
00000050: 4ecc 343d 673a 11bc b87d a2b9 38d6 3ebd
00000060: f43f 283d 27d6 663d 49dd 86bc 5316 e73c
00000070: 7978 173d f4bd 68bd 8e2a b43d 1df9 b0bd
00000080: 2d48 3e3b 54ad 633d c2d4 06bc 2b87 ecbc
00000090: 9a0e 45bd ceba 113d e7ed b5bc 74c5 54bd
000000a0: 459b 36bd ebfe cb3c 2266 703d 7ec7 d2bd
000000b0: 0d06 a03c c616 96bd 8247 afbd f122 57bd
000000c0: a53c 833d 9813 7abc c301 e23c 08d5 383d
000000d0: 55e2 393c 55ed 413c ffef 8ebd ca65 143d
000000e0: 80b8 8d3d 4ee0 97bd 78b8 653d 7280 adbc
000000f0: ed4c 603d 37a9 4ebc f2d9 4c3d 39c6 98bd
00000100: ffa4 95bc 5785 d9bc 52be 8abd 5ccc 113d
00000110: 4343 c23d 1342 48bd 9d7f a03d 030f 1c3c
00000120: dd64 97bd eacd 8dbc 790e 9e3d 2c2f 9bbd
00000130: 5f17 38bd 09a1 b13d 3f28 1dbc cd97 813d
00000140: 8714 d5bc 9fcc f1bc 6c68 f8bc fcc9 a23d
00000150: 38f5 b6bd c1d4 86bd bd12 c1bd 9d73 a9bb
00000160: d181 8abd 08e5 a33d b57f 173d ab15 6b3d
00000170: 0d40 c73c 62c2 a03d da39 43bd 1946 51bd
00000180: 5420 b33d b07a 133d 0879 53bd d25f 5cbc
00000190: b769 673d 30b9 d73c de62 6d3d c067 28bc
000001a0: 0cab b3bd 763f 7d3d ea85 913b 9b72 4fbd
000001b0: 0deb 343b 14de dbbd 5cc2 333d 3a89 b13d
000001c0: 01f2 173d 0272 b13d 6b1a 51bd 705f a1bc
000001d0: 7291 88ba 05cc dd3c 6acc 883d 99af c73d
000001e0: d1ec d2bc 20db adbd bb3f 3d3c ce1e 1c3d
000001f0: e3cf 41bc 7f21 16bd e8bc be3c 18ee 8dbd
0.07921559 -0.036127295 -0.0970897 -0.003885956 0.007631831 0.06120304 -0.08294598 -0.012168633
0.048773788 -0.011635408 -0.07477478 -0.032217074 0.019191874 0.03746446 -0.09065544 0.08380055
-0.07706967 0.043251652 0.07134185 -0.06940314 0.044140153 -0.008864022 -0.00030992716 -0.046591014
0.041076615 0.056356575 -0.016462939 0.028208887 0.036980126 -0.05682178 0.08797179 -0.086412646
0.002903472 0.05558522 -0.008229436 -0.028873047 -0.04810963 0.03557854 -0.022208167 -0.05194612
-0.04458167 0.024901828 0.05869115 -0.10291956 0.019534135 -0.073285624 -0.08558561 -0.052523557
0.064080514 -0.015263461 0.02758873 0.045125037 0.011345466 0.0118363695 -0.06979369 0.036229886
0.06919956 -0.074158296 0.056084126 -0.021179412 0.054760862 -0.012613586 0.050012536 -0.07459683
-0.018267153 -0.02655284 -0.06774582 0.035595283 0.094854854 -0.04889114 0.0783684 0.009525063
-0.07392285 -0.017310102 0.07717604 -0.07577357 -0.044944163 0.08673293 -0.009592115 0.06327782
-0.026010765 -0.029516516 -0.03032323 0.07948682 -0.089334905 -0.06583548 -0.09427402 -0.005171253
-0.06763042 0.080026686 0.036987025 0.05739371 0.024322534 0.078495756 -0.047662593 -0.05109224
0.087464005 0.036005676 -0.051629096 -0.01345058 0.056497302 0.026333421 0.057955615 -0.010278642
-0.08772859 0.0618281 0.0044410126 -0.050646406 0.0027605921 -0.107357174 0.043886527 0.08668752
0.037096027 0.086643234 -0.051050585 -0.019698828 -0.0010419323 0.027074823 0.06679614 0.097502895
-0.025747688 -0.084890604 0.011550839 0.038115315 -0.011829349 -0.036653038 0.023283437 -0.069301784

weight f4 [128, 128]
00000000: 4a6d a93d afd1 103d 1942 173e 517e ab3d
00000010: cdca 443d 11da 70bd a5e5 52bd 2994 b03c
00000020: f2a6 ea3d b403 54bb a44d a43d 61e2 d6bc
00000030: 63b2 6d3c 381c 44bd 676f 0d3d a775 a23d
00000040: 3766 70bd 1b01 34bd 5d68 47bc 48aa 58bd
00000050: 61e4 8fbd 97c5 083b 57c1 cebc 0b29 4b3d
00000060: 0144 803a 0d0c 853d 1c6f 5c3d fd28 a63d
00000070: 4795 26bd 88c5 7ebc 5549 b6bd 0354 2b3d
00000080: 5eb0 a73d 826d e73b 7243 c33c d9fc a93d
00000090: a6c8 c7bd 8e3b 473d ba3a bd3d c162 2d3d
000000a0: 549b 813d ed5a acbd e399 9b3d a55e b33d
000000b0: 1deb 57bd e1e1 2a3d 8df4 16bd e929 92bd
000000c0: ee51 763d f4e1 79b9 a12c 563d 3743 a33c
000000d0: 7ae0 adbb 8f4b d53c 829d 333d bd66 b3bd
000000e0: 1987 893d 1dc7 e9bb 0923 b13c 3557 8dbd
000000f0: e2f6 7bbd 30e3 5dbd a0ca d3bd 5a34 093d
00000100: 1939 3dbd d5d9 46bd 89b5 f2bc 9ca1 b9bc
00000110: 7d22 6d3d 1e93 46bd 92d2 943d 57e6 393d
00000120: c278 a6bd f56a 7abd 86b3 9a3c bc6d 253d
00000130: 819e bb3c 71a6 a4bd 6604 c53c 1b72 41bd
00000140: dad8 0ebd 8de6 2c3c a1fe 523d 2b79 dfbd
00000150: f8d9 8d3c 6f82 423c ca58 fdbc f62f ac3d
00000160: fe19 d53c 8478 8a3d 90af 25bd 5b10 28bb
00000170: f9e6 39bc a7fa 753c 5516 a7bd 6bc6 7d3d
00000180: 86ff aabd cfbf 4c3d 2d0e f5bc 4dfe e23c
00000190: f888 96bd 1e9b 93bd ed7e ac3d d3ef 593d
000001a0: 31d9 563d fd49 70bd 8b23 ecbc ea75 213d
000001b0: 4bb6 7b3d 991f 9d3d 13fa fd3d 943d 23bd
000001c0: 3b69 24bd 5dbd 873c 4a9d bcbd eb12 28ba
000001d0: 6c3b a53d 67ec 40bd 6483 0abd 5e58 76bd
000001e0: acdd 1fbc 95b7 6f3c be59 8cbd 66f5 a23d
000001f0: 4bb3 b5bd 1527 2dbd e3f0 7bbd d214 b0bc
00000200: 2471 0e3d b973 74bd 188e 88bd 8230 a1bd
00000210: a2d7 bd3c 2809 b03d 7f52 e93c 8bd4 0a3d
00000220: 0917 67bd 73ac 02bd e9de 233d 2bc3 64bc
00000230: 4a9c cb3d e6e9 96bd 39da 9bbd af3a 03bd
00000240: 6bbe 6cbd be35 c83d 68f1 573c f5ba 22bd
00000250: 1713 80bb 1afd 463d 2041 a1bd dd48 35bc
00000260: 9705 39bd 82ab 3bbd 7c4a ffbc 6546 3a3b
00000270: 5736 9ebd 7060 a33d 3447 803d a101 9c3b
00000280: b746 b6bc 92c6 453c 5be4 5a3d 4d32 ed3c
00000290: d25e 413c c7bb f1bc 5cbc 5fbd e4bb c4bd
000002a0: 60b6 4fbc 9709 8dbd 8e0c 543d 7dd8 47bd
000002b0: 95a4 bf3b 5aff 6a3d 94d6 61bd c991 8dbc
000002c0: d243 1cbd 9735 c93c 0b37 cf3d 9823 833d
000002d0: f24f 723d 8263 7fbd 74cd 94bd ac9c 18bd
000002e0: d746 dabc d5ff 473d d2d1 b5bc b3cd 8d3d
000002f0: 20e7 5cbd 8f90 f73c 8a7f 103d f745 823d
00000300: d231 c73d 431c 5dbd 0d8c c33d 44c4 eb3c
00000310: 5e6f d53d 9a7a 513d c786 90bd ac22 923c
00000320: 0ede 2e3c c411 443d df80 cabc f378 2e3d
00000330: 4006 6ebd 82bd be3b 95a5 bfbc a53c b93c
00000340: 3968 7dbd 0c2f 943c 7f24 0f3d 6909 edbb
00000350: a576 ec3d 5229 97bd 8b78 a73d 3223 c9bd
00000360: d3d5 29bc a435 3fbd 5f23 10bd 2350 cb3c
00000370: c048 fbbc bc6b 84bc e3d3 cd3d 2a4c 9a3c
00000380: 2223 c33c 6304 d5bc 4868 5e3d 79d3 12bd
00000390: 1324 2e3d 1584 adbd d77a 80bd 76f6 8c3d
000003a0: 7a87 903d a23f 723d 6241 86bc e174 d6b9
000003b0: 49a1 1cbd e3f5 4bbd ee65 19bd 2dbb 0dbc
000003c0: a314 323d 009a 9c3d 3d9d a83d 077f a0bc
000003d0: f446 5d3b 11b1 a8bc d7dc d73c 3711 84bd
000003e0: b37d 13bc 35af 9e3b 2642 e43c b334 e13c
000003f0: 8d4f 22bc d03f 1ebd 7949 c03d 8041 a1bc
0.08272798 0.03535622 0.14771308 0.08373702 0.04804497 -0.058801714 -0.051488537 0.021555023
0.114576235 -0.003235084 0.08022621 -0.026230993 0.014507863 -0.047878474 0.03453007 0.07932597
-0.05869123 -0.043946367 -0.012170878 -0.052896768 -0.07025982 0.0020869726 -0.025238676 0.04959969
0.0009785892 0.06496439 0.0538169 0.08113287 -0.040669706 -0.015550025 -0.08900706 0.041828167
0.08187936 0.007062615 0.023835871 0.0830018 -0.097550675 0.04864078 0.09239717 0.042330507
0.063284546 -0.0841578 0.07597711 0.087582864 -0.052714456 0.04171932 -0.036854316 -0.071369
0.060136728 -0.00023830665 0.052288655 0.019929511 -0.0053063007 0.026037006 0.043851383 -0.0875983
0.06715221 -0.007134332 0.021623151 -0.06901399 -0.061514743 -0.05417174 -0.10341382 0.033497192
-0.04619703 -0.048547585 -0.029627578 -0.02266007 0.05789422 -0.048480146 0.072667256 0.045385685
-0.081285015 -0.06113716 0.018884432 0.040387854 0.022902729 -0.08039559 0.024049949 -0.04722796
-0.034874775 0.010553014 0.051512364 -0.10911783 0.01731585 0.011871918 -0.030926127 0.08407585
0.02601337 0.06761268 -0.040450633 -0.0025644514 -0.011346572 0.015013373 -0.08158556 0.061956804
-0.083495185 0.04998761 -0.029913986 0.02770915 -0.073503435 -0.07207321 0.08422647 0.05320723
0.052453224 -0.05866431 -0.028825542 0.039419092 0.061453145 0.076720424 0.124012135 -0.039853647
-0.040139418 0.016569788 -0.09209688 -0.00064115104 0.080679744 -0.04710045 -0.03381671 -0.060142867
-0.009757441 0.014631172 -0.068530545 0.07956962 -0.08872088 -0.0422736 -0.061509024 -0.021494303
0.034775868 -0.059680674 -0.06667727 -0.0787058 0.02317411 0.085954964 0.02848172 0.033894103
-0.056418452 -0.03190274 0.040007506 -0.013962547 0.09941919 -0.07368831 -0.07609982 -0.032038387
-0.057798784 0.097758755 0.013180114 -0.039729077 -0.0039085257 0.04858122 -0.0787375 -0.011064735
-0.045171347 -0.04581786 -0.031163447 0.0028423306 -0.07725208 0.07977378 0.06263581 0.0047609364
-0.022250516 0.012071269 0.053440433 0.02895465 0.011802392 -0.029508485 -0.054622993 -0.0960615
-0.012677759 -0.06886595 0.051769786 -0.048790444 0.005848477 0.05737243 -0.05513628 -0.01728143
-0.038150616 0.024561686 0.101179205 0.06403273 0.059158273 -0.062350757 -0.072657496 -0.03725879
-0.026645107 0.048827965 -0.022194777 0.06924 -0.053931355 0.030220298 0.03527788 0.06361001
0.09726299 -0.05398203 0.09548197 0.02878011 0.10421632 0.051142313 -0.07056957 0.017838798
0.010673059 0.047868505 -0.024719654 0.042595815 -0.05811143 0.005820931 -0.023394385 0.022611925
-0.061866973 0.01808884 0.034946915 -0.007233788 0.11546067 -0.07380928 0.081772886 -0.09821166
-0.010365921 -0.046682015 -0.035189983 0.024818486 -0.030674338 -0.016164653 0.1005018 0.018835146
0.023820464 -0.026003068 0.05429867 -0.035846207 0.04251487 -0.08472458 -0.0627343 0.06882946
0.0705709 0.059142716 -0.016388599 -0.00040904342 -0.03823975 -0.049795043 -0.037450723 -0.008650583
0.043476712 0.07646561 0.08233116 -0.019591821 0.0033764215 -0.020592244 0.026350422 -0.06448596
-0.009002137 0.0048426636 0.027863573 0.02749095 -0.009906662 -0.038635075 0.09389014 -0.019684553

bias f4 [128]
00000000: 4d77 17bd 9a76 1c3d e86e 73bb 503b 1a3d
00000010: 2cf0 02bd 1230 f7bb 6514 d9bb ed39 1c3d
00000020: f59d 843d 2297 a6bc 45fb 67bd 3f41 ab3d
00000030: 890b 7ebd 8d8b b83d 766c 713d 446c 0e3d
00000040: 1d73 78bc bfc4 80bc 4a53 823c 7e00 26bd
00000050: 26cf 06bd 4ec0 923d 3f30 edbc f9ad 40bd
00000060: 4ffb 41bc 7d32 4bbd 2d3b 9bbc 6de8 e53c
00000070: 0647 1bbc 8d4f e9bc 0a59 28bd 91da 8b3d
00000080: ad68 65bb a9fc 2bbd 53f7 8d3b 0930 093d
00000090: 2714 b0bd 968c 283c c463 fa3c 5ac2 773c
000000a0: 06be 883b b9c5 50bb 5862 c63d c263 883c
000000b0: c67a edbc f769 c43d 2364 203c bd7d 86bd
000000c0: f419 c03c 1f1f 58bd 1a75 2f3d 649e b0bc
000000d0: b16a d83c 10b2 dfbc 9a49 193d 45bf 4cbd
000000e0: 6c2b bfbc 529f 043c 6098 bcbd 0846 b6bd
000000f0: 8b06 103c 1f9d 823d 2a5c 65bd 5d08 0a3d
00000100: 8ae1 a539 7c38 a23d 1abc b7bb cd70 80bd
00000110: 9405 4a3d b8d3 6fbd 6218 70bd d42d ccbc
00000120: 1327 84bd 23d3 8339 1759 963c 524d 2fbd
00000130: f65c cc3c e364 173d c7e6 463d 4624 61bc
00000140: a82b c33d 9d50 3f3d 4757 0ebd 1b32 873c
00000150: 5b56 65bd f9a0 263d 955c 85bd af99 3e3d
00000160: ca5b 933d 2945 1cbd 48f4 8fbc 16f3 6dbc
00000170: 9e15 a2bc aacb aa3d 1b6f 99bd 8a95 a53d
00000180: 849c ddbc b035 7b3d 192f a5bc 678f 443d
00000190: 37af 723d 24a8 6a3d 18f8 223d 46f3 863d
000001a0: a6cf fdbb cb8b 4ebb 2b08 8abc d2a0 463d
000001b0: 8507 bb3b ffcb 40bd 78fc 51bd 56d6 86bc
000001c0: 0993 99bd 32b7 7cbb adbc 95bc 895d 82bd
000001d0: 1e5b 953d 5301 ce3d a874 993c f57b 11bd
000001e0: 2c15 723d a758 1e3d 9681 69bd 8909 92bc
000001f0: 92af 0a3d 216e 483d c22b 87bd cb46 9f3c
-0.03697901 0.038199045 -0.0037144963 0.03765422 -0.031967327 -0.007543572 -0.0066247457 0.03814118
0.064754404 -0.020335738 -0.056636114 0.08362054 -0.06202272 0.09010992 0.058941327 0.03477122
-0.015164164 -0.015718816 0.015908856 -0.040527813 -0.032912396 0.071655855 -0.02895367 -0.047040913
-0.011839702 -0.049608696 -0.018949116 0.02806493 -0.0094773825 -0.028480316 -0.04110054 0.068287976
-0.0035005019 -0.041989002 0.004332462 0.033493076 -0.08597594 0.010287425 0.03056515 0.015122021
0.004173043 -0.0031856133 0.09686726 0.01664913 -0.028989207 0.09590524 0.009789499 -0.065669514
0.023449875 -0.052764054 0.042836286 -0.021559902 0.026418062 -0.027306587 0.037423708 -0.049987096
-0.023336135 0.008094626 -0.09208751 -0.08900076 0.008790622 0.06377625 -0.055996098 0.033699382
0.00031639292 0.0792093 -0.0056071403 -0.06271515 0.049321726 -0.05855152 -0.058617003 -0.024924196
-0.06452765 0.00025143576 0.018353028 -0.042798348 0.024946671 0.036961447 0.04855993 -0.013741558
0.09529811 0.04670774 -0.034751203 0.016503384 -0.055990558 0.04068086 -0.06511799 0.046533283
0.07195242 -0.038151894 -0.017572537 -0.014523288 -0.019785699 0.08339627 -0.07491895 0.08085163
-0.027052172 0.061330497 -0.02016406 0.04798832 0.05924913 0.057289258 0.039787382 0.065893695
-0.007745701 -0.0031516429 -0.016849598 0.048493214 0.0057076835 -0.047069546 -0.051266164 -0.016459625
-0.07498748 -0.0038561341 -0.018278444 -0.06365497 0.0729277 0.10058846 0.018732384 -0.035518605
0.059102222 0.038658764 -0.05700835 -0.017826812 0.033858843 0.048933152 -0.06600143 0.019442936

weight f4 [128, 128]
00000000: a21a b83d 9544 83bd 218f ee3c f27a 91bd
00000010: 1914 f6ba 6de7 96bd 5cd6 6c3d 91cd 503c
00000020: dff5 873d 613b 743d 00f0 103a c7af 3dbd
00000030: b414 033e daf1 19bd 5321 28bd 1456 6bbd
00000040: a823 ef3b 9102 62bd df5a 39bd d7f2 bc3c
00000050: 6783 b3bd 94d7 f83c 919c b9bd 121b 7a3d
00000060: 4583 4abd 0d31 543d 2e95 933b b625 5d3c
00000070: a71b 153d 51b3 693d 42b6 abbd 6ef6 40ba
00000080: 1db6 313d 4edf dfbc 1856 4ebd ecc8 8d3c
00000090: 2896 0fbd 3132 573d 0c8f 86bd 6096 693c
000000a0: 0a4d a8bd d511 48bd 6848 8ebd c469 4fbd
000000b0: 7b16 a3bd 1089 303d 413d afbd 9e03 37bd
000000c0: f543 a23d 0bd2 81bd 1980 ab3d 90f8 e83b
000000d0: 6db3 8e3d 6f96 b9bc e589 883d 50fe bfbd
000000e0: bc94 a13b 619e 19bd c08f 5cbd 02bc a13d
000000f0: 4055 91bd cde1 86bc ff24 59bc 54e9 c83d
00000100: 9028 42bd cc59 a03d 763f 90bd 7484 673d
00000110: 20d4 713d 62c3 7dbd 1b0d 9dbd 9966 883c
00000120: 36c2 c0bc c4b5 083d f82c 2fbc e927 b9bc
00000130: f0ad 3a3d a390 133c 3f6a 7fbd 65de a23d
00000140: 659a c1bc 0783 963c 2735 e93d d1c8 afbd
00000150: 4ebd df3c 7404 993d d711 0abd ad95 fabc
00000160: cff4 753d c59a 01bd 11fa ed3a daf4 8abb
00000170: b308 b13d ad80 8fbd 8336 ab3c 3256 993d
00000180: 80b0 d1bd d50f 3c3d 6f14 853d ee6e 4a3c
00000190: 1854 d5bd 08c9 b93c fd77 6d3d f62a 813d
000001a0: e57e b8bd 65f5 bbbd 556d 13bd 13c1 00bd
000001b0: 8b94 8f3d 7479 a4bd 3043 0b3e 4280 a3bd
000001c0: dbd9 98bd 352c 80bc 0ed2 593d 91b6 f53c
000001d0: eee3 84bd c84a 453d 9490 f33c 5ee1 28bd
000001e0: bab3 413b 62c2 e7bc 2acd c43c 8d8a 2fbd
000001f0: 5c0d 823b c001 043d 3006 b3bc 656d a53c
00000200: 2401 bebc 1c82 64bd 35de 783d 6ceb 383d
00000210: 1e39 9039 976b 273d 4312 b13d 0c67 9a3d
00000220: d723 93bd dd2e 9abb d9f2 553b 0d03 b83d
00000230: 4f73 cc3c 3ed6 7fbd c8a9 25bd e81b 39bd
00000240: 3a81 82bc 09b7 093d 8f1e 463d e97f 12b9
00000250: f4a8 653c 1e5a 013d dbb9 323d d39a bb3d
00000260: daf2 de3d b474 aabd f3ed 59bd de31 a5bd
00000270: 92ed 1c3d 0607 98bd d148 83bd 7cb8 8abd
00000280: 0643 50bd bfb0 cd3d bc4b 2dbc df39 52bc
00000290: 34c1 5d3d 757a 783c b11c dbbc f623 32bd
000002a0: da5b 9b3c a946 523d 2d4b 8a3a 16ac 933d
000002b0: 8a46 2abd 7c5a 05bc bbf7 88bb 3324 bcbd
000002c0: f0c7 723c e6db 3dbd ac45 a5bd 2afb 443d
000002d0: 64b0 073c 25b5 543c 15a9 393d a9fa b43d
000002e0: 1b22 62bd 3bf0 313d 1b83 ef3c a18b 5cbc
000002f0: 40b8 103d 4e71 0fbd 1336 eb3c f78f bc3c
00000300: e48a 95bd b8aa 573d b32c ad3d 500f a9bd
00000310: 1fab ad3d ac0e c63c 2c93 6fbc 541a 79bd
00000320: 62a0 183d 3d3a 04bd 9e02 853c c406 403c
00000330: 7d70 72bc 23ec 50bd 9bf0 02bd b574 b93d
00000340: eeec b83d 5e8d 593d f0e9 0e3d 5a44 b8bb
00000350: 0ef7 be3d ab58 d43d 1907 9dbd 1ddd 1d3d
00000360: 1ee7 6fbd 896b 43bd 5f13 423a 3790 96a6
00000370: 5601 333d d7ee d8bc 3bc4 c0bc 5a46 4abd
00000380: 7ee9 a23d c3e4 4ebd 2346 2dbd 1a10 37bd
00000390: 3342 153c ac2f 963d 9063 9b3d 516e 55bc
000003a0: f610 023d 0f4c 2d3d 7fa6 9abd fa54 5abd
000003b0: 0f25 14bd 71a2 a63c 5680 26bd 17a1 f5bc
000003c0: a5fc 903d 2658 3d3d d917 923c 456a 98bd
000003d0: 9df9 6e3d ccfe 8e3d 830c 0abd 486f 903d
000003e0: cc34 33bd 0763 b53d 7364 0ebd b1a4 003d
000003f0: deca 73bd 63ce 643d da3b 983d 62ba 7c3d
0.08989455 -0.06409565 0.029120984 -0.07103528 -0.00187743 -0.0736836 0.057821617 0.012744323
0.06638693 0.05962694 0.0005528927 -0.046310212 0.12800866 -0.037584163 -0.041047405 -0.057455137
0.0072979517 -0.05517823 -0.045252677 0.023065014 -0.087652974 0.030376233 -0.09063066 0.061060973
-0.049441595 0.05180459 0.0045038676 0.0134977605 0.036403324 0.057055775 -0.08384372 -0.00073609396
0.043386567 -0.02732816 -0.050375074 0.017307721 -0.03505531 0.0525381 -0.06570253 0.014257044
-0.08217819 -0.04884513 -0.06947404 -0.050637975 -0.07963272 0.043099463 -0.08556605 -0.044681184
0.07923118 -0.06338891 0.08374042 0.007109709 0.069678165 -0.02265474 0.06666926 -0.09374678
0.0049310606 -0.037504558 -0.05384803 0.07897188 -0.07096338 -0.016465092 -0.013253449 0.09810129
-0.047401965 0.078296274 -0.07043354 0.0565228 0.05904019 -0.06195391 -0.07668515 0.016650485
-0.023530107 0.03337647 -0.010691874 -0.022602038 0.045576036 0.009006652 -0.062357184 0.07952575
-0.023633191 0.018373026 0.11387091 -0.085832246 0.027311947 0.074715525 -0.03370842 -0.03058895
0.06004792 -0.03164174 0.0018156191 -0.0042406144 0.08644237 -0.07006965 0.020900017 0.074871436
-0.10238743 0.045913536 0.06498038 0.012355549 -0.1041643 0.022678867 0.057975758 0.06307022
-0.09008578 -0.09177665 -0.03599294 -0.03143413 0.07010754 -0.08030978 0.13599849 -0.079834476
-0.07463428 -0.01564608 0.05317884 0.029994281 -0.06488787 0.04816702 0.029732026 -0.041230552
0.0029556588 -0.028290931 0.024023611 -0.04285674 0.0039688777 0.03222823 -0.021853536 0.020193765
-0.023193903 -0.055788144 0.06075879 0.04514639 0.00027508376 0.04087409 0.08646061 0.07539186
-0.0718457 -0.0047052936 0.003264597 0.08984957 0.024957327 -0.062460177 -0.04044512 -0.04519263
-0.01593076 0.03362182 0.048368987 -0.00013971295 0.014017332 0.031580083 0.043634277 0.0916039
0.10886164 -0.083230406 -0.05320544 -0.08066152 0.038312502 -0.074232146 -0.06410373 -0.06773469
-0.05084517 0.10043477 -0.0105771385 -0.01283118 0.05413933 0.015165915 -0.02674708 -0.043491326
0.018964697 0.051336918 0.0010550969 0.07210557 -0.041571178 -0.008139249 -0.0041799224 -0.09186592
0.014818177 -0.04635229 -0.080699295 0.04809109 0.008281801 0.012982641 0.045327265 0.08836872
-0.055208307 0.043441992 0.02923732 -0.0134610245 0.035331964 -0.035020165 0.028712308 0.023017867
-0.07301882 0.052653044 0.08455791 -0.08254874 0.084799044 0.024176918 -0.014622491 -0.060816124
0.037262328 -0.032282103 0.0162366 0.011720363 -0.014797327 -0.051006448 -0.03196774 0.09055463
0.09029566 0.053113334 0.03489107 -0.0056233825 0.09324466 0.103684746 -0.076673694 0.03854095
-0.05857002 -0.047709975 0.0007403399 -1.044743e-15 0.043702446 -0.026481075 -0.02353107 -0.0493835
0.07954691 -0.050511133 -0.042303216 -0.04469309 0.009110021 0.073333114 0.075873494 -0.01302679
0.031754456 0.042308863 -0.07551288 -0.053303696 -0.036168154 0.02034113 -0.040649734 -0.02998404
0.07079438 0.046226643 0.017833637 -0.07442144 0.05834352 0.069821924 -0.03370334 0.07052475
-0.043751523 0.088567786 -0.034763765 0.031407062 -0.05951964 0.05586089 0.07433291 0.061701186

bias f4 [128]
00000000: a5e2 493d 79a3 a63d 6eb9 e83c 5a7f e83c
00000010: 7eee cd3d 7b7a 843d 1e11 083d ec50 8a3d
00000020: cdbf c1bc 663e 8cbd ac3e 8cbc 77ee 8c3c
00000030: c576 1fbd e724 c13c 4d38 fc3c 8ae1 dcbc
00000040: 7953 96bc 56bd bbbd 9621 643d 98f4 053d
00000050: 8291 0b3d dc23 0dbd 720b 51bd c222 a93b
00000060: 1a99 573d 0be1 033d 3665 8c3d 288f 673d
00000070: 8ea0 a8bd 3153 333d 9d35 8c3d 4f0f aa3d
00000080: 7f80 e13c 42ae 453d a416 8b3d c0be e2bc
00000090: c84f 73bd 38d1 1e3d 7768 88bd 4e36 103d
000000a0: 0cbc 9d3d bac1 483d b17b 08bd 3c28 b43d
000000b0: 90e0 163d c7c1 5c3d 61a4 673c c7f2 49bc
000000c0: 00f9 d33b fdc6 33bd 795e bbbd 680c a9bb
000000d0: d3fc 013d 5924 76bd da19 8c3d 941e 3d3d
000000e0: 51ce b93d b45e 6abd 29e2 0abd 12f3 f03c
000000f0: 3b18 2bbd 7319 09bd c1c4 2abd ee0c a13d
00000100: f954 d33d cb1d f0bd f1f7 63bd e4e3 e0bc
00000110: 941a 1b39 12b9 563d 1af3 bcbc b463 1a3d
00000120: ebcb b93c 24bb 85bd 3da1 89bc 2ecb 863d
00000130: 4c5e 10bd ef6a 423d 9725 5abc ff4e 05bc
00000140: 0315 0f3d 7cc4 a6bb e78d d8bc ee43 a43c
00000150: 6535 37bd 6897 393a 85bd 8cbd 5c0c bc3c
00000160: 544a e0bb 3785 eabc da91 b53c 5b17 77bc
00000170: 0ebf ce3d 5ed4 3abd b3af 39ba 2cb0 c13c
00000180: 260b 4a3d cd0e fc3c c03c f23d de16 393d
00000190: de03 603d c9a4 123d 1c15 19bd b543 40bc
000001a0: 6e9d c1bd 6a64 423d 2975 82bc c913 8e3d
000001b0: a6a9 28bc 2180 6dbd e7af c43b 66b6 083d
000001c0: c500 16bd 7dd7 91bc f9c0 96bd 91d0 7e3d
000001d0: f519 5cbd 0f65 88bd 77c2 4f3d d5d7 4cbd
000001e0: d643 d03c ba40 573d 1e20 52bd b432 0a3c
000001f0: 22f0 a9bd bca4 ac3d 6585 863d 999f 9ebc
0.04928841 0.08136649 0.028408732 0.028381038 0.100552544 0.06468674 0.03321945 0.06753716
-0.023651028 -0.06847839 -0.017119728 0.017203553 -0.038931627 0.023577167 0.030788565 -0.026963014
-0.01835035 -0.09166972 0.055696093 0.032703966 0.034074314 -0.034458026 -0.051036306 0.005161614
0.052636243 0.03219704 0.06855242 0.05653301 -0.082337484 0.04378051 0.068461634 0.08303701
0.027527092 0.04826189 0.06791428 -0.027678847 -0.059402257 0.038773745 -0.0666055 0.03520804
0.07701883 0.049012877 -0.033321086 0.087967366 0.036835253 0.053895738 0.014138312 -0.012325949
0.006468892 -0.043890942 -0.091488786 -0.0051589496 0.031735253 -0.060093258 0.06840868 0.04617174
0.09072555 -0.057219222 -0.03390709 0.02941278 -0.041771155 -0.033471536 -0.041691545 0.07863794
0.103189416 -0.117244326 -0.055656377 -0.027452417 0.00014791853 0.05242259 -0.023065139 0.03769274
0.022680243 -0.06529835 -0.016800517 0.06581722 -0.03524618 0.04746526 -0.013314626 -0.00813651
0.034932148 -0.0050893407 -0.026434852 0.020051923 -0.044728655 0.0007079751 -0.068720855 0.022955112
-0.006844798 -0.028627975 0.022164274 -0.015081252 0.100950345 -0.045612685 -0.0007083371 0.023643576
0.04932704 0.030768776 0.118279934 0.045187823 0.054691188 0.035801683 -0.037373647 -0.011734893
-0.094538555 0.047459044 -0.015925007 0.069373675 -0.010294354 -0.05798352 0.0060024145 0.033377074
-0.036621828 -0.017802948 -0.07361025 0.062210623 -0.053735692 -0.066599004 0.050722566 -0.05001052
0.025422972 0.052551962 -0.05130016 0.00843494 -0.08297755 0.08429858 0.06568412 -0.019363211

weight f4 [1, 128]
00000000: ded7 f23c 9bf5 5ebd 2729 7bbc b0dc c33d
00000010: 7587 32bd 630b 053c 1648 003e 26f0 56bd
00000020: 27f1 bfbd 476e c83d e589 4fbd 68ac 6ebd
00000030: bf42 793d 9a30 55bd 2990 bc3d 87a6 5ebd
00000040: ff68 63bd 8bfd 8d3d b3ef 1fbd 0759 c2bd
00000050: 5224 4ebd c812 6cbd b840 7cbd 8ba8 073e
00000060: afe1 bdbd 88d1 f73d 565e 3abd da92 c0bd
00000070: 7b14 633d 0906 a3bd a869 66bd 6160 87bd
00000080: e94a 8dbd 6ded babd 8241 9f3d 3a95 be3d
00000090: 7bed 57bd 7683 be3d 1a29 933d dcdd 503d
000000a0: f2a5 8bbd 4343 b8bc 5c37 e73d dfd6 bfbd
000000b0: 63f5 57bd 682e b93d 43eb 003e 910e 8bbb
000000c0: abba 963d c455 6a3d 643f 0c3d e093 afbd
000000d0: 5170 893d 5131 a03d 25f7 e5bc a5a7 c7bd
000000e0: d550 75bd 6ef4 43bc b52a 443d 4d71 a93d
000000f0: 9249 39bd 446f df3d 7867 2ebd 5e5e 5c3d
00000100: 5976 82bd e785 ee3d 10dd 9f3d b11b b53d
00000110: 8cf6 92bd 855a 4fbd fe29 27bd e6cd 2a3d
00000120: cdf6 9b3d b7fb 4d3c 1a7c 70ba e0f0 9a3c
00000130: 5420 563d a9e3 c43d 232e 45bd a4c8 8a3c
00000140: a717 aebd a606 cf3d f6f5 503d c825 b0bc
00000150: 62c3 fdbc d5e3 efbc 2599 81bc 55bf a93d
00000160: 3ed8 f83d 6d66 cc3d 258b ca3d bb0e 40bc
00000170: 2151 93bd 0611 513c 6c87 843d dadc 9abd
00000180: 3c33 8c3d 0f94 9ebd 51a2 e4bc 2bd1 55bd
00000190: a959 203d 816a 843d 8e84 5abb 89ee 9e3d
000001a0: 65c1 dbbc b6ca e93d e576 073e dc17 ebbc
000001b0: bddb 823d 7f43 af3d 208c 9a3c 6191 e93d
000001c0: d91b aabc 8354 623d 45cf 7b3d 7db4 e1bd
000001d0: c338 babd ad0d a6bd deeb 2fbd 8ec2 abbd
000001e0: 3f97 e83d c3c9 be3d 5a57 de3d ca9f b1bc
000001f0: 8c3a e5bc fe00 09bd d00b 9a3d 958b e23d
0.02964395 -0.054433446 -0.015329636 0.09563577 -0.043586213 0.008120391 0.12527499 -0.052475117
-0.09372168 0.09786659 -0.050668616 -0.05826989 0.06085467 -0.052048303 0.09207184 -0.05435803
-0.055520054 0.06933125 -0.039046954 -0.09489637 -0.050327606 -0.0576351 -0.061585158 0.13247888
-0.09271561 0.12100512 -0.045500122 -0.0940301 0.055439454 -0.079601355 -0.056253105 -0.0661018
-0.068990536 -0.091273166 0.077761665 0.093058065 -0.052716713 0.09302418 0.07185574 0.05099283
-0.06818761 -0.02249301 0.11289856 -0.09367155 -0.052724253 0.090420544 0.12589745 -0.00424368
0.07359823 0.0572107 0.03424014 -0.08573127 0.06710876 0.07821906 -0.02807195 -0.097487725
-0.05989154 -0.011960132 0.04789229 0.082735635 -0.045236178 0.10909894 -0.042579144 0.053800933
-0.06370229 0.116466336 0.07805836 0.08843172 -0.07175931 -0.050623436 -0.04081153 0.041700266
0.07615433 0.0125722205 -0.0009173766 0.018913686 0.052276924 0.09613735 -0.048139703 0.016941376
-0.08500605 0.1010869 0.051015817 -0.02150239 -0.030976955 -0.029283443 -0.015820095 0.08288447
0.1215062 0.09980474 0.09889821 -0.011722262 -0.071932085 0.012760406 0.06471142 -0.07561655
0.0684571 -0.07743084 -0.02790943 -0.05220143 0.039148007 0.064656265 -0.003334317 0.07760341
-0.026825616 0.11415617 0.13228948 -0.0286979 0.06389568 0.08557796 0.018865645 0.11404682
-0.020765232 0.055256378 0.061476965 -0.110207535 -0.09092858 -0.08108077 -0.04294955 -0.08386718
0.11356973 0.09315827 0.10856505 -0.021682639 -0.027982019 -0.03344821 0.07521784 0.110617794
